project3--CNN-COMPRESS/checkpoints/LeNet5/epoch-7.pth (torch, 243143 bytes, 10 tensors)

conv1.weight f4 [6, 1, 3, 3]
0	0x3ec801fc	0.39064014
1	0x3eb19af6	0.34688538
2	0x3e674e35	0.22588427
3	0x3e0cfaa6	0.1376749
4	0x3e516bfd	0.2045135
5	0xbd9a3574	-0.075297266
6	0x3ef534cc	0.47891843
7	0x3f096fff	0.5368652
8	0x3e70caa0	0.23514795
9	0xbc8d7f6d	-0.017272675
10	0x3ea10c8b	0.31454882
11	0xbe35a1e6	-0.1773754
12	0x3ecf01da	0.404311
13	0x3ec03f94	0.37548506
14	0x3d921ef4	0.0713481
15	0xbe1f910f	-0.15582679
16	0xbe1e6fa5	-0.15472277
17	0xbd547837	-0.05187246
18	0x3f3d4028	0.7392602
19	0x3f54957b	0.8304059
20	0x3f3c7fe9	0.73632675
21	0x3f5b5da7	0.8568978
22	0x3f6b6f83	0.9196703
23	0x3f19fa73	0.6014778
24	0x3f0fcb50	0.56169605
25	0x3ea75b41	0.3268681
26	0xbb74e26d	-0.0037366406
27	0x3e593e1b	0.21215098
28	0x3ec81fcb	0.39086756
29	0x3df99f4f	0.12188589
30	0xbd8ab183	-0.06772139
31	0xbe63e833	-0.22256546
32	0x3d74cc85	0.059765358
33	0xbddc2555	-0.10749308
34	0xbe970170	-0.29493284
35	0xbd65612c	-0.056000873
36	0x3e503ee8	0.20336497
37	0xbe5805ca	-0.21095958
38	0x3e65b53e	0.2243242
39	0x3ec5c11c	0.38623893
40	0x3e2509a9	0.16116966
41	0xbeafc7b0	-0.34332037
42	0xbc74d625	-0.014943634
43	0x3d8839b5	0.06651632
44	0x3ea1c948	0.31598878
45	0x3d46958a	0.048482455
46	0xbeb02530	-0.34403372
47	0xbe8f8553	-0.28031406
48	0x3ebcbcb8	0.3686273
49	0xbe3c9e5b	-0.18419783
50	0x3e088e8b	0.13335626
51	0x3e71368d	0.23555966
52	0x3defa783	0.11701872
53	0xbdbd15ad	-0.0923265

conv1.bias f4 [6]
0	0xbcf68306	-0.030091774
1	0x3dc99679	0.098431535
2	0x3f121196	0.57058084
3	0x3e2d1471	0.16902329
4	0x3e238164	0.15967327
5	0x3a694255	0.0008898129

conv2.weight f4 [16, 6, 3, 3]
0	0xbe29d668	-0.16585696
1	0x3e48b7aa	0.19601312
2	0xbd7c11ab	-0.061540287
3	0xbdaacfaf	-0.08340394
4	0x3e35e6df	0.17763852
5	0x3b9724d7	0.004612546
6	0x3e0a6b85	0.13517578
7	0x3db1944d	0.08670864
8	0x3d15fde2	0.036619075
9	0x3d47215c	0.0486158
10	0x3de25074	0.110505015
11	0x3e25ea9b	0.16202776
12	0x3d2d22ff	0.042269703
13	0x3e04dfc4	0.12975985
14	0x3c8382cc	0.01605358
15	0xbdd62baf	-0.10457551
16	0x3d90ee76	0.07076733
17	0x3dcfe71b	0.10151502
18	0xbe8f319e	-0.27967542
19	0x3e981b6f	0.2970843
20	0x3d94a710	0.07258427
21	0x3d3b77b0	0.04576844
22	0x3e9f0891	0.31061223
23	0xbe611d3c	-0.21983808
24	0x3e7242f0	0.23658347
25	0x3dd4ed99	0.10396881
26	0xbe951161	-0.29114822
27	0xbe0cff3e	-0.13769242
28	0x3d0e52d6	0.034746967
29	0x3e18b722	0.1491361
30	0xbdf42ea7	-0.11922961
31	0xbddda086	-0.10821633
32	0xbdb8d785	-0.09025482
33	0xbd983463	-0.07431867
34	0xbd518479	-0.051151726
35	0xbda02725	-0.07819966
36	0x3d98696b	0.07441982
37	0x3b8f94be	0.004381745
38	0x3e051402	0.12995914
39	0xbe208fb1	-0.15679814
40	0x3e185016	0.148743
41	0xbd4be268	-0.049776465
42	0xbd1d04d1	-0.03833467
43	0x3d9f6602	0.07783128
44	0x3d8d4835	0.06898538
45	0xbd338e81	-0.043837074
46	0x3ca646a6	0.02029736
47	0x3df12c99	0.117760845
48	0xbd9817fb	-0.07426449
49	0xbdde4f62	-0.10854985
50	0x3d986954	0.07441965
51	0xbd8c7713	-0.06858649
52	0xbce4d3bd	-0.027932996
53	0x3d84116c	0.064486355
54	0xbbf8d6d2	-0.007593968
55	0x3db6c048	0.089233935
56	0xbcb6099a	-0.022221375
57	0xbdc227f3	-0.09480276
58	0x3cf7796f	0.030209271
59	0x3e4be4bb	0.19911472
60	0xbde96904	-0.11396983
61	0xbd5c6f96	-0.053817354
62	0xbbaccf49	-0.0052737338
63	0x3dc95562	0.098307386
64	0x3cea84df	0.028627811
65	0x3da9f477	0.08298581
66	0xbd0c9f88	-0.03433183
67	0xbd818a67	-0.06325226
68	0xbddf6044	-0.10907033
69	0xbda6a9c2	-0.081378475
70	0xbdfa1086	-0.12210183
71	0x3dd58c2a	0.10427125
72	0xbdc7dd16	-0.09758966
73	0x3e24a523	0.1607862
74	0xba3e12cc	-0.0007250726
75	0x3d212863	0.039345156
76	0x3e36736e	0.1781747
77	0xbbd855bc	-0.006602017
78	0xbe85cacd	-0.26131287
79	0x3c5ba7a5	0.013406669
80	0x3d923069	0.0713814
81	0x3cd854f9	0.026407706
82	0x3d95b036	0.07309
83	0x3c4bea9a	0.01244607
84	0x3b95868a	0.0045631574
85	0xbd6bfefa	-0.05761621
86	0x3df85087	0.12124734
87	0xbc6729a9	-0.014109054
88	0xbcf69ade	-0.030103143
89	0xbd8ce191	-0.06878961
90	0xbdbdd0ea	-0.09268363
91	0x3be4689c	0.006970478
92	0x3d96e51a	0.073679164
93	0x3daa4529	0.083139725
94	0xbda55ee4	-0.080747396
95	0x3da8095a	0.08204909
96	0x3d1b4a96	0.037912928
97	0xbd352076	-0.04422041
98	0x3db1c8d5	0.08680884
99	0x3c5b8a16	0.0133996215
100	0xbdcbcd4c	-0.09951267
101	0x3da2b6d4	0.07945028
102	0xbbfe73cb	-0.0077652684
103	0xbdf477cc	-0.11936912
104	0x3dacd3ec	0.084388584
105	0x3c3e4576	0.01161324
106	0xbd516df8	-0.051130265
107	0xbde66c67	-0.11251145
108	0xbc9bfa22	-0.019040171
109	0x3e501e43	0.20324044
110	0x3dcb4a4b	0.0992628
111	0xbd1579ab	-0.036492985
112	0xbc045199	-0.008076095
113	0xbde96352	-0.11395897
114	0xbe53dc0a	-0.20689407
115	0x3bb621a0	0.0055582076
116	0xbdac22f1	-0.08405102
117	0xbc946c36	-0.018118005
118	0x3dca2a23	0.09871318
119	0xbd3188fb	-0.043343525
120	0x3ddd2431	0.107979186
121	0xbd7c8398	-0.061648935
122	0x3e0a8403	0.13526921
123	0x3d405317	0.04695424
124	0xbdc7da97	-0.097584896
125	0xbd427f07	-0.047484424
126	0x3e7de7ac	0.24795407
127	0x3eb1d2bd	0.34731093
128	0x3e91889a	0.2842453
129	0xbde3bba5	-0.11119775
130	0xbdd24e92	-0.10268892
131	0x3dfb8063	0.12280347
132	0xbe2b3455	-0.16719182
133	0xbeb13904	-0.34613812
134	0xbe80a257	-0.25123855
135	0x3d936b8e	0.07198249
136	0x3dad99f8	0.08476633
137	0xbcd225f2	-0.02565286
138	0x3b2ff2de	0.002684764
139	0x3d125b97	0.035731878
140	0xbd946b85	-0.0724707
141	0xbbd0fb28	-0.0063775964
142	0x3e030ce7	0.1279789
143	0xbd8d2c57	-0.06893223
144	0x3db67f60	0.089110136
145	0x3e1db726	0.15401897
146	0x3cca110c	0.024666332
147	0x3d0f9b5b	0.035060268
148	0xbd83d521	-0.064371355
149	0xbd990056	-0.07470767
150	0xbda8c5fe	-0.08240889
151	0x3d6d9841	0.05800653
152	0x3d9aec72	0.075646296
153	0xbdc4d39d	-0.096106745
154	0xbd7565ff	-0.059911724
155	0xbd1f034d	-0.038821507
156	0x3dd533b1	0.1041025
157	0xbce7f0db	-0.028313091
158	0xbe045bf2	-0.129257
159	0x3d1a9bca	0.03774623
160	0xbcb7326a	-0.022362906
161	0xbdd7c869	-0.10536272
162	0x3b18b05a	0.0023298473
163	0x3e1f32b6	0.15546688
164	0x3d9ffaa6	0.07811479
165	0x3dabb096	0.083832905
166	0xbe0d5f06	-0.1380578
167	0x3cf552e7	0.029946757
168	0xbdc1071d	-0.09425185
169	0x3d7e40da	0.062073566
170	0xbcac52ec	-0.021035634
171	0x3dcda5db	0.100414
172	0x3c8f2204	0.017472275
173	0xbdb2ef39	-0.08737034
174	0xbc9fbc91	-0.019499095
175	0xbe0be184	-0.13660246
176	0xbd724b6a	-0.05915395
177	0xbc029a73	-0.007971394
178	0x3d04abb9	0.03239033
179	0xbd271e15	-0.040800173
180	0x3e49c0ba	0.19702426
181	0x3de6ea3f	0.11275148
182	0x3d6124a6	0.05496659
183	0x3d9ef034	0.07760659
184	0xbd176a33	-0.036966514
185	0xbe1b514a	-0.15167728
186	0xbe29afd7	-0.16570984
187	0xbdaa1e9e	-0.08306621
188	0xbe21a1ec	-0.15784425
189	0xbdb55616	-0.0885431
190	0xbd17c6b1	-0.03705472
191	0xbd5e6c35	-0.054302413
192	0x3d863482	0.06552984
193	0xbddab5eb	-0.10679229
194	0xbda3bff4	-0.079955965
195	0xbdd00eb6	-0.10159056
196	0x3d18f6ca	0.03734473
197	0x3e04d327	0.12971173
198	0x3dd32be8	0.10311109
199	0x3d2eab85	0.042644043
200	0x3c92bd61	0.017912569
201	0x3ca94b54	0.020665802
202	0xbdc6de94	-0.09710422
203	0xbdb44935	-0.08803026
204	0x3dc40528	0.09571296
205	0x3d355c37	0.044277396
206	0xbd83fd24	-0.06444767
207	0xbde083a7	-0.10962611
208	0xbc601548	-0.013676949
209	0xbe081cc4	-0.13292223
210	0xbd8ac7e9	-0.06776411
211	0xbd75f4ae	-0.060047798
212	0x3bb4a8d0	0.005513288
213	0x3d6bc70c	0.057562873
214	0x3ce4f8b4	0.027950622
215	0xbdd95428	-0.10611755
216	0xbde69fb4	-0.1126093
217	0x3a60ccbc	0.00085754297
218	0x3dbdf73a	0.0927567
219	0xbdcbd89d	-0.09953425
220	0x3cb423d1	0.021989735
221	0xbe0d9b06	-0.13828668
222	0x3bb9eb0f	0.005673773
223	0xbc6288e1	-0.01382658
224	0xbd82338d	-0.06357489
225	0x3da1866c	0.07886967
226	0x3e2b6338	0.16737068
227	0xbcb658f5	-0.022259215
228	0x3bfce87a	0.007718143
229	0xbe0f10a6	-0.13971195
230	0xbe09a05a	-0.13440076
231	0xbdb5a42c	-0.08869204
232	0xbd2fc491	-0.04291207
233	0x3d0a1d6a	0.033719458
234	0x3ea03977	0.31293842
235	0x3eb51b60	0.35372448
236	0x3e4e095b	0.20120756
237	0xbe7f6829	-0.24942078
238	0xbe98fce4	-0.2988044
239	0xbd2167d2	-0.03940565
240	0xbd883e02	-0.06652452
241	0x3cac37f3	0.021022772
242	0x3c2dfebd	0.010619816
243	0xbaee469c	-0.0018179002
244	0x3e067a4f	0.13132595
245	0xbc39da18	-0.0113435015
246	0x3d894dbe	0.06704281
247	0x3e1116a0	0.14168787
248	0x3d6c81a8	0.057740837
249	0x3d23a03e	0.03994774
250	0xbd3e8ed9	-0.04652295
251	0xbd5ac605	-0.053411502
252	0x3c2cf074	0.010555375
253	0x3dc92690	0.09821808
254	0x3cddcd0f	0.027075319
255	0xbe03d662	-0.1287475

conv2.bias f4 [16]
0	0xbc08ad4d	-0.008342099
1	0x3db6321f	0.088962786
2	0xbdb5a1ed	-0.088687755
3	0xbdb8167f	-0.08988666
4	0xbdbc2158	-0.09186047
5	0xbd7189e7	-0.058969405
6	0x3dd5e73b	0.10444494
7	0xbd5b3fa5	-0.053527493
8	0x3d8db787	0.06919771
9	0x3d9e24a8	0.077218354
10	0x3d7be967	0.061501887
11	0x3c8b2426	0.01698501
12	0x3df19cc4	0.11797479
13	0xbd1a2630	-0.037634075
14	0x3d7ae11a	0.06124983
15	0xbd0b1b4f	-0.03396159

fc1.weight f4 [120, 400]
0	0x3c4ead35	0.012614538
1	0x3c7d2289	0.015450128
2	0xbc337c9e	-0.010955004
3	0x3d2f150c	0.04274468
4	0xbcf91f22	-0.030410353
5	0xbcc0dec3	-0.023543721
6	0x3c1bffeb	0.009521465
7	0xbca0e0bd	-0.019638414
8	0x3ca56608	0.020190254
9	0xbd218153	-0.039429974
10	0xbc5e99b7	-0.013586453
11	0xbce009ca	-0.027348418
12	0xbc8d7d4a	-0.017271657
13	0x3cae8282	0.021302465
14	0xbcb612a4	-0.022225685
15	0x3ca3f43c	0.020013921
16	0x3dd58ebe	0.104276165
17	0x3dbd3dea	0.09240325
18	0x3c6eb7d9	0.0145702
19	0x3d08089d	0.03321134
20	0x3ce9118d	0.028450752
21	0x3c773b0f	0.015089764
22	0x3d266736	0.040625773
23	0xbd3218fa	-0.04348085
24	0xbd84805a	-0.064697936
25	0x3a8a37c9	0.001054519
26	0x3d54dc88	0.051968127
27	0x3c53873e	0.012910662
28	0x3d3987d8	0.045295566
29	0xbcac1877	-0.02100776
30	0x3cb8e3bd	0.022569532
31	0x3c1cb3b5	0.00956433
32	0xbc1c9cb0	-0.009558842
33	0x3d12a69d	0.035803426
34	0x3cd542f9	0.026032912
35	0x3cf87bc5	0.030332455
36	0xbcc8bb3a	-0.02450334
37	0xbcaafef7	-0.02087353
38	0x3c793dce	0.015212489
39	0xbd218906	-0.039437316
40	0x3cf61a76	0.030041914
41	0x3c94aa04	0.018147476
42	0xbd04fdc8	-0.032468587
43	0x3c01469c	0.00789037
44	0xbd058eeb	-0.032607
45	0x3b3c39ee	0.0028721052
46	0x3c80b006	0.015708935
47	0xbcd6c79e	-0.026218232
48	0xbcc0e87f	-0.023548363
49	0x3cc14702	0.02359343
50	0x3c95bba9	0.01827796
51	0x3d230d6e	0.03980773
52	0x3b5d1560	0.0033734664
53	0xbd0686fe	-0.032843582
54	0xbb8d39c4	-0.0043098647
55	0xbd10d432	-0.035358615
56	0xbd38c6f9	-0.04511163
57	0x3d63c9a0	0.055612206
58	0x3d6401d3	0.055665802
59	0x3d4e510a	0.050370254
60	0xbd09db50	-0.03365642
61	0x3bddf40b	0.006773477
62	0x3ccce75e	0.025012668
63	0xbb44593f	-0.0029960421
64	0x3d491cd0	0.049099743
65	0x3cea393a	0.02859174
66	0xbd91d418	-0.07120532
67	0x3c2e33eb	0.010632495
68	0xbcc32fc7	-0.023826493
69	0x3cc11fd7	0.023574753
70	0xbd618ed8	-0.055067867
71	0x3bc82f2c	0.006109139
72	0xbc2e761d	-0.010648278
73	0x3bb4ab99	0.00551362
74	0x3d54d9e8	0.051965624
75	0x3c89c921	0.016819539
76	0xbd11a516	-0.03555783
77	0x3ceab769	0.02865191
78	0xbc07fc1d	-0.008299855
79	0x3ca6f343	0.020379668
80	0xbcdb8513	-0.026796853
81	0xbcd61c32	-0.026136491
82	0x3c4308ab	0.011903922
83	0x3d33b5d9	0.043874595
84	0xbd2c498a	-0.04206232
85	0x3b9ce50e	0.0047880476
86	0xbb106ea0	-0.0022038594
87	0x3d2e2771	0.042518083
88	0x3c6ac08c	0.014328133
89	0x3cd8f3e3	0.026483482
90	0xbd0f5bf7	-0.034999814
91	0x3d2d934c	0.0423768
92	0x3cdf6875	0.027271489
93	0xbcc00e7d	-0.023444409
94	0x3d1a6229	0.03769127
95	0xbca677e0	-0.020320833
96	0xbc8b478f	-0.017001895
97	0x3ad94a2e	0.0016577893
98	0xbc479f72	-0.012184011
99	0x3cd8d5b3	0.026469087
100	0xbd3c0a59	-0.045908306
101	0xbba3054e	-0.0049749976
102	0x3c11466c	0.008866888
103	0x3d4383e0	0.047733188
104	0x3d28ed23	0.041241776
105	0x3c1767ac	0.009241026
106	0xbd44c5c2	-0.04804016
107	0xbce06e67	-0.027396394
108	0x3d21f524	0.039540425
109	0xbcbd81d7	-0.023133202
110	0xbd569409	-0.05238727
111	0xbb843654	-0.0040347967
112	0xbcbe0093	-0.023193633
113	0x3d0edfc8	0.034881383
114	0x3c713ddf	0.014724224
115	0x3d28ccc0	0.04121089
116	0x3b8acfe8	0.00423621
117	0x3a7ce1a8	0.00096466625
118	0xbceb5aa5	-0.028729746
119	0x3c23d60e	0.009999765
120	0x3cfd6650	0.030932575
121	0xbd9ff216	-0.07809846
122	0x3c43e28f	0.011955871
123	0x3c958525	0.018251965
124	0x3d3dbf51	0.04632503
125	0x3d26abd7	0.040691223
126	0x3d531901	0.051537517
127	0xbc42d849	-0.011892387
128	0x3c626afe	0.013819454
129	0xbd22a831	-0.03971118
130	0xbd55f365	-0.052234072
131	0xbb3b4a9a	-0.0028578402
132	0x3d3f0d9a	0.04664383
133	0x3d465a9d	0.04842626
134	0xbb9ef7cb	-0.0048513166
135	0xbc17c702	-0.009263756
136	0x3c3efe88	0.011657365
137	0x3c4bdcad	0.01244275
138	0xbd59f600	-0.05321312
139	0xbcdef241	-0.027215125
140	0x3cbba477	0.022905571
141	0x3c758954	0.014986355
142	0x3c7bcfc9	0.015369364
143	0x3d0f5c8f	0.03500038
144	0x3d49decc	0.04928474
145	0x3d2229d7	0.039590683
146	0x3a89d001	0.001051426
147	0xbd002741	-0.031287435
148	0xbd0e7063	-0.03477515
149	0x3caf16db	0.021373203
150	0x3a5935dc	0.0008285919
151	0x3cf37a30	0.02972135
152	0xbd32fbdc	-0.043697223
153	0xbc36ce31	-0.011157558
154	0xbb93261b	-0.0044906265
155	0xbc5f5f3b	-0.013633545
156	0xbc5e6658	-0.013574205
157	0xbcc3c658	-0.023898289
158	0x3c989d27	0.018629624
159	0xbd0b560f	-0.03401762
160	0xbcca3f82	-0.024688486
161	0x3ca6a23b	0.02034103
162	0xbc386650	-0.011254862
163	0xbd3e78b2	-0.046501823
164	0x3ce2961f	0.027659474
165	0xbd2405f7	-0.04004475
166	0x3d3df655	0.0463775
167	0xbc67e30d	-0.014153254
168	0xbcb5ae7d	-0.022177929
169	0x3d1c2652	0.038122483
170	0x3c8937dc	0.016750269
171	0x3cd3958a	0.025828142
172	0xbb54f6e3	-0.0032495789
173	0xbd07f522	-0.03319276
174	0x3d095758	0.033530563
175	0x3cf517b8	0.029918537
176	0xbb11b475	-0.0022232805
177	0x3c3c13e2	0.01147935
178	0xba9f0437	-0.0012131993
179	0xbd5c02c9	-0.053713594
180	0xbcd589e0	-0.02606672
181	0x3c5aa95f	0.013346045
182	0x3d2dbf9f	0.042419072
183	0x3d07ad4f	0.033124264
184	0x3c4503ca	0.012024829
185	0x3c172dbd	0.009227213
186	0xbc82beb5	-0.015960077
187	0xbd90b735	-0.07066194
188	0xbc930829	-0.017948227
189	0x3ba80a23	0.0051281615
190	0xbccd6ab5	-0.025075296
191	0xbd904363	-0.07044103
192	0x3a8e0f36	0.0010838273
193	0xbb7f9198	-0.0038996693
194	0x3cf27a77	0.029599411
195	0xbcc62dbd	-0.024191732
196	0xbca6df43	-0.020370131
197	0x3d904584	0.07044509
198	0x3c9e7365	0.019342134
199	0xbc2b4620	-0.010453731
200	0xbca089fc	-0.019597046
201	0x3d2240ff	0.039612766
202	0xbb19bba8	-0.00234578
203	0x3d2a6f4d	0.04161005
204	0x3c3fa9c8	0.011698194
205	0x3a06379e	0.0005119982
206	0x3c92ea16	0.017933886
207	0x3d569632	0.05238933
208	0xbd45af7b	-0.048263054
209	0x3cf533d3	0.029931938
210	0xbd003607	-0.031301524
211	0x3be3495e	0.0069362363
212	0xbca26fba	-0.019828666
213	0xbcee0c6f	-0.029058663
214	0x3d5bb70a	0.053641357
215	0x3cd6b3ff	0.026208876
216	0xbce4ab57	-0.027913732
217	0x3c8076d7	0.015681667
218	0xbb5b13c4	-0.003342853
219	0xbd3eba67	-0.046564486
220	0x3d673cab	0.05645434
221	0x3d184717	0.03717717
222	0xbb1a921f	-0.002358563
223	0xbcf58485	-0.029970417
224	0xbb2a364f	-0.0025972312
225	0xbc19f52d	-0.009396833
226	0x3d2bfdd1	0.041990105
227	0x3cd6d877	0.026226265
228	0x3d0b1fab	0.033965748
229	0xbd4431db	-0.04789911
230	0x3d26e1af	0.040742572
231	0x3c51990f	0.01279284
232	0x3cbe9e44	0.023268826
233	0xbcbb5c25	-0.022871086
234	0xbb24c541	-0.0025141987
235	0xbcf6ce44	-0.030127652
236	0x3caefc11	0.021360429
237	0xbd02caaa	-0.031931557
238	0xbce92113	-0.028458154
239	0xbd4786b2	-0.04871244
240	0x3d29d48f	0.041462477
241	0x3d00adec	0.031415865
242	0xbd1ac775	-0.037787873
243	0xbd34231b	-0.04397879
244	0x3c1e10f9	0.009647601
245	0x3c5e27a7	0.013559259
246	0xbd4d7eba	-0.050169684
247	0xbd48ab1b	-0.048991304
248	0x3d247c29	0.04015747
249	0xbb86d051	-0.0041141887
250	0x3cadc767	0.021213247
251	0x3c96c9d5	0.018406788
252	0xbca1f76a	-0.019771297
253	0x3d28ce3c	0.041212305
254	0xbc9efe3c	-0.019408338
255	0x3cc46bb6	0.023977142

fc1.bias f4 [120]
0	0x3d45f217	0.048326578
1	0x3aceea76	0.0015786428
2	0xbcf4ca39	-0.029881584
3	0x3d39c3dd	0.045352805
4	0x3b87539b	0.0041298396
5	0x3d429d98	0.047513574
6	0x3cd66c37	0.026174648
7	0x3c90cfdc	0.01767724
8	0x3cdf3933	0.027248954
9	0xbd1a8442	-0.037723787
10	0xbcae207a	-0.02125572
11	0x3cd5b84d	0.026088858
12	0xbc844e86	-0.016150724
13	0xbb32e875	-0.00272992
14	0x3ced59e3	0.028973525
15	0x3ce37b3c	0.027768724
16	0xbd1e5dbb	-0.038663607
17	0x3d63753e	0.055531733
18	0xbbe1ea39	-0.0068943766
19	0xbcf34e9c	-0.02970057
20	0x3d0e1208	0.034685165
21	0xbc06722d	-0.008205933
22	0xbd222ff3	-0.03959651
23	0x3c3152ec	0.010822993
24	0x3c16b319	0.009197974
25	0xbcfa5062	-0.030555908
26	0xbce2c383	-0.027681118
27	0xbcfbb43b	-0.030725589
28	0x3ce8ff78	0.02844213
29	0x3c0d3528	0.0086186305
30	0xbcad94c1	-0.021189095
31	0x3d298c64	0.041393653
32	0x3d205a92	0.039148875
33	0xbd2b1169	-0.04176465
34	0x3cff1c41	0.031141402
35	0x3d51cb13	0.051219057
36	0x3d5ab821	0.053398255
37	0x3cceb86b	0.025234422
38	0x3cc392d9	0.023873733
39	0x3cd7b2d9	0.026330398
40	0x3c96f817	0.018428845
41	0x3bfc6e27	0.007703561
42	0x3d0c54d7	0.034260597
43	0xbc8a0ec9	-0.016852753
44	0xbbfd371f	-0.007727518
45	0x3c6ecadf	0.014574735
46	0x3cea8553	0.028628027
47	0x3cb79cfe	0.022413727
48	0xbd26fab8	-0.040766448
49	0xbd20c968	-0.039254576
50	0xbb737749	-0.0037149957
51	0x3d5d2ff3	0.054000806
52	0xbd43d61d	-0.047811616
53	0x3c1663d3	0.009179073
54	0x3c64091a	0.013918186
55	0x3cc775db	0.02434819
56	0x3d23533f	0.03987431
57	0xbcffedd7	-0.03124134
58	0x3d101a14	0.03518112
59	0xbcd6bfc9	-0.026214497
60	0x3c79e100	0.015251398
61	0xbd2e8b48	-0.042613298
62	0x3c02be91	0.007980005
63	0xbd107a87	-0.0352731
64	0xbcb41f75	-0.021987656
65	0x3cee9f5d	0.029128725
66	0x3d465803	0.04842378
67	0x3cdaad5f	0.026693998
68	0xbcd48816	-0.025943797
69	0x3b6fabe4	0.003657096
70	0x3ce62c17	0.028097196
71	0x3d161278	0.036638707
72	0xbb195c1d	-0.002340085
73	0x3cb0f171	0.021599503
74	0xbcdf0d7b	-0.027228108
75	0x3c3a3a7d	0.011366484
76	0xbd0e9b3b	-0.034816008
77	0xbca336b4	-0.019923545
78	0x3d455afe	0.04818248
79	0xbc02faf3	-0.007994401
80	0xbc960d8b	-0.018317005
81	0xbc7cc243	-0.015427175
82	0xbd27e0f4	-0.040986016
83	0xbd29396a	-0.04131452
84	0xbc0d4d30	-0.00862436
85	0x3d2d3794	0.04228933
86	0x3d3aef2c	0.04563825
87	0xbd25b1b2	-0.040452667
88	0x3c23c57e	0.009995816
89	0x3ce072b5	0.027398447
90	0xbd08f972	-0.033441015
91	0xbd31f747	-0.043448713
92	0xbb8fb330	-0.0043853745
93	0x3d314db3	0.04328699
94	0x39a5950a	0.00031582295
95	0x3d2d9ab7	0.042383876
96	0xbd0ba57b	-0.03409336
97	0x3b83eaf3	0.004025811
98	0x3cbcefde	0.023063596
99	0xbc0fd032	-0.008777665
100	0x3d37a90c	0.04483895
101	0xbc3d2649	-0.011544772
102	0x3cccba4c	0.024991177
103	0xba8aed4a	-0.0010599282
104	0xbc429967	-0.011877394
105	0x3cbb2ca9	0.022848444
106	0x3d07f21d	0.03318988
107	0x3a80c32e	0.0009823793
108	0xbc6b6002	-0.014366152
109	0xbcca1f18	-0.02467303
110	0x3c8197f9	0.015819537
111	0xbcefae7d	-0.029258007
112	0x3d3c3a0d	0.0459538
113	0x3ce2f2b9	0.02770363
114	0xbc04735f	-0.008084147
115	0xbc030753	-0.007997352
116	0x3c8d066f	0.017214982
117	0xbc9ea2a3	-0.01936466
118	0xbb778d59	-0.0037773459
119	0xbcaebeb0	-0.021331161

fc2.weight f4 [84, 120]
0	0x3c740ee2	0.014896126
1	0x3d6544f9	0.05597398
2	0x3e04e56f	0.12978147
3	0xbc4ba1b6	-0.012428692
4	0x3da26354	0.079291016
5	0xbd8c2411	-0.068428166
6	0x3c9cc723	0.019137925
7	0xbdc4d66e	-0.09611212
8	0x3c9dc32b	0.019258102
9	0xbdc086ef	-0.094007365
10	0xbd802535	-0.06257097
11	0x3db88e0d	0.09011469
12	0x3d29cd40	0.041455507
13	0x3d8d3618	0.06895083
14	0x3d632dd0	0.055463612
15	0x3de4aafd	0.11165426
16	0x3d503f4d	0.05084162
17	0xbd94b5bd	-0.07261226
18	0xbdaec3a2	-0.08533408
19	0x3cf02322	0.029313628
20	0xbcbaae16	-0.022788089
21	0xbc23e6bb	-0.010003741
22	0x3b1a82f9	0.00235766
23	0xbcacecfc	-0.021109097
24	0x3d47abd9	0.04874787
25	0xbd947564	-0.07248953
26	0x3b2af2ea	0.002608473
27	0x3d217457	0.03941759
28	0x3d34f323	0.044177186
29	0x3d94a88e	0.07258712
30	0xbc5c0929	-0.013429918
31	0xbdf43941	-0.11924983
32	0x3db93678	0.09043592
33	0x3dea1f3e	0.1143174
34	0x3cb33e95	0.021880427
35	0xbd9f5fdc	-0.077819556
36	0x3d16cc4c	0.036815926
37	0x3cc399c2	0.023877028
38	0x3d825bdd	0.06365178
39	0xbd37881d	-0.044807542
40	0xbd9e169a	-0.07719155
41	0x3d20b74f	0.039237317
42	0xbd875216	-0.066074535
43	0x3d45b166	0.048264883
44	0x3ce63676	0.02810214
45	0x3d83ffd1	0.064452775
46	0xbd411261	-0.047136668
47	0xbda5fabb	-0.08104464
48	0xbcd1602b	-0.025558552
49	0xbd14d690	-0.036337435
50	0xbc758a7b	-0.01498663
51	0x3d1ae6d8	0.037817806
52	0xbda6c1f9	-0.08142466
53	0x3d6cf67f	0.057852264
54	0x3dce8238	0.10083431
55	0xbdd2eeda	-0.102994636
56	0xbca381b1	-0.019959303
57	0x3c813776	0.015773516
58	0x3cb16986	0.021656763
59	0x3c307037	0.010768942
60	0xbcdaa559	-0.026690172
61	0x3dbacecb	0.09121474
62	0x3d771e32	0.06033153
63	0xbd8402e1	-0.064458616
64	0x3e032aa7	0.1280924
65	0x3d8c6b2a	0.068563774
66	0xbdbdfec1	-0.09277106
67	0xbd08dd2d	-0.033414055
68	0xbb37b18d	-0.0028029412
69	0x3d7dd471	0.061970178
70	0xbd247385	-0.04014923
71	0x3db3266a	0.08747561
72	0x3df1e3cc	0.11811027
73	0xbbc1e794	-0.005917499
74	0xbdf2b073	-0.11850061
75	0x3a7b4f26	0.0009586684
76	0xbdba361c	-0.09092352
77	0xbd800739	-0.062513776
78	0x3c642a8e	0.013926161
79	0xbd6b2940	-0.057412386
80	0x3aaa78b2	0.0013005941
81	0xbd279ba8	-0.04091993
82	0xbdc86c66	-0.097863
83	0x3cee3581	0.029078247
84	0xbca1b13e	-0.019737836
85	0xbd183e81	-0.037168983
86	0x3d01d7f0	0.031700075
87	0xbccca588	-0.024981275
88	0xbb55d15b	-0.0032626006
89	0x3d87c03c	0.06628463
90	0x3dc81ef1	0.097715266
91	0xbd063563	-0.032765757
92	0x3da6b7a9	0.08140499
93	0x3daadf84	0.083434135
94	0x3d8797a3	0.06620719
95	0x3ced5417	0.028970761
96	0x3dbb05c4	0.09131959
97	0xbd18c4c4	-0.037297025
98	0xbd1977db	-0.03746782
99	0x3d13295c	0.035928115
100	0x3d990a46	0.07472663
101	0x3da4a1c9	0.080386706
102	0xbd2218a7	-0.03957429
103	0x3ddbefc7	0.10739093
104	0xbd221992	-0.039575167
105	0xbd0612f7	-0.03273293
106	0xbd957715	-0.07298104
107	0xbd94e089	-0.07269389
108	0xbd815fca	-0.063170984
109	0xbd064e40	-0.03278947
110	0xbd6f28d4	-0.058388546
111	0xbd2135aa	-0.03935782
112	0xbd7f737e	-0.062366
113	0x3db866a0	0.09003949
114	0x3cf4c8ae	0.029880848
115	0xbc8318fb	-0.016003123
116	0xbd12f19f	-0.03587496
117	0x3d1db697	0.03850421
118	0x3d41c84c	0.04731016
119	0x3c29cd2b	0.010363857
120	0x3d066acc	0.032816693
121	0xbd018251	-0.03161842
122	0xbd44b87e	-0.048027508
123	0x3d91e398	0.07123488
124	0xbd5fba82	-0.054621227
125	0xbc844053	-0.016143953
126	0xbdb4da09	-0.088306494
127	0x3ce0b5ff	0.027430533
128	0x3c86c226	0.016449999
129	0x3b1a53e5	0.002354854
130	0xbcd1dc54	-0.025617756
131	0xbb43ea9c	-0.0029894477
132	0x3d7b2166	0.061311148
133	0xbbb0ca20	-0.005395189
134	0xbb2275ef	-0.0024789532
135	0xbc378686	-0.0112015065
136	0x3b4390b2	0.0029840884
137	0xbd1d1414	-0.038349226
138	0x3d3d8ae0	0.04627502
139	0xbc0df04c	-0.008663248
140	0x3d99cbd2	0.07509579
141	0xbd80c751	-0.062880166
142	0xbc8710cc	-0.016487502
143	0xbd9b259b	-0.07575532
144	0x3cfee787	0.03111626
145	0xbdb48da6	-0.0881608
146	0x3d77f9d3	0.060540985
147	0xbd66db17	-0.056361284
148	0x3d93cce6	0.07216816
149	0xbc194dff	-0.009356975
150	0xbdb1e6ed	-0.08686624
151	0xbdb889b4	-0.0901064
152	0xbcdb6559	-0.026781725
153	0x3dc24ba4	0.094870836
154	0x3c56f29f	0.013119369
155	0x3cc1cc0a	0.023656864
156	0xbd36ed31	-0.044659797
157	0xbc0fcb3c	-0.008776482
158	0x3d826b58	0.063681304
159	0x3d64d171	0.0558638
160	0xbc701ba9	-0.014655032
161	0xbd77d8ab	-0.060509365
162	0x3ba8c2fb	0.0051501966
163	0xbd1aa485	-0.037754554
164	0x3cb09d48	0.021559373
165	0xbceb8ede	-0.028754648
166	0x3d4af1b8	0.049546927
167	0x3d36b4ea	0.044606127
168	0xbcff4676	-0.031161528
169	0x3d1ceb67	0.038310435
170	0x3d81a2b2	0.0632986
171	0x3daf7fc1	0.08569289
172	0x3d908882	0.07057287
173	0x3dcd89bb	0.100360356
174	0x3c8a53e7	0.01688571
175	0xbc5d5ce9	-0.013510921
176	0xbda49506	-0.080362365
177	0xbd85f964	-0.06541708
178	0x3d7556d6	0.059897266
179	0xbd0fc75e	-0.03510224
180	0xbd8e3570	-0.06943786
181	0xbd9f720d	-0.07785425
182	0x3d1c4d1a	0.038159467
183	0x3d6d219a	0.057893373
184	0xbcbc2fe5	-0.022972057
185	0xbadb0142	-0.0016708749
186	0x3db15fc9	0.08660848
187	0xbaecd880	-0.0018069893
188	0xbd5db472	-0.054127164
189	0xbd10d252	-0.035356827
190	0x3d9a0e2e	0.07522236
191	0xbcbb3700	-0.022853374
192	0xbd2c02f0	-0.04199499
193	0x3c89e111	0.016830953
194	0x3dc138ac	0.094346374
195	0xbd8bbf2a	-0.06823571
196	0xbd2d2aa5	-0.042276997
197	0x3cdb10f4	0.026741482
198	0x3adbeb52	0.0016778505
199	0xbdab48d5	-0.08363501
200	0xbd382f6b	-0.044967096
201	0x3c4a795f	0.012358039
202	0x3b91fc56	0.0044551296
203	0x3d997891	0.07493699
204	0xbd1766a4	-0.03696312
205	0x3c249dbc	0.010047372
206	0xbdab9e6f	-0.08379828
207	0x3cc7130e	0.024301078
208	0x3dc95da8	0.09832317
209	0x3d9a0af8	0.075216234
210	0xbd967ab5	-0.07347623
211	0x3d3bc53e	0.0458424
212	0xbd0f5120	-0.034989476
213	0xbd50f7e4	-0.051017657
214	0xbdb090c0	-0.08621359
215	0xbd847aea	-0.064687565
216	0x3dacb598	0.08433074
217	0xbdb21b1f	-0.08696579
218	0xbace45a1	-0.0015737304
219	0xbd2a726a	-0.04161302
220	0xbda935bd	-0.08262203
221	0xbd5ffcb2	-0.05468435
222	0xbd91f223	-0.07126262
223	0xbd96b983	-0.07359602
224	0xbc9ef60a	-0.01940443
225	0x3cee3585	0.029078254
226	0xbc821619	-0.015879678
227	0x3cd7c5e5	0.02633948
228	0x3d431ce6	0.04763498
229	0xb93f39a5	-0.00018236654
230	0x3ce2d9c6	0.027691733
231	0xbb897f9f	-0.004196122
232	0xbcd5c278	-0.026093706
233	0x3d756eec	0.059920236
234	0xba734dec	-0.00092813256
235	0xbd7d85b8	-0.061895102
236	0xbd7c60a5	-0.061615605
237	0xbd602b7a	-0.054728962
238	0x3db4dccd	0.08831177
239	0xbceb5b25	-0.028729985
240	0xbd74c301	-0.059756283
241	0x3bb53a25	0.005530613
242	0x3d8edf49	0.06976182
243	0x3dac88a3	0.08424499
244	0x3bd10a15	0.0063793757
245	0x3de1d014	0.11026016
246	0x3d18828c	0.037233874
247	0x3e1e1939	0.15439309
248	0x3da59bbc	0.080863446
249	0x3d5b6fd1	0.053573433
250	0xbd341879	-0.04396865
251	0x3e09f543	0.13472466
252	0x3d79ad19	0.060956094
253	0x3d77e47f	0.060520645
254	0x3cd04e6b	0.025428018
255	0xbc993ffe	-0.018707272

fc2.bias f4 [84]
0	0xbc4add62	-0.012381883
1	0x3d8e9ae7	0.06963139
2	0x3b9ca497	0.004780363
3	0x3d1d28d8	0.03836903
4	0x3c91c42a	0.017793734
5	0x3d816d50	0.06319678
6	0x3c6d0c45	0.014468257
7	0x3d74bbaf	0.0597493
8	0xbdb2dd3c	-0.08733603
9	0xbd1a668a	-0.037695445
10	0x3d576a53	0.052591633
11	0x3d1a8e48	0.037733346
12	0x3d2b7077	0.0418553
13	0x3b685347	0.0035450028
14	0x3cde154b	0.027109763
15	0xbdb54cb1	-0.08852518
16	0xbd1846b5	-0.037176806
17	0x3c556411	0.013024346
18	0x3d52eec3	0.051497232
19	0x3d5dac92	0.054119654
20	0xbc10519c	-0.00880852
21	0x3d16934e	0.036761574
22	0xbd5d796e	-0.054070882
23	0xbc11d3c8	-0.00890059
24	0xbc49a8f1	-0.012308345
25	0xbd1aa786	-0.03775742
26	0xbac6fdda	-0.0015181855
27	0x3dd11fca	0.102111414
28	0x3dce743e	0.10080765
29	0x3cf2c523	0.029635018
30	0x3c4a152f	0.012334152
31	0xbc4be3e6	-0.012444472
32	0xbce6bc01	-0.02816582
33	0x3d2cbe33	0.042173576
34	0xbd5cceb3	-0.05390806
35	0x3b8add2e	0.0042377925
36	0xbcc26b47	-0.023732794
37	0xbcbed15f	-0.023293195
38	0xbd10b67b	-0.035330277
39	0x3d9c76a9	0.0763982
40	0x3c879004	0.016548164
41	0xbcd81107	-0.026375307
42	0x3d0dde16	0.034635626
43	0xbd9a02f1	-0.07520092
44	0x3d463953	0.048394512
45	0xbcb3d013	-0.021949803
46	0xbd75670b	-0.059912723
47	0xbc3824e1	-0.011239261
48	0x3c9ec56b	0.019381246
49	0xbc70b514	-0.01469161
50	0xbcd41204	-0.025887497
51	0x3d3e16de	0.046408527
52	0xbc501d61	-0.012702317
53	0x3d34b027	0.044113304
54	0xbd84b47e	-0.06479739
55	0xbda86331	-0.08222044
56	0xbd185902	-0.03719426
57	0x3d9e7b26	0.077383325
58	0x3d477180	0.048692226
59	0x3d4fc2a9	0.05072275
60	0xbd911014	-0.07083145
61	0x3d47b129	0.048752937
62	0x3d04a775	0.032386262
63	0xbd4efc2d	-0.050533462
64	0x3dbcda65	0.09221343
65	0x3b2a9417	0.002602821
66	0x3bbf40ce	0.0058365827
67	0x3dbc743b	0.09201857
68	0x3d763b76	0.0601153
69	0x3d8f6354	0.07001367
70	0xbd9cb618	-0.07651919
71	0xbd8d5bd2	-0.06902279
72	0xbda9e22f	-0.08295094
73	0xbdae0dab	-0.08498701
74	0x3ca75d11	0.02043012
75	0x3d0b5e17	0.034025278
76	0x3ba26329	0.0049556685
77	0x3d313eda	0.04327283
78	0x3cc77942	0.024349812
79	0xbbd46dbf	-0.0064828093
80	0x3bb398cb	0.005480861
81	0x3d1a3006	0.037643455
82	0xbd89c4f8	-0.06727022
83	0x3c21b759	0.009870374

fc3.weight f4 [10, 84]
0	0xbd2f3342	-0.042773493
1	0x3dd7f322	0.10544421
2	0xbe9866ae	-0.29765838
3	0x3def05f9	0.11671061
4	0xbc15bca0	-0.00913921
5	0xbde24004	-0.11047366
6	0x3e2e6034	0.17028886
7	0xbe0b1d4c	-0.13585395
8	0x3cb041f9	0.021515833
9	0xbe0b79b3	-0.13620643
10	0xbc587dd1	-0.013213591
11	0x3d16a027	0.036773827
12	0x3c327b33	0.010893631
13	0x3d971dfc	0.07378766
14	0xbe183df7	-0.14867388
15	0x38ba83ec	8.8937435e-05
16	0xbb85101c	-0.0040607583
17	0xbe302b1e	-0.17203948
18	0x3d40d773	0.04708047
19	0xbc8c0c49	-0.017095702
20	0x3babd3d5	0.005243758
21	0xbdee3cf6	-0.11632721
22	0xbde2fa6e	-0.11082922
23	0x3c4a28aa	0.012338797
24	0x3cf33665	0.029689023
25	0x3d96da5b	0.07365867
26	0x3d181acd	0.037134934
27	0xbdf866bc	-0.1212897
28	0xbe110ed0	-0.14165807
29	0xbe74c411	-0.23902918
30	0x3d3306ef	0.043707784
31	0xbe2ab0a5	-0.16668947
32	0xbdca0fc3	-0.098662876
33	0x3dd8c55e	0.1058452
34	0xbbb8880c	-0.0056314524
35	0xbdb5ca57	-0.08876484
36	0xbc490fe9	-0.01227186
37	0xbd8b47a2	-0.06800772
38	0xbdd7817e	-0.105227455
39	0xbd70b609	-0.058767352
40	0xbd71f4ac	-0.059071228
41	0xbd9d86bc	-0.07691714
42	0xbc81d644	-0.01584924
43	0xbdd7866e	-0.10523687
44	0xbdfb628b	-0.12274655
45	0xbdec6f76	-0.11544697
46	0x3e07a52b	0.132466
47	0x3e221aae	0.1583049
48	0x3da60e2b	0.08108171
49	0x3d1ecea4	0.038771287
50	0xbadf56e7	-0.0017039449
51	0xbd1e6587	-0.038671043
52	0xbdd6b84b	-0.1048437
53	0x3da3e562	0.08002736
54	0xbda15e33	-0.07879295
55	0x3d99364f	0.07481062
56	0xbd2b2b6e	-0.041789465
57	0x3d3566ba	0.04428742
58	0x3db99ec9	0.09063489
59	0x3d53da6f	0.051721986
60	0x3d95d1d1	0.0731541
61	0xbd8fa549	-0.070139475
62	0x3e31622f	0.1732261
63	0x3e1247df	0.14285229
64	0x3c03bb5e	0.008040277
65	0x3d6aacaf	0.05729359
66	0x3d72f03e	0.059311144
67	0x3dd9cac2	0.10634376
68	0xbdfdc59b	-0.12391206
69	0xbb91bfd6	-0.0044479175
70	0xbdebae0b	-0.115078054
71	0xbdba81c1	-0.0910678
72	0x3e34c243	0.1765223
73	0x3e39ab6e	0.18131801
74	0x3dd4050b	0.10352524
75	0x3e197b71	0.14988495
76	0x3dd5b45b	0.10434791
77	0x3d8f3d40	0.069941044
78	0x3e5404d8	0.20704973
79	0xbc432c51	-0.011912421
80	0x3e24636d	0.16053553
81	0x3d868246	0.065678164
82	0x3d4f8a76	0.050669156
83	0x3e1f3123	0.15546088
84	0x3dc6f463	0.09714582
85	0xbd3ab521	-0.045582894
86	0x3e00ffb8	0.12597549
87	0x3c97026c	0.018433772
88	0xbdd2c031	-0.10290564
89	0xbd86af11	-0.0657636
90	0x3dad7ce0	0.08471084
91	0x3db4080f	0.087905996
92	0x3e0ed7c0	0.1394949
93	0x3e110b3c	0.14164442
94	0x3c1a0026	0.009399449
95	0xbe0baea9	-0.13640846
96	0xbe3580ce	-0.17724916
97	0xbcee851e	-0.02911621
98	0x3e15f25b	0.14643233
99	0x3d844db2	0.06460132
100	0x3e57cb67	0.21073686
101	0x3c4d536b	0.012532095
102	0x3db63c43	0.08898213
103	0x3dbff73c	0.09373328
104	0x3dd678f4	0.10472289
105	0x3deadf14	0.1146833
106	0x3df0d481	0.11759282
107	0x3c1cdace	0.0095736515
108	0xbdb2ca69	-0.08730013
109	0xbd8d8350	-0.069098115
110	0xbe1cd78e	-0.15316603
111	0x3d3d4391	0.046207014
112	0xbd8aa3f4	-0.06769553
113	0xbe0b6b62	-0.13615182
114	0xbe148926	-0.14505443
115	0xbc9e6a61	-0.019337835
116	0xbe4bff54	-0.19921619
117	0xbd97920b	-0.07400902
118	0xbd988b10	-0.07448399
119	0xbe013ab0	-0.12620044
120	0x3c680cf4	0.0141632445
121	0x3d58b386	0.052905582
122	0x3dd4d05b	0.10391303
123	0x3ddcbff6	0.10778801
124	0xbd621c1a	-0.05520258
125	0x3d92cb7f	0.0716772
126	0xbd6a7a3e	-0.057245485
127	0xbe15c0e8	-0.14624369
128	0xbdcab6c4	-0.09898141
129	0x3e788877	0.24270807
130	0x3cc0972b	0.023509583
131	0x3cf5775d	0.029964143
132	0x3e531917	0.2061504
133	0xbda60399	-0.08106155
134	0xbe86fc00	-0.26364136
135	0x3d14b7b9	0.036308024
136	0x3cbcffa0	0.02307111
137	0xbdcafc1f	-0.099113695
138	0xbd53e54f	-0.051732358
139	0x3dd5755b	0.104227744
140	0xbd92d037	-0.0716862
141	0x3e08e540	0.13368702
142	0x3c9bca81	0.01901746
143	0xbd457931	-0.04821128
144	0xbd1bc138	-0.038026065
145	0xbe1a1340	-0.15046406
146	0x3cfad30a	0.03061821
147	0xbcd4f143	-0.025993949
148	0x3dfde7a0	0.123976946
149	0x3e13d537	0.14436804
150	0xbd81e167	-0.0634182
151	0x3d4ecc98	0.050488085
152	0x3cca82c9	0.024720566
153	0xbe141dd7	-0.14464508
154	0xbda79f96	-0.081847355
155	0xbda514cc	-0.08060607
156	0xbdcc7c88	-0.0998469
157	0xbd81bb50	-0.06334555
158	0xbc315d48	-0.010825463
159	0x3da3831a	0.0798399
160	0xbe8cc54c	-0.27494276
161	0x3d9847eb	0.07435592
162	0xbde6c542	-0.11268093
163	0x3b0f4940	0.0021863729
164	0x3d3b26dc	0.045691356
165	0x3ce5ef65	0.028068254
166	0x3e810f72	0.25207096
167	0x3d9f2f1d	0.07772658
168	0x3e498429	0.19679321
169	0x3db336b8	0.08750671
170	0x3dde108d	0.108430006
171	0x3e48db7e	0.1961498
172	0x3daf7323	0.085668825
173	0x3d1b9583	0.037984382
174	0x3cda2388	0.02662827
175	0xbdd44907	-0.10365491
176	0x3b639cce	0.0034730914
177	0x3d9067c1	0.070510395
178	0xbc1edc42	-0.009696068
179	0x3cd766fe	0.026294228
180	0x3d65d240	0.056108713
181	0xbdff5a6e	-0.1246842
182	0x3e017893	0.12643652
183	0x3d8481d0	0.06470072
184	0x3d12be88	0.035826236
185	0x3c0b30e8	0.008495547
186	0x3dbd3083	0.092377685
187	0x3d5747eb	0.05255882
188	0xbd924f0a	-0.07143982
189	0xbe89210b	-0.26783022
190	0xbdebe358	-0.11517972
191	0xbdd25fe9	-0.102722
192	0x3d9a76e0	0.07542205
193	0x3dec2170	0.11529815
194	0x3e849216	0.25892705
195	0xbdeea479	-0.116524644
196	0x3dfb3396	0.122656986
197	0xbdeb05fa	-0.11475749
198	0xbdf03f1f	-0.117307894
199	0xbe563120	-0.20917177
200	0xbd9bfe13	-0.0761682
201	0xbdadbed1	-0.08483661
202	0x3d60799f	0.054803487
203	0xbe0efea8	-0.13964331
204	0xbd8ea376	-0.069647714
205	0x3d4f636b	0.05063192
206	0x3caf46ec	0.021396123
207	0xbcefb0d9	-0.029259132
208	0x3e3b2379	0.1827525
209	0xbe1e4457	-0.15455757
210	0xbc77852f	-0.015107437
211	0xbd52dcc0	-0.051480055
212	0x3e3c71f2	0.18402842
213	0x3da332a6	0.07968645
214	0x3da2c121	0.07946993
215	0x3d08b5cc	0.0333765
216	0x3e6856c3	0.22689347
217	0xbda2fd7c	-0.079585046
218	0x3de438ff	0.11143684
219	0xbda4bff1	-0.080444224
220	0xbdd4d728	-0.103926
221	0x3dea2e03	0.11434557
222	0xbe2df555	-0.16988118
223	0x3e05f3cd	0.13081284
224	0xbda997f9	-0.082809396
225	0xbcc728e4	-0.02431149
226	0x3d8b244c	0.067940325
227	0xbcea9f91	-0.02864054
228	0xbdd42b82	-0.10359861
229	0x3d9352a4	0.07193497
230	0xbe777249	-0.2416469
231	0xbd70e810	-0.058815062
232	0x3d0d6b06	0.034525894
233	0x3d6afdc7	0.057370927
234	0x3d0d0674	0.034429982
235	0xbd963baf	-0.073356025
236	0xbb14aa37	-0.0022684464
237	0x3cfe6e6e	0.031058516
238	0xbd2357bf	-0.039878603
239	0x3c1bf351	0.00951846
240	0x3d0f6b13	0.035014223
241	0x3df35a28	0.1188243
242	0x3d40be68	0.047056586
243	0x3dd106dd	0.10206387
244	0xbe2225d5	-0.15834744
245	0xbda8bfcc	-0.08239707
246	0x3e233558	0.15938318
247	0xbe1981a8	-0.14990866
248	0xbd569eef	-0.052397665
249	0xbe296d30	-0.16545558
250	0x3d881185	0.066439666
251	0x3c945f87	0.018111957
252	0xbd96469a	-0.07337685
253	0x3dc49ec4	0.09600595
254	0x3e0b668f	0.13613342
255	0x3e1e4786	0.15456972

fc3.bias f4 [10]
0	0xbde5d785	-0.11222748
1	0xbd7518c0	-0.059838057
2	0x3ced778d	0.02898767
3	0x3c87211f	0.016495286
4	0xbd650bfb	-0.05591963
5	0xbd34d91d	-0.044152368
6	0x3d40faec	0.047114298
7	0x3b3d1962	0.002885424
8	0xbd8345d6	-0.064098045
9	0xbcba54b1	-0.022745462
