project3--CNN-COMPRESS/checkpoints/LeNet5/epoch-10.pth (torch, 56583 bytes, 10 tensors)

conv1.weight f4 [3, 1, 3, 3]
00000000: 218d acbe 5e86 11bf a0c3 093e b1cb c43e
00000010: 2849 4a3e 1f3b b53e 521d 243f 1b7b 7a3f
00000020: a894 9c3e fac4 46bf 7257 09bf 265a 16bf
00000030: 4674 84be e673 9dbe 3549 eebe 6e49 44bd
00000040: a37b 203f 3165 f73e ba6e 083f 6b05 f63e
00000050: 1f9d 9e3e a207 7e3d ac92 1d3f 0541 3d3f
00000060: 6484 3ebe de7a 8c3e 2208 6e3e
-0.33701423 -0.56845653 0.13453531 0.38436654 0.1975447 0.35396668 0.6410724 0.97844094
0.30582166 -0.7764431 -0.53649056 -0.58731306 -0.2586996 -0.30752486 -0.46540228 -0.04792159
0.62688655 0.4831939 0.53293955 0.4805101 0.3097925 0.062018998 0.6155193 0.73927337
-0.1860519 0.2743749 0.2324529

conv1.bias f4 [3]
00000000: 5b59 6e3f d842 293f 084a 3e3f
0.93105096 0.6611762 0.7433171

conv2.weight f4 [8, 3, 3, 3]
00000000: e19b 0ebe ba05 f9bc afe2 8b3c c365 13bb
00000010: c95a 033e e3ab d1be bd0f 903e 2ced 84be
00000020: aae0 0bbf 83ed 223e 1e63 06be c755 c7be
00000030: 5fe0 883c c757 90be 0d43 31be 145f 9ebe
00000040: c10b dcbd adbd 80bd ca48 6b3d ebb1 353d
00000050: 7c5e 993e 5ce4 253e 742a b43e a917 acbd
00000060: e169 0d3e b6e0 0a3e f035 99be 558e 803d
00000070: 2b58 ea3d 36e6 67be 61a5 8dbd 0d5a ea3d
00000080: a967 da3d 83eb 263e 0832 64be f1ce 753e
00000090: e417 b6bc cabf f7bd f3d7 5dbd 6828 f8bd
000000a0: 161f 18bf 50a0 dbbd bdd9 083e e92e 1cbf
000000b0: f4ec 83be e332 8dbd ee16 823c 8e38 99be
000000c0: 8cf3 a43d d01f ae3e 667d e9be 7556 bcbe
000000d0: 2c90 c73e 30b9 b53e 3c8b c8be da6f d4be
000000e0: b2d1 a73e 13c4 f43e 5d5a 86be 0266 b0be
000000f0: db95 bc3e ba6f 033d db80 dfbc 6333 ca3c
00000100: 83d2 07be 4f9d a2bd 91d7 723e 4e69 843d
00000110: f3d5 823e 4d38 87be 2923 b03b 3042 d63b
00000120: 3bff 8ebe 434b f2bd d48d 403e dabb 0dbe
00000130: 03b8 15bf 2e77 27bd 57cf 9a3e 04de 36be
00000140: 470a 4abd 96b3 ccbc 0495 013e 799a 313e
00000150: 6e50 bfbe 41b6 bbbe 05b4 9e3d f96d a83d
00000160: d657 08be 3756 8dbe b2e1 79be 38b8 d1be
00000170: a5b7 493d 5b22 4e3d f4da b4be 30fb 8fbe
00000180: 724f b13e 85b2 433c e0a5 093e af3d 5b3e
00000190: 6c95 4c3e 353a 55bd 7493 9fbd f140 ca3e
000001a0: d818 ae3e 1feb c1be ac6f 83be 537f 473e
000001b0: bad9 603e 35b0 333e a42c c43e c70a 91bd
000001c0: fb29 4b3e c198 bf3d 1047 cfbe 3f92 0cbf
000001d0: 691c 4fbe f490 73bc 8c17 c5bd 2771 9f3e
000001e0: 2d58 d2be f731 3cbe d8b7 86be 4c48 ef3d
000001f0: c996 233e 1f42 ba3e 0a8c 4fbe 133f 77be
00000200: 82fa 6bbe 33da a63e f8cc 833e f54a 9c3e
00000210: d2a4 2abe cdd3 663d 89b4 c0be 5566 a03d
00000220: 40ee b5be cc7e 213e 218f 43be 75f4 0d3e
00000230: 2037 253e baf5 1ebe dfb0 aa3e ba16 893e
00000240: 0824 673e 6315 323e bd21 b4be 8357 d63d
00000250: da1e 0ebd 1326 2dbf 70bf b73d 39ae 0b3d
00000260: e44d 45bf a357 9e3d 2817 72bd f728 8d3e
00000270: 6716 8fbe 0629 59be 4de3 9e3e 39a6 bbbe
00000280: c6da 4dbd 2393 f63d 75ea 0ebf 4867 b4be
00000290: 688d a4be 1971 26be ea89 e0bd e2f4 9d3d
000002a0: 2431 a03e 7b40 a93e 758b 623e 3aa0 9abb
000002b0: ecca 2abe 5bdb 96be 1590 03be 6a4c 1e3e
000002c0: adf0 a63e 793b 5c3d c6cf 0abe 0a4c 0ebd
000002d0: 83ae b4be 0948 503e f74c 54bd 5760 ccbe
000002e0: 26d5 99be 46c6 8cbe 0340 a73d 65a2 7a3e
000002f0: eb92 2c3e 155f f3bd b4a6 93bd e116 d73d
00000300: bbe4 a33e cf54 b93e 3d81 e53d 370c 1e3e
00000310: ece0 e2bd d605 a43d 55f5 a9bd 5470 ca3a
00000320: 85cb 213e 4efb a23d 2470 ab3b d5b5 82be
00000330: fac2 2bbe d340 74be 6f18 76be 0a98 0dbe
00000340: be7f 78be 2b75 f1bc 5e02 4cbd afc7 17be
00000350: a46e 663d e57c 083e fb30 d43d d8be a4bd
-0.1392665 -0.030398238 0.017075865 -0.0022491075 0.128276 -0.40951452 0.28137007 -0.25962198
-0.54639685 0.15910916 -0.13123748 -0.3893263 0.016708551 -0.2819197 -0.17310734 -0.30931914
-0.107444294 -0.06286178 0.057442464 0.04435913 0.29954898 0.16200393 0.3518864 -0.0840295
0.13809921 0.13562283 -0.29923964 0.06277148 0.11442598 -0.22646412 -0.06916309 0.11442957
0.10664303 0.16300778 -0.2228471 0.24004723 -0.022228189 -0.12097128 -0.054161023 -0.12117082
-0.59422433 -0.107239366 0.1336431 -0.6100908 -0.25766718 -0.068944715 0.015880074 -0.2992596
0.080542654 0.34008646 -0.45603484 -0.3678471 0.38977182 0.3549285 -0.39168727 -0.41491586
0.32777172 0.47805843 -0.26240817 -0.34452826 0.3683308 0.032088973 -0.027283123 0.024682706
-0.13263898 -0.079401605 0.23715045 0.06465398 0.25553855 -0.26410142 0.005375285 0.006538652
-0.279291 -0.11830761 0.18804103 -0.13841191 -0.58483905 -0.040885143 0.30236313 -0.1785813
-0.049326207 -0.024987977 0.12654501 0.17344083 -0.3736605 -0.36662486 0.0774918 0.082241006
-0.13314757 -0.2760484 -0.24402502 -0.4096086 0.049247403 0.050325733 -0.35323298 -0.28121328
0.34630924 0.011944418 0.13442183 0.21410249 0.19978875 -0.052057464 -0.07791796 0.3950267
0.3400333 -0.37874696 -0.25671136 0.19482164 0.21958056 0.17547686 0.38315308 -0.07082134
0.19840233 0.09355307 -0.40483904 -0.54910654 -0.20225681 -0.0148661025 -0.09623632 0.31141016
-0.41082898 -0.18378435 -0.26312137 0.116837114 0.15975489 0.3637857 -0.20268264 -0.24145155
-0.2304478 0.32588348 0.25742316 0.30525938 -0.16664436 0.056354333 -0.37637737 0.07832018
-0.35533333 0.15771025 -0.19097568 0.13862784 0.1613431 -0.15523425 0.33338067 0.26775151
0.22572339 0.17390971 -0.3518199 0.1046591 -0.03469739 -0.6763622 0.08972061 0.0341017
-0.77071977 0.07731559 -0.059104115 0.27570316 -0.2794678 -0.21207055 0.31032792 -0.36650255
-0.050257467 0.12039783 -0.55826503 -0.35235047 -0.32139134 -0.16254081 -0.10963805 0.07712723
0.3128749 0.33057007 0.22123511 -0.0047188075 -0.16678971 -0.2946423 -0.12847932 0.15458837
0.32605496 0.053767655 -0.13555822 -0.034740485 -0.35289392 0.20339979 -0.051831212 -0.3991725
-0.30045432 -0.2749502 0.08166506 0.24476011 0.1685292 -0.1188337 -0.072095305 0.10502411
0.32010445 0.36197516 0.11206291 0.15434347 -0.11078057 0.080089256 -0.082987465 0.0015444853
0.15800293 0.07958089 0.005231874 -0.25529352 -0.16773596 -0.23852853 -0.24032758 -0.1382753
-0.2426748 -0.029474815 -0.049806945 -0.14822267 0.05625786 0.13328893 0.10360905 -0.08044213

conv2.bias f4 [8]
00000000: 4869 183e 6e51 1a3e 1c23 193d 5f17 27be
00000010: e8b4 0fbd c35e 193e 4437 523c 8e2e d13c
0.14883912 0.15070125 0.037387 -0.16317509 -0.035084635 0.14977555 0.012830559 0.025534894

fc1.weight f4 [60, 200]
00000000: cad7 90bd 18c5 75be 9dd9 5abc ed50 86bd
00000010: 1dc6 ac3d f704 7d3d 621e 153d 7e0d 2ebe
00000020: a385 3f3d 8b27 1c3d d185 37bd 223d e63c
00000030: 9577 17bd 707a 2f3e 0974 e53d 4a2d ffbd
00000040: 629a 38be fea2 afbd 1502 9ebd 064d e7bc
00000050: d828 2abe ff43 e1bd f9da 483d 14c5 c83d
00000060: 0360 fbbd c55e 383e 6374 a73d bf81 49bd
00000070: 8ef0 1c3e 7a31 26be 6719 183d a028 83bd
00000080: 1af2 e8bd 96e4 c73c 38e2 4b3e 3f5b 8fbe
00000090: 4281 783d 6714 1a3d 3d64 73bc ed85 96be
000000a0: 4dc0 1abd 50de 783d 0d72 5d3d 8cc9 d93d
000000b0: 9d9b e83b 03f2 25bc 767c 5cbd 598a 893d
000000c0: 0292 efbc bacb 833b a7c2 9f3d 3e42 31be
000000d0: 701e c2be 52ac 8bbe 53a8 3e3e 4a66 4d3e
000000e0: 46c3 9abd 22a0 b9be b334 01be b225 dabc
000000f0: b738 123e e4d0 553e 1828 9bbe 7746 0bbe
00000100: 17bd a23d 7b92 db3e d131 f03d 69d5 f6bc
00000110: 4743 21be 02de 883e 59b4 98bd a214 883e
00000120: ba7e e93c 9bcc f1bc 3f70 b0bd dd2d 773d
00000130: 8599 44be 0d42 e13d 801f 2b3e 1d66 293e
00000140: a888 d83d 7579 f4bd 4fc4 0d3e a499 3b3e
00000150: 0482 92bd e5ee 3dbe b7c7 2ebc 5d32 f3bd
00000160: dbdf 20be 4760 a9bd 3d72 3bbe cf05 f9bd
00000170: 7ac8 833a 886e 4bbd 3cf7 46be ba77 1bbe
00000180: ff92 39bc e167 083d 5bd3 7abc 09e9 61be
00000190: 1f4f a7bd cd07 883d 79a1 333e 7cbe 123e
000001a0: 9654 513d f6f7 2d3e b615 1e3e 7895 813e
000001b0: b53f 143e 7cb4 9bbd d461 a9bd 3835 debc
000001c0: 9297 41bc 8c38 02be 6de3 893b 6801 66be
000001d0: 2d46 94bb c339 d7bc 2cd1 c9bc 4e8d 3ebe
000001e0: f70d 1f3d 3b11 113d b178 893d c90d aabd
000001f0: 1067 83bc c15c f0bd 2382 84bd 8700 5fbd
00000200: 010b 37be 0958 d7be d928 03be 17d3 c3bd
00000210: 48e8 0abe 5530 733d 07c9 1bba 25e3 60bd
00000220: 0f22 90bd 133c 343e 11cb 4ebd 6fdf c7bd
00000230: e269 2bbd 25e4 cc3d cf89 28bd a949 ad3c
00000240: 9b0a 9bbe 2a03 c5bd 8b90 4bbc de5a f13c
00000250: ca8c 843c 6ee4 0ebd a87b 093d f49f da3b
00000260: 8fbc f03d e01e 0b3e 253a 08bd 92c8 b1bd
00000270: b36a 333e 8e36 873d 6349 80be 957b 1cbe
00000280: 17d1 3abe 4e24 2dbd d674 8b3c 933b 14be
00000290: 212d c5be 90d2 0d3d a9b5 c33d acf0 50bc
000002a0: 5880 55bd a8e4 57bd 28f6 e23d c29f 04be
000002b0: 5ef5 c4bc 6e8c 3abd 29a1 e9be 26f8 5f3c
000002c0: a7f8 1d3d 3552 da3d b9b6 f33d 6951 513d
000002d0: 2d0e 7fbd 2adb 3d3d 94cb 803c cf6c 9a3d
000002e0: d4cb fa3d b743 7abe 4469 96bc 66fb 473d
000002f0: 934e 043e 00c2 d9bb 00fa 47bd 3c7c 5a3d
00000300: 9d8e 543d 51b7 c8ba 489d 83bd 33cd ad3d
00000310: 4d35 a63b c3d8 93bc 1c35 263d 97db 9fbd
00000320: 9b0c 4c3e 7b2a 3a3e a52f ad3e 6baf 473e
00000330: 7e5e 54bd dc18 173e d3ee d43d 1043 883e
00000340: cde8 2c3d 6a4e b9bd d17f 363c a69a 93ba
00000350: d586 f13d ed17 c3bd 6932 ef3d 62f5 1dbe
00000360: 0f22 c73d adb2 5d3d 41c6 4a3d d65e a5bd
00000370: 78f0 06bf bf70 10be c080 5c3d 6915 303d
00000380: 03a5 803d 8663 78ba ddb4 b8bd d694 5f3e
00000390: 3390 e53d c84b ef3d d1d8 d9bd 4f0f b73c
000003a0: cf3f 04be 0f36 f83c 5ec4 fa3c faae b03d
000003b0: 2778 663d 4183 b8bd 7845 863d 1624 c8bd
000003c0: d7de 68be 6915 fbbd 6924 0b3d 2fcb 29bd
000003d0: b289 1cbc 8c99 8ebd b9ca 0b3e dceb 4e3e
000003e0: a206 a93d 3d1f 983e 734c 703e 7cd9 423e
000003f0: f570 1fbc b8a6 833e 727e 52be 2290 ebbd
-0.070724085 -0.24000967 -0.013357547 -0.06558404 0.084362246 0.061772313 0.03640593 -0.16997334
0.046758305 0.03812365 -0.04480535 0.028105322 -0.036979277 0.1713655 0.112037726 -0.1245981
-0.18027642 -0.0857601 -0.07715241 -0.02823497 -0.16617143 -0.10999297 0.049036954 0.09803215
-0.12274172 0.18004902 0.08176496 -0.049196 0.1532614 -0.16229811 0.0371336 -0.06404233
-0.11374302 0.02440099 0.19910514 -0.27999303 0.060670145 0.037617113 -0.014855442 -0.29399052
-0.03778105 0.06075889 0.054063845 0.10634145 0.0070986287 -0.010128501 -0.053829633 0.06715841
-0.029244427 0.004022089 0.07800799 -0.17310426 -0.37913847 -0.27279907 0.18618898 0.20058551
-0.07556777 -0.36254984 -0.1261776 -0.026629303 0.14279447 0.20880467 -0.30304027 -0.13601099
0.07946222 0.42885193 0.11728252 -0.030131059 -0.1574832 0.2673188 -0.074562736 0.26578242
0.02850281 -0.029516509 -0.08615159 0.060346473 -0.19199188 0.10998926 0.16711235 0.1654286
0.1057294 -0.119372286 0.13844417 0.18320328 -0.07153705 -0.18548162 -0.010667733 -0.118748404
-0.15710394 -0.082703166 -0.18305297 -0.12159311 0.0010054254 -0.049665958 -0.1943025 -0.15182391
-0.0113265505 0.03330219 -0.01530918 -0.22061552 -0.08169388 0.06642113 0.17542066 0.14330477
0.051106058 0.16989121 0.1543797 0.25309348 0.14477427 -0.07602784 -0.08270612 -0.027124986
-0.011815922 -0.12716883 0.0042080195 -0.22461474 -0.004524967 -0.02627266 -0.024635874 -0.18608591
0.038831677 0.035416823 0.06712473 -0.083034106 -0.016040355 -0.117364414 -0.06470134 -0.054443862
-0.17875291 -0.42059353 -0.12808551 -0.095617466 -0.13565171 0.059372265 -0.0005942736 -0.054904122
-0.07037746 0.17601041 -0.050486628 -0.097594135 -0.041849025 0.100044526 -0.04114705 0.021153288
-0.3028153 -0.09619744 -0.012424598 0.029462274 0.016180415 -0.034885816 0.033565193 0.0066719
0.11754715 0.13585997 -0.033258576 -0.08680834 0.17521171 0.06602202 -0.2505599 -0.15281518
-0.18243824 -0.04227095 0.017023485 -0.14475851 -0.38510993 0.034624636 0.09556133 -0.012752693
-0.05212435 -0.052708298 0.11082107 -0.12951568 -0.024042781 -0.04554408 -0.45630768 0.013670003
0.03856721 0.10660211 0.11900086 0.05110303 -0.06226938 0.04635159 0.015722074 0.07540285
0.122459084 -0.24439894 -0.018360741 0.048823737 0.12920599 -0.006645441 -0.048822403 0.053341135
0.05189382 -0.0015313422 -0.064264834 0.08486404 0.005072272 -0.018047696 0.040577993 -0.07805555
0.19926684 0.18180268 0.33825412 0.1950051 -0.051847927 0.14755577 0.103971146 0.26613665
0.042214204 -0.090481594 0.011138872 -0.0011261299 0.11793295 -0.09526048 0.11679537 -0.15425637
0.09723293 0.054125477 0.049505476 -0.08074729 -0.52710676 -0.14105509 0.053833723 0.04298917
0.062814735 -0.00094752794 -0.09018872 0.2183412 0.112091444 0.11684376 -0.106370576 0.022346167
-0.12914966 0.030299215 0.030611213 0.08627124 0.05626693 -0.0900941 0.06556219 -0.09772508
-0.22741257 -0.12259943 0.03397027 -0.041453537 -0.0095543135 -0.069628805 0.13651551 0.2020716
0.08253218 0.29711333 0.23466663 0.19028276 -0.009731521 0.25713134 -0.20556048 -0.115021005

fc1.bias f4 [60]
00000000: 699b dabd 6cdf dd3d fc27 df3d 68e4 d7bc
00000010: 878a 9cbd 52f8 093c f269 b63d 40d5 803b
00000020: d063 6e3d e0c4 843d 6695 583c 8a01 0f3e
00000030: bbf7 6ebd 1f27 103e af16 093c 434e cc3d
00000040: 7927 ad3b 48e9 e2bc aba6 babc fdfb 833c
00000050: f44f 9dbd 25a4 1f3e e0fe cb37 38e7 533d
00000060: d6e7 c2bd 5fa8 423c 1c98 27bd ef8d cfbc
00000070: a4cf bd3c 0c64 193c acbf 023d d53a 38be
00000080: 7e9b e33d 9cf9 0e3e 3c46 3a3d 00a0 39bd
00000090: 1e47 f13c f91c cb3d 951b cfbc daf3 113d
000000a0: 4626 ad3c 7998 273e c11a 423d a60b 8b3b
000000b0: 0428 543e 5689 793d 94b4 a8bd 72d5 4abd
000000c0: 037e 5cbc f0d6 b3bd e470 4f3d 35ed 313d
000000d0: dcd4 c33d 566b 86bd 1bc7 233d 68af 813c
000000e0: c92a 91bd 254d 71bd fb0d 57bd 1490 10bd
-0.106741734 0.1083363 0.10896298 -0.02635403 -0.076436095 0.008421021 0.08906926 0.0039316714
0.058200657 0.064828634 0.013219213 0.13965431 -0.058341723 0.14077424 0.008367225 0.09975865
0.0052842465 -0.027699128 -0.022784552 0.016111368 -0.076812655 0.1558996 2.4318171e-05 0.05173418
-0.095168754 0.011880963 -0.040916547 -0.025336234 0.0231703 0.009362232 0.031921074 -0.17991193
0.11113642 0.13962406 0.045477137 -0.045318604 0.029452857 0.099176355 -0.025281707 0.035632946
0.021136414 0.16366757 0.047388796 0.004243332 0.2071839 0.06092199 -0.082375675 -0.049519964
-0.013457778 -0.087812304 0.05064477 0.04343911 0.09562084 -0.065634415 0.039984804 0.01583071
-0.07088239 -0.05891146 -0.052503567 -0.035293654

fc2.weight f4 [16, 60]
00000000: b0ff 84bd 7090 663d e9c5 27bd 73af aabd
00000010: eaae 9f3d 2f1e a43b 6708 cabd 11c2 593d
00000020: 0566 923d d2c6 e2bd a0e8 f0bb c1ea ccbd
00000030: f9ec 0a3d e87d 87bd 7c42 39bd 7afe e5bd
00000040: 3624 0cbe dcbe afbd 9b08 dcbd b5a6 3f3d
00000050: 73cf 51bd 1e2f 23be 1d68 e1bd 86b9 0cbe
00000060: 59da 553d 4388 02be a00c 9d3d 8079 97bc
00000070: 0a8a fd3d cbd8 0dbe 3cf1 7b3d c7b6 ecbd
00000080: e28e 903d 6909 b8bd ecd9 623c fadf dd3d
00000090: 889d e4bd 2745 7fbb 9e3c e0bd 215c b1bd
000000a0: e70f 613d b698 d0bc c321 043c 8715 cebc
000000b0: b637 f0bd 2ad4 16be b86b b1bd 82f9 1dbe
000000c0: 043e e73c 4f9a b5bd 1257 4f3a a65d 11be
000000d0: e772 953c ce2d bc3d bf61 83bd 2aff c83d
000000e0: 4484 bb3d 34a1 c43d a454 25be cb3b cdbd
000000f0: f6ae 36be 6b14 1d3e 9522 853d cbc0 ccbb
00000100: 0d72 d73d 94de 963d a7ee 5e3e f541 d8bd
00000110: 299c 9d3b f870 993e 936c 4f3e 6565 153e
00000120: 3b02 3d3e 1eea 51be c174 663e f3ed ef3d
00000130: 776e 483e 3082 2e3e 1c8f 8fbe 1d56 ad3e
00000140: 1cae 29be 7cf8 3a3e 09a4 5d3e fb7a 9bbd
00000150: 7e67 9abd d225 d03d 6aad 0d3e 43e4 1fbd
00000160: 4f7d 5f3e 541f 153c dda3 ae3d bdcb 233e
00000170: e2b4 8f3d 8a5d edbb c4fe a63d bb0d 25bd
00000180: 653e 37be f40d 4f3d f5ad e0bd 2647 25be
00000190: ed4d cfbe 76f7 88be 4c01 c73c be0a 693e
000001a0: 4c1b 17be 3c38 8cbe fdff b6bd 16b2 153e
000001b0: 9c03 e23c 7f4c 563e 14e0 03bf d92b d33d
000001c0: 88b5 09bb 460d 36bc f847 453e 3c9c 733b
000001d0: 827a 1d3d 8348 1d3e be1e 2a3e 9399 64bd
000001e0: b866 093e ea9f 903e 6be1 ba3d b44e 72be
000001f0: 4d6a 89bd 0ab8 a83e 8423 82ba 9865 43be
00000200: 7349 64bd 6871 93be f331 663d 5034 1a3e
00000210: d50c 0abd c255 0a3d eb71 823e ade8 1e3e
00000220: 6af1 c0bd 210f 80be 8515 c43e 691a a03c
00000230: 6ac1 343e 684c 6c3e f18b f33d cb2a c73d
00000240: 93ce bd3d 0780 68be 3298 41be 13e4 1b3e
00000250: 2aba 4dbe 3bcf 683d f999 73bd 0263 5d3d
00000260: 0e69 e2bb b3d6 2d3e 649b b93d 701a 3d3d
00000270: 98bf 953d 6ad5 213d a85f 92bd 74dd 683e
00000280: afe9 e13d 1bdc 30be 6fa3 8a3e 9609 c3bd
00000290: 9eff a9bb 8bcc febd c25b 2abb a566 b33d
000002a0: 6b92 953e 9c87 4d3e ecb9 593b 7d4d 90bd
000002b0: 3b96 583e 8f61 23bc e415 ac3e c768 44be
000002c0: e835 b4bd a120 90bd d3d2 84bc 742b cc3d
000002d0: c1f2 9e3b 3aab 31be addc b23d 8a91 273e
000002e0: a5e6 9e3e 8cfe 64be c21a 21be cc12 95be
000002f0: 6be7 a13d 3b4d a63d 24cd 893d 66b5 013d
00000300: 3624 01be 8646 07be 4a01 b2be 42c8 b6bd
00000310: 048c 19be b66b 163e 700e 98be ea41 6abd
00000320: 18ec 203d d7b1 bbbd ee8f 573e d2c2 163e
00000330: c10b 6a3e ac1c 673b 46b3 a83e 93fc ad3d
00000340: 8476 8d3e 27b8 6d3e 8deb eb3c ddb0 763e
00000350: c227 d83d 90bf 4abe 754a a93d 194b f23c
00000360: 16fd e23d 7476 1fbe 98cc 12bd 4f66 f13d
00000370: 4c9a e13d f7d3 a13e f35d adbd e807 28bd
00000380: 563c 5a3d f27c 783e b1b7 923d 3f3f 5cbc
00000390: b0a7 033c a8b2 293d 05fc 93bd 83e8 3f3e
000003a0: 3f4a bb3d e85c d73c b923 7b3d 2ed4 873a
000003b0: f1f3 0ebe e8ce 713e c52c adbd 8304 243e
000003c0: facd 853e b776 b5be c393 8e3e 6fc6 8dbe
000003d0: 4cc0 30bc f80e 4e3e e147 753d b202 b53e
000003e0: 711f 0cbe adcf c6be 37c6 38be d3fd e33d
000003f0: c3cd adbb e1ed c93c bd0f 0abe 0a3e 983e
-0.06494081 0.05629009 -0.040960226 -0.083342455 0.07797034 0.005008481 -0.09864884 0.05316359
0.07148365 -0.11073078 -0.00735195 -0.10005713 0.0339174 -0.066158116 -0.04522942 -0.11230178
-0.13685688 -0.085813254 -0.10743829 0.046789844 -0.05122323 -0.15935943 -0.11006186 -0.13742647
0.052210186 -0.12747292 0.07668424 -0.018490553 0.123798445 -0.13852231 0.061509356 -0.115582995
0.07058503 -0.0898617 0.013845902 0.10833736 -0.11162859 -0.003895113 -0.10949062 -0.0866015
0.054946806 -0.025463443 0.00806469 -0.02515675 -0.11729376 -0.14729372 -0.08663124 -0.15427211
0.028227814 -0.08867323 0.0007909398 -0.1419588 0.018243266 0.09188424 -0.06415128 0.09814294
0.09156087 0.096010596 -0.16145569 -0.1002117 -0.1784018 0.1533982 0.065007366 -0.0062485687
0.105198 0.07366672 0.21770726 -0.10559455 0.0048098755 0.29969 0.20256262 0.1458946
0.18457882 -0.20499465 0.22505476 0.11715307 0.19573389 0.1704185 -0.2803887 0.33854762
-0.16570324 0.18258852 0.21644606 -0.07591816 -0.07539271 0.10163464 0.13835683 -0.039036047
0.21825145 0.0091017075 0.08527348 0.15995689 0.070169225 -0.0072438167 0.081540614 -0.040296298
-0.17894895 0.050550416 -0.1097068 -0.16140422 -0.4048914 -0.26751298 0.02429261 0.22758004
-0.14756507 -0.27386653 -0.08935545 0.14618716 0.027589612 0.20927618 -0.5151379 0.10311098
-0.0021012742 -0.011111563 0.19265735 0.003717198 0.03844691 0.15359692 0.1661329 -0.055810522
0.1341809 0.28247005 0.09125026 -0.23662835 -0.067097284 0.3295291 -0.0009928797 -0.19081724
-0.05573411 -0.2879746 0.05619998 0.15059018 -0.033703644 0.03377319 0.25477538 0.15518446
-0.09421046 -0.25011542 0.38297668 0.019543843 0.17651907 0.23076022 0.11891926 0.09724959
0.092679165 -0.22705089 -0.18905714 0.15223722 -0.20090547 0.056838255 -0.05947301 0.0540495
-0.006909496 0.16976433 0.090628415 0.04616779 0.07311934 0.039510168 -0.07147151 0.22740728
0.110309 -0.17271464 0.27077815 -0.09523313 -0.0051879426 -0.12441357 -0.0025994633 0.08759812
0.2921327 0.20071262 0.003322239 -0.0704603 0.21151058 -0.00997199 0.3361045 -0.19180594
-0.08799344 -0.070374735 -0.01621381 0.099692255 0.004850716 -0.17350474 0.08733497 0.16364112
0.31035343 -0.22362727 -0.15732864 -0.29115903 0.079054676 0.08120199 0.067285806 0.031667136
-0.1261147 -0.13210496 -0.34766608 -0.08924915 -0.14994818 0.14689526 -0.29698515 -0.057191767
0.039287657 -0.0916478 0.21050999 0.14722756 0.22856046 0.0035264893 0.32949275 0.0849544
0.27629483 0.2321478 0.028798843 0.24090905 0.10554458 -0.19799638 0.08266155 0.029576825
0.110834286 -0.1557253 -0.035839647 0.11787092 0.11015758 0.3160703 -0.08465185 -0.041023165
0.053280197 0.24266413 0.071639426 -0.013442813 0.008035585 0.041430146 -0.07225803 0.1874104
0.09145021 0.026289418 0.061313365 0.0010362917 -0.13960244 0.23614085 -0.08455805 0.16017346
0.2613371 -0.35442135 0.27847108 -0.27690455 -0.010788035 0.20122898 0.059883002 0.3535362
-0.13683869 -0.3883032 -0.18044363 0.111323975 -0.0053040697 0.024649562 -0.13482566 0.29734832

fc2.bias f4 [16]
00000000: 2135 c8bd fe55 1a3b f389 263e be90 b0bd
00000010: 49ce cd3d 9361 25be 9f04 9a3e 49cb 193e
00000020: 9701 053d c2ce 92bd ec30 05bc a92e 79bd
00000030: 522e 5abd a48f 953c 0f47 013e 12ac 7bbd
-0.097757585 0.002354979 0.16263561 -0.086213574 0.100491114 -0.16150503 0.3008165 0.15018953
0.03247222 -0.07168342 -0.00812934 -0.060835514 -0.05326683 0.01825697 0.12624763 -0.061443396

fc3.weight f4 [10, 16]
00000000: e345 1b3e 5cd5 98be 6c9d 5e3e cd15 b63d
00000010: 5f5a b4be 84bb e6bc 7fcc 3fbe ec35 243e
00000020: d4ec 23be 90cf 75bc f917 863c 3691 93be
00000030: 3b7d 8e3e dc7b 5c3e 430c 8abd 81e3 36be
00000040: fc93 dd3c e1bf 69be 6cc2 873e 2823 b7be
00000050: 65c6 79be d871 05bd 062f 8f3e 9ae0 85be
00000060: 6f56 903e 7ec1 1d3e 3d1a d63d d2be 0d3e
00000070: 645c 80be 2abc 7a3c 0ecd d0be 3629 953e
00000080: 912c cf3d ee3e 593e 2e10 283e 1d3e cdbd
00000090: 8732 3c3d ac99 473e 7bee 03be 3a6b bd3a
000000a0: c21e 233e 16eb 4bbe c7d0 013e 5234 f53d
000000b0: fce7 793e 5655 bcbe 5808 fbbd 1ca0 6bbe
000000c0: 25c2 3dbe 2ca3 83bd 11da 073e 0e1e 4e3d
000000d0: 1695 ee3d a0e2 5d3c 2433 92be 33f8 9dbe
000000e0: 1a5e 363e 900c 65be 8a8a b03d d6df f33e
000000f0: e264 72be ee46 e13d 9047 a63c 1f83 31be
00000100: 2aa0 423e 698a 803c 1848 74be faf7 403d
00000110: 8f47 61be 0540 0fbe 2fca a63e 6add f8bd
00000120: 3b7b debc 0d44 c63d 53ca 1abe 5df2 e43b
00000130: 939a bc3d 3419 acbe cf38 e73e dc78 0fbf
00000140: 7bd7 363e a724 d53e ff18 dcbd 8418 4a3e
00000150: e60b 6bbd ba1b 453d 6568 3cbe 6ab1 4abd
00000160: 8604 5abe 7596 643c 2d9b 8abe 7af7 bc3c
00000170: 051e 75be e060 7f3e b608 56be 29ca 53be
00000180: aa9b 9d3d c664 b4bd 0c23 babe d192 e73d
00000190: bf1f 99be 32e0 8dbd 5879 bf3d 71ab c73e
000001a0: fcc0 3c3d c87a 6abe 1108 853d 7427 66be
000001b0: 339f 76be 1e00 3f3e 5cdd 52be 0b30 c93d
000001c0: 5f3e be3d 588e 75be 942a 50be e43a 0d3d
000001d0: 085c ad3e 8f8b 0ebd 1274 44bd ff8c f1be
000001e0: 913f b8bc 7456 143e c8fa 393e 69dd bcbd
000001f0: 061b 0d3e 1221 16be 0ff5 9cbe 9de3 693e
00000200: 87e7 65be 9a3c 7c3d fd2c 373e fbe8 bdbd
00000210: 9335 543e c342 37be 829b 543d 2f58 78bd
00000220: 35dc 68be d5fe 18bf 73a3 773e 77ce 8bbe
00000230: e911 6dbe 1cd5 553e 2c44 ab3c 5292 29be
00000240: 7004 533d 4c6b 8dbe 01c3 923e 69f9 593e
00000250: 077a 5c3e 606b 2fbe 172f 2f3e 9efe 07be
00000260: efd7 55be 8093 96bd 854f 13bf 0123 a8bc
00000270: 8552 b4bc abb5 203d c66d 283e 81d6 c0bd
0.15163378 -0.2985028 0.21739739 0.08890877 -0.35225198 -0.028165586 -0.18730353 0.16036195
-0.16008312 -0.0150031 0.016368853 -0.28821725 0.27829918 0.21531624 -0.0674062 -0.17860223
0.027048104 -0.22827102 0.2651552 -0.3576901 -0.24392088 -0.032579273 0.27965564 -0.2614792
0.28190944 0.15405843 0.10454223 0.13842323 -0.25070488 0.015303651 -0.40781444 0.29133004
0.10115922 0.21215412 0.16412422 -0.10021613 0.045946624 0.19492215 -0.12883942 0.0014451512
0.15929702 -0.19913897 0.12677298 0.1197287 0.24404901 -0.36783856 -0.12257451 -0.23010296
-0.18531092 -0.06427607 0.1326678 0.05032163 0.1164953 0.013542801 -0.28554642 -0.30853423
0.17809334 -0.22368073 0.08620174 0.4763171 -0.23671296 0.10999857 0.020297796 -0.17335175
0.1900641 0.015691 -0.23855627 0.04711149 -0.21999954 -0.13989265 0.3257613 -0.121516064
-0.02715837 0.096809484 -0.15116243 0.0069868998 0.0920917 -0.33612978 0.4516053 -0.5604379
0.17855637 0.41629526 -0.10746955 0.19735914 -0.057384394 0.048122145 -0.18399198 -0.0494856
-0.21290788 0.013951887 -0.27071515 0.023067225 -0.23937233 0.24939299 -0.2090176 -0.20682587
0.07695706 -0.088082835 -0.36354864 0.113073 -0.29907033 -0.069275275 0.09349316 0.38997987
0.04608248 -0.228984 0.06495679 -0.22475988 -0.24084167 0.18652388 -0.20592254 0.098236166
0.0928924 -0.23980081 -0.20328742 0.03447999 0.33859277 -0.034801062 -0.047962256 -0.47177884
-0.022491248 0.14486104 0.18162072 -0.09221918 0.1377984 -0.14661053 -0.30655715 0.22840734
-0.22451602 0.06158123 0.17888255 -0.09272953 0.20723562 -0.17896561 0.051906116 -0.060630973
-0.22740252 -0.5976384 0.24183445 -0.27305958 -0.23151363 0.20882076 0.02090653 -0.16559723
0.051517904 -0.27620924 0.286644 0.21286549 0.21530925 -0.17130804 0.17107807 -0.13280722
-0.20883153 -0.07352352 -0.5754321 -0.020524504 -0.022012005 0.039235752 0.16448125 -0.094159134

fc3.bias f4 [10]
00000000: cea8 b53d 25cd 063d 1a3a 79be c570 6fbe
00000010: 44c7 803e 5d47 303e e439 fb3b 25c3 ec3d
00000020: 3a09 2abe 9163 b4bd
0.088700876 0.032910485 -0.2433857 -0.23382862 0.25152028 0.17214723 0.007666813 0.11560658
-0.16605082 -0.08808053
