project3--CNN-COMPRESS/checkpoints/LeNet5/epoch-9.pth (torch, 56583 bytes, 10 tensors)

conv1.weight f4 [3, 1, 3, 3]
-0.3213742 -0.5568186 0.13525568 0.3962357 0.2073688 0.3687765 0.6325668 0.9793595
0.3119888 -0.76613426 -0.5112928 -0.5557847 -0.26650268 -0.32226354 -0.4699576 -0.055882253
0.62792736 0.4619766 0.51448226 0.46659252 0.31312978 0.052627925 0.60792476 0.7468073
-0.18056366 0.28567597 0.2389058
00000000: 298b a4be aa8b 0ebf 7780 0a3e 68df ca3e
00000010: 7d58 543e 46d0 bc3e e6ef 213f 4eb7 7a3f
00000020: ffbc 9f3e 6021 44bf 16e4 02bf e847 0ebf
00000030: 0a73 88be baff a4be 489e f0be cae4 64bd
00000040: d9bf 203f 3288 ec3e 1cb5 033f 37e5 ee3e
00000050: 8c52 a03e 6190 573d f5a0 1b3f c32e 3f3f
00000060: aee5 38be 1f44 923e b9a3 743e

conv1.bias f4 [3]
0.9164489 0.6616742 0.71494186
00000000: 659c 6a3f 7b63 293f 6e06 373f

conv2.weight f4 [8, 3, 3, 3]
-0.13944216 -0.029265014 0.018231753 -0.00034183371 0.12524351 -0.4207362 0.2783039 -0.2603225
-0.5573911 0.16095912 -0.13724332 -0.37408543 0.025387904 -0.29434243 -0.15803975 -0.302788
-0.100143135 -0.054554407 0.06388802 0.04838622 0.2971717 0.16069183 0.34594393 -0.0793466
0.13584371 0.13564144 -0.3155562 0.053643953 0.10863994 -0.22487411 -0.05668061 0.12041335
0.106457435 0.16799329 -0.22420765 0.23381416 -0.0016081524 -0.11952566 -0.05779226 -0.09766145
-0.5938449 -0.11368887 0.1339199 -0.5825799 -0.26781055 -0.08626033 0.024303673 -0.296127
0.07487354 0.34184226 -0.43774015 -0.35683668 0.3822153 0.35373083 -0.38153344 -0.42997992
0.31349954 0.468688 -0.2709671 -0.336055 0.35395488 0.024414606 -0.025000745 0.014010917
-0.14283514 -0.09050751 0.2145787 0.0612969 0.23923641 -0.2732814 0.0129680885 0.0016874208
-0.289206 -0.12139074 0.18612336 -0.13499828 -0.604669 -0.032182332 0.28913033 -0.17881574
-0.046243273 -0.037020147 0.12620558 0.17551877 -0.38180804 -0.35526106 0.09102074 0.049055435
-0.14814039 -0.27364433 -0.24125853 -0.40410802 0.040623687 0.05273235 -0.335168 -0.26394236
0.34667486 0.005369184 0.11635941 0.20169912 0.20594458 -0.037095282 -0.09180061 0.388413
0.34580198 -0.39308876 -0.2544194 0.20805773 0.19713368 0.16083774 0.37244862 -0.07944748
0.17546506 0.10010449 -0.43142748 -0.54257566 -0.18873902 -0.018852599 -0.085135825 0.30910397
-0.39784354 -0.17273244 -0.24352176 0.11092665 0.15634064 0.33921224 -0.21706893 -0.24963409
-0.22879452 0.30197364 0.23952278 0.30651075 -0.1792594 0.053161766 -0.34972978 0.05379009
-0.35884887 0.15891814 -0.18992507 0.13572414 0.1628087 -0.14726236 0.33926824 0.2670937
0.21035163 0.17887329 -0.35254437 0.09867495 -0.02813435 -0.6730574 0.08479106 0.039027575
-0.7666404 0.056002636 -0.06307675 0.26973498 -0.28907025 -0.22083995 0.30556485 -0.36306134
-0.05173356 0.11605997 -0.5228455 -0.33567038 -0.31628898 -0.12684776 -0.09460627 0.08764644
0.3231636 0.33921072 0.23617539 0.009896162 -0.15650535 -0.28563553 -0.11294488 0.16449083
0.3310643 0.046057057 -0.14334174 -0.026213929 -0.32967705 0.21599667 -0.047356296 -0.35773283
-0.28694975 -0.26411843 0.1158957 0.26190016 0.1845236 -0.12640661 -0.07532895 0.08910417
0.32389888 0.3507426 0.09480865 0.1628323 -0.10935759 0.06725624 -0.07477623 0.00014764984
0.1501249 0.08746363 0.0045094267 -0.24729006 -0.19269791 -0.26913905 -0.23205614 -0.14089353
-0.24936531 -0.03098396 -0.04187757 -0.15355538 0.05120702 0.13963038 0.10266245 -0.090216875
00000000: edc9 0ebe 2fbd efbc c25a 953c 2538 b3b9
00000010: d63f 003e bc6a d7be d97d 8e3e fe48 85be
00000020: 2fb1 0ebf 78d2 243e 8389 0cbe 2088 bfbe
00000030: 4bfa cf3c 0db4 96be 2cd5 21be 0707 9bbe
00000040: d817 cdbd 7174 5fbd b9d7 823d a130 463d
00000050: e426 983e 668c 243e 901f b13e 7880 a2bd
00000060: 9d1a 0b3e 97e5 0a3e 9590 a1be c3b9 5b3d
00000070: 9e7e de3d 6645 66be ed29 68bd 469b f63d
00000080: 5b06 da3d 6f06 2c3e b196 65be fb6c 6f3e
00000090: a4c8 d2ba dfc9 f4bd 94b7 6cbd ba02 c8bd
000000a0: 3806 18bf b6d5 e8bd 4c22 093e f523 15bf
000000b0: 771e 89be 42a9 b0bd 7f18 c73c f59d 97be
000000c0: 4c57 993d f305 af3e 7a1f e0be 4cb3 b6be
000000d0: b9b1 c33e 351c b53e 5a58 c3be 5426 dcbe
000000e0: 0383 a03e e0f7 ef3e 33bc 8abe 670f acbe
000000f0: 9339 b53e 2401 c83c 5dce ccbc 0c8e 653c
00000100: 6043 12be 005c b9bd 85ba 5b3e 7512 7b3d
00000110: 64fa 743e 8aeb 8bbe 1b78 543c 722c dd3a
00000120: cf12 94be b59b f8bd 1f97 3e3e fd3c 0abe
00000130: 96cb 1abf 9fd1 03bd e408 943e 791b 37be
00000140: 9669 3dbd 70a2 17bd 093c 013e 31bb 333e
00000150: 587c c3be c7e4 b5be 1569 ba3d 5aee 483d
00000160: 1db2 17be 1c1b 8cbe 7a0c 77be 3fe7 cebe
00000170: 0665 263d e0fd 573d 249b abbe 7423 87be
00000180: 5e7f b13e fbef af3b d84d ee3d 378a 4e3e
00000190: 23e3 523e 39f1 17bd f501 bcbd 12de c63e
000001a0: f50c b13e ee42 c9be 4243 82be 160d 553e
000001b0: 69dd 493e a6b2 243e 96b1 be3e 5cb5 a2bd
000001c0: 1dad 333e 9503 cd3d 10e4 dcbe 3de6 0abf
000001d0: cd44 41be c470 9abc b15b aebd e042 9e3e
000001e0: 26b2 cbbe c6e0 30be c55d 79be 832d e33d
000001f0: c317 203e 3aad ad3e 5147 5ebe 14a0 7fbe
00000200: 1c49 6abe 4a9c 9a3e 7645 753e faee 9c3e
00000210: c78f 37be 27c0 593d c80f b3be ff52 5c3d
00000220: 0abb b7be 70bb 223e b87b 42be 45fb 0a3e
00000230: 53b7 263e f2cb 16be 91b4 ad3e 81c0 883e
00000240: 6b66 573e 8f2a 373e b280 b4be 1816 ca3d
00000250: 027a e6bc 7d4d 2cbf efa6 ad3d 61db 1f3d
00000260: 8c42 44bf 0563 653d 622e 81bd b41a 8a3e
00000270: 0401 94be de23 62be ff72 9c3e 2de3 b9be
00000280: 92e6 53bd d9b0 ed3d 34d9 05bf fddc abbe
00000290: a1f0 a1be 61e4 01be efc0 c1bd fa7f b33d
000002a0: b375 a53e 07ad ad3e f6d7 713e 8323 223c
000002b0: f042 20be d23e 92be a54f e7bd 4970 283e
000002c0: 4381 a93e 53a6 3c3d 2dc8 12be 98be d6bc
000002d0: 6ecb a8be 3b2e 5d3e adf8 41bd c228 b7be
000002e0: 14eb 92be 883a 87be ba5a ed3d c717 863e
000002f0: c1f3 3c3e bc70 01be 1146 9abd 3f7c b63d
00000300: 13d6 a53e 8994 b33e 0a2b c23d 83bd 263e
00000310: dff6 dfbd a4bd 893d 4824 99bd 74d2 1a39
00000320: 57ba 193e 2220 b33d d0c3 933b 9b39 7dbe
00000330: 9a52 45be 98cc 89be 20a0 6dbe 6546 10be
00000340: 9f59 7fbe 13d2 fdbc d187 2bbd 9f3d 1dbe
00000350: 74be 513d 44fb 0e3e b140 d23d a0c3 b8bd

conv2.bias f4 [8]
0.15308788 0.1501498 0.030263664 -0.15458411 -0.029124418 0.1299435 0.030194256 0.032907758
00000000: 12c3 1c3e dfc0 193e 81eb f73c 4c4b 1ebe
00000010: 5596 eebc e90f 053e f259 f73c 49ca 063d

fc1.weight f4 [60, 200]
-0.07425033 -0.2564541 -0.057848897 -0.05810658 0.091274895 0.041251995 -0.008466519 -0.17707883
0.058701877 0.03848999 -0.06546354 0.020093802 -0.024696123 0.17655063 0.110893324 -0.12984496
-0.16470067 -0.06947453 -0.07031738 -0.02316593 -0.13183221 -0.10054666 0.049115703 0.093236044
-0.11954805 0.16300185 0.073918365 -0.034188163 0.16628425 -0.113021694 0.04158323 -0.07724888
-0.091074765 0.02447266 0.20505384 -0.24980769 0.04111138 0.047232598 -0.003825328 -0.29472625
-0.019224176 0.061157275 0.03652705 0.1075882 0.019178376 0.012941637 -0.047806825 0.07994866
-0.042362396 -0.005872183 0.08237894 -0.15183663 -0.38619226 -0.25845087 0.18186823 0.2113894
-0.05322342 -0.35732234 -0.1084634 -0.04837242 0.124846324 0.24086885 -0.27276376 -0.15325315
0.089627884 0.4197463 0.14213033 -0.009584403 -0.14997882 0.2715528 -0.052071594 0.2553652
0.03385129 -0.021479929 -0.09170048 0.053334687 -0.14136982 0.12100156 0.16051212 0.1619816
0.108056575 -0.12233488 0.1294002 0.16432294 -0.050004225 -0.18965194 -0.017094105 -0.099798284
-0.16023992 -0.08287817 -0.18261904 -0.124024965 0.0060887267 -0.03703331 -0.17006163 -0.1437176
-0.0029648803 0.021344448 -0.048067566 -0.20370424 -0.064729735 0.09823487 0.17664835 0.13507028
0.06539653 0.17199188 0.14141811 0.2278867 0.14345974 -0.06773416 -0.0733213 -0.025639249
-0.010602044 -0.11315039 -0.0041695265 -0.20931411 0.0056608412 -0.021769946 -0.014279903 -0.16008921
0.04363683 0.034872442 0.057369087 -0.088268794 -0.03220505 -0.14113203 -0.07743898 -0.056804683
-0.18085016 -0.40905875 -0.14736857 -0.10056522 -0.116569355 0.049456216 0.00868888 -0.06688681
-0.06833654 0.17733866 -0.057734884 -0.09396791 -0.052258983 0.08385158 -0.030273652 0.025918415
-0.27978647 -0.09644565 -0.012719741 0.031776156 0.0019407761 -0.025157673 0.038384106 -0.0039328784
0.11397492 0.13535807 -0.032327358 -0.108294755 0.15710859 0.075365126 -0.21031992 -0.16615455
-0.13896815 -0.008471506 0.0115712 -0.1606963 -0.36772126 0.028048586 0.10534185 -0.013842419
-0.054301478 -0.04910769 0.1298122 -0.11573858 -0.021747503 -0.025598282 -0.43181136 0.016840111
0.045596045 0.0980342 0.115073964 0.054897808 -0.07399697 0.019844055 -0.0024983082 0.064312495
0.09945967 -0.23179713 -0.007154676 0.03404258 0.12475483 -0.003298208 -0.03681198 0.053242836
0.048715983 -0.0101835225 -0.074450456 0.08955697 0.024206467 -0.0024688325 0.047033027 -0.07735645
0.1943114 0.15722859 0.29929164 0.1799094 -0.03032903 0.1520353 0.09465097 0.24027666
0.049199812 -0.07559541 0.04190206 -0.013165014 0.12095102 -0.09010674 0.111722566 -0.10289578
0.0780971 0.051307913 0.049381725 -0.0851173 -0.50590336 -0.14570117 0.05612596 0.025690904
0.06885267 0.012834149 -0.0707692 0.20387812 0.11239228 0.10783123 -0.078313604 0.03369917
-0.104551755 0.02338067 0.0148119 0.09205715 0.01595946 -0.096516006 0.073374696 -0.13697577
-0.23729786 -0.15832509 0.020924542 -0.023808952 -0.0071934336 -0.062204495 0.12225776 0.18864521
0.083885886 0.3196068 0.21006876 0.17775537 0.013552054 0.24217662 -0.20273378 -0.11428001
00000000: 8f10 98bd f44d 83be f7f2 6cbd 2a01 6ebd
00000010: 55ee ba3d daf7 283d 28b7 0abc 2754 35be
00000020: 6171 703d aea7 1d3d c011 86bd c29b a43c
00000030: 864f cabc b0c9 343e 0a1c e33d 14f6 04be
00000040: 4ba7 28be aa48 8ebd 8f02 90bd 7ac6 bdbc
00000050: 06ff 06be 68eb cdbd 8c2d 493d 8af2 be3d
00000060: 9cd5 f4bd f5e9 263e 8362 973d e308 0cbd
00000070: 6b46 2a3e eb77 e7bd 2d53 2a3d a934 9ebd
00000080: 6885 babd e37a c83c a2f9 513e 96cd 7fbe
00000090: 6864 283d f876 413d 5bb2 7abb 5ce6 96be
000000a0: 057c 9dbc 0d80 7a3d 639d 153d 3457 dc3d
000000b0: f81b 9d3c 2909 543c 17d1 43bd 20bc a33d
000000c0: 3184 2dbd 716b c0bb 4ab6 a83d 107b 1bbe
000000d0: feba c5be ac53 84be aa3b 3a3e 7676 583e
000000e0: cd00 5abd f4f2 b6be 0f22 debd 2922 46bd
000000f0: 6eaf ff3d 53a6 763e b1a7 8bbe 65ee 1cbe
00000100: d38e b73d fde8 d63e 9d8a 113e e607 1dbc
00000110: 0c94 19be f808 8b3e 0649 55bd 3abf 823e
00000120: a6a7 0a3d adf6 afbc 76cd bbbd 7975 5a3d
00000130: 40c3 10be aacf f73d 4a5d 243e 81de 253e
00000140: c44c dd3d b68a fabd 7c81 043e 4644 283e
00000150: 3bd1 4cbd 1e34 42be f008 8cbc 0b63 ccbd
00000160: ef15 24be 08bc a9bd 7c00 3bbe cd00 febd
00000170: f183 c73b 3db0 17bd a324 2ebe b52a 13be
00000180: 704e 42bb 8dda ae3c 7fe2 44bd d897 50be
00000190: 0691 84bd 5d2f c93d 4ee3 343e dd4f 0a3e
000001a0: 9eee 853d a41e 303e e9cf 103e 225b 693e
000001b0: 1ce7 123e 35b8 8abd 7a29 96bd 6709 d2bc
000001c0: 32b4 2dbc 64bb e7bd 86a0 88bb 7056 56be
000001d0: 947e b93b e356 b2bc 41f6 69bc 6dee 23be
000001e0: 88bc 323d 68d6 0e3d d9fb 6a3d 45c6 b4bd
000001f0: 71e9 03bd ea84 10be 5498 9ebd 07ac 68bd
00000200: c930 39be 2670 d1be c9e7 16be 23f5 cdbd
00000210: eabb eebd 9a92 4a3d ce5b 0e3c f4fb 88bd
00000220: 07f4 8bbd 4498 353e 6a7b 6cbd 3f72 c0bd
00000230: 840d 56bd 61ba ab3d 7300 f8bc db52 d43c
00000240: 2c40 8fbe 4c85 c5bd 7666 50bc b727 023d
00000250: a461 fe3a 7717 cebc a738 1d3d 60df 80bb
00000260: af6b e93d 4e9b 0a3e b169 04bd a4c9 ddbd
00000270: 13e1 203e 0859 9a3d 1b5e 57be 6b24 2abe
00000280: ab4d 0ebe 12cc 0abc 2195 3d3c 928d 24be
00000290: f645 bcbe 26c6 e53c 78bd d73d 50cb 62bc
000002a0: 3a6b 5ebd 2525 49bd 7ded 043e 5908 edbd
000002b0: d227 b2bc 7db3 d1bc 6116 ddbe 46f4 893c
000002c0: ebc2 3a3d 28c6 c83d e6ab eb3d 86dc 603d
000002d0: b98b 97bd 0090 a23c a8ba 23bb 45b6 833d
000002e0: 83b1 cb3d 3a5c 6dbe c671 eabb 3b70 0b3d
000002f0: 767f ff3d bf26 58bb 29c8 16bd 2915 5a3d
00000300: 698a 473d cad8 26bc 7b79 98bd a569 b73d
00000310: a44c c63c 23cc 21bb b4a5 403d 0f6d 9ebd
00000320: 91f9 463e 8800 213e c13c 993e 2b3a 383e
00000330: 9674 f8bc 24af 1b3e 5ed8 c13d 160b 763e
00000340: be85 493d c4d1 9abd 7fa1 2b3d 12b2 57bc
00000350: 2bb5 f73d e289 b8bd cdce e43d 06bb d2bd
00000360: 5ff1 9f3d 3f28 523d 7e44 4a3d fb51 aebd
00000370: e282 01bf b032 15be 56e4 653d bb75 d23c
00000380: a102 8d3d 5346 523c 71ef 90bd 6dc5 503e
00000390: ec2d e63d 9fd6 dc3d e262 a0bd 2408 0a3d
000003a0: 3b1f d6bd d288 bf3c 9dad 723c 7688 bc3d
000003b0: 6abd 823c 2faa c5bd 7945 963d 6043 0cbe
000003c0: 36fe 72be f91f 22be f269 ab3c fe0a c3bc
000003d0: e5b6 ebbb 24ca 7ebd 4762 fa3d 362c 413e
000003e0: 5dcc ab3d 81a3 a33e 441c 573e 8105 363e
000003f0: 6f09 5e3c 26fd 773e 7299 4fbe a30b eabd

fc1.bias f4 [60]
-0.10331026 0.09602734 0.10915846 -0.022067145 -0.073460825 0.0076634334 0.09011822 0.0048606265
0.06145654 0.06283102 0.012664336 0.12035428 -0.05656463 0.13207677 -0.00094765215 0.11457176
0.01282521 -0.022747489 -0.009369376 0.0142014725 -0.07902828 0.14059912 0.005491753 0.044973668
-0.10595194 0.010632416 -0.03286218 -0.025336234 0.027312424 0.015043234 0.031921074 -0.17766242
0.102782376 0.1307617 0.03718223 -0.045318604 0.031889323 0.104130246 -0.025281707 0.021921717
0.017027754 0.16024671 0.05851163 -0.0004413125 0.2043689 0.07026978 -0.060268797 -0.044589236
-0.011216869 -0.090371646 0.054852627 0.040336344 0.088516615 -0.065634415 0.03959563 0.01124494
-0.07126686 -0.06959793 -0.0450804 -0.036133416
00000000: 5494 d3bd fba9 c43d 788e df3d 28c6 b4bc
00000010: a172 96bd 8a1d fb3b e78f b83d e445 9f3b
00000020: dab9 7b3d 8dad 803d 137e 4f3c 4e7c f63d
00000030: 50b0 67bd 223f 073e dc6b 78ba 99a4 ea3d
00000040: d420 523c f158 babc 0382 19bc 4bad 683c
00000050: 94d9 a1bd 37f9 0f3e 2af4 b33b 4f36 383d
00000060: 55fd d8bd 9633 2e3c 7e9a 06bd ef8d cfbc
00000070: 4ebe df3c e677 763c acbf 023d 23ed 35be
00000080: 917f d23d 65e6 053e 654c 183d 00a0 39bd
00000090: 619e 023d 3d42 d53d 951b cfbc 2c95 b33c
000000a0: ca7d 8b3c b717 243e e4a9 6f3d f65f e7b9
000000b0: 1546 513e 9ae9 8f3d 6adc 76bd 34a3 36bd
000000c0: f5c6 37bc c514 b9bd 26ad 603d b937 253d
000000d0: 3348 b53d 566b 86bd 072f 223d b23c 383c
000000e0: 5cf4 91bd 5c89 8ebd 3aa6 38bd a200 14bd

fc2.weight f4 [16, 60]
-0.06494081 0.05629009 -0.040960226 -0.083342455 0.07651003 0.005008481 -0.09864884 0.05316359
0.052543256 -0.11073078 -0.00735195 -0.10044622 0.033401545 -0.066158116 -0.04522942 -0.11230178
-0.13685688 -0.085813254 -0.10743829 0.04482968 -0.051312357 -0.15935943 -0.11227827 -0.13742647
0.052210186 -0.12775727 0.076119214 -0.018490553 0.101005614 -0.13887209 0.061509356 -0.115582995
0.07021322 -0.0898617 0.013369726 0.10833736 -0.11162859 -0.003895113 -0.10949062 -0.0866015
0.05459726 -0.026063552 0.00806469 -0.04864808 -0.11729376 -0.14729372 -0.08663124 -0.15460083
0.028210364 -0.08899851 -0.01783596 -0.14233144 0.017541612 0.09188424 -0.06415128 0.09814294
0.09156087 0.09547557 -0.16220592 -0.10074144 -0.17016122 0.14687558 0.07251922 -0.01139333
0.09042404 0.055614527 0.19902913 -0.105296254 0.0060417247 0.28005672 0.19570282 0.14141226
0.17680706 -0.18139884 0.23041603 0.11097667 0.18683274 0.14669028 -0.29037684 0.30965948
-0.16095242 0.16186963 0.20963196 -0.0735125 -0.07588634 0.10395236 0.11775487 -0.039036047
0.21802188 0.006970654 0.08527348 0.14468423 0.08197762 -0.0062614093 0.0821721 -0.040296298
-0.15985869 0.04942781 -0.1097068 -0.15799901 -0.41184968 -0.26487717 0.0065739956 0.21179393
-0.1551353 -0.2636115 -0.08541363 0.1318218 0.026096027 0.19842035 -0.49214494 0.10361772
-0.007097294 -0.011111563 0.18573064 -0.003755452 0.04005471 0.14763342 0.1582081 -0.053175896
0.13237162 0.26103 0.0955137 -0.24562259 -0.062934175 0.3212798 -0.00014113687 -0.19865504
-0.06510117 -0.26651922 0.038772363 0.15064731 -0.03382986 0.036955684 0.22436216 0.1478427
-0.09049731 -0.2505503 0.37014934 0.0023897367 0.16803034 0.20503868 0.1360048 0.073721796
0.09034056 -0.23168269 -0.18762909 0.15223722 -0.18426754 0.063986525 -0.05947301 0.06269903
-0.012585414 0.1598143 0.07921942 0.04616779 0.07874728 0.04117903 -0.07147151 0.22663534
0.109323636 -0.18503788 0.24401239 -0.09891729 -0.019851642 -0.13326696 -0.003215314 0.093798
0.28630054 0.18846644 0.0036907156 -0.06664266 0.19834667 -0.00997199 0.3361548 -0.18986423
-0.071018375 -0.08141034 -0.017783407 0.10271162 0.002324753 -0.17432843 0.080371946 0.15036803
0.30000907 -0.23927772 -0.14860316 -0.2924985 0.07649281 0.0722609 0.063776165 0.033385273
-0.13659841 -0.11617623 -0.32231507 -0.08525331 -0.15825617 0.14780167 -0.3034907 -0.05155129
0.04257674 -0.09226801 0.1843752 0.13795336 0.22872141 -0.009337502 0.33033583 0.0849544
0.26128343 0.24160478 0.028798843 0.24298292 0.1104758 -0.19134964 0.07283776 0.029576825
0.11213793 -0.16146995 -0.035839647 0.12952827 0.12200651 0.30085993 -0.057254452 -0.02256374
0.057374332 0.22554886 0.061531033 -0.022643052 0.012210277 0.035692416 -0.052736793 0.18369293
0.08962414 0.026289418 0.057865545 -0.0010344522 -0.18143007 0.24021508 -0.09506571 0.15481405
0.2632725 -0.34049255 0.27695397 -0.26779243 -0.008506452 0.20345739 0.055245902 0.34464127
-0.15113562 -0.36708918 -0.17753248 0.106309794 -0.0012045947 0.017196937 -0.14998856 0.284409
00000000: b0ff 84bd 7090 663d e9c5 27bd 73af aabd
00000010: 4ab1 9c3d 2f1e a43b 6708 cabd 11c2 593d
00000020: 9937 573d d2c6 e2bd a0e8 f0bb bfb6 cdbd
00000030: 0fd0 083d e87d 87bd 7c42 39bd 7afe e5bd
00000040: 3624 0cbe dcbe afbd 9b08 dcbd 549f 373d
00000050: e82c 52bd 1e2f 23be 26f2 e5bd 86b9 0cbe
00000060: 59da 553d cdd2 02be 64e4 9b3d 8079 97bc
00000070: 08dc ce3d 7c34 0ebe 3cf1 7b3d c7b6 ecbd
00000080: f3cb 8f3d 6909 b8bd b20c 5b3c fadf dd3d
00000090: 889d e4bd 2745 7fbb 9e3c e0bd 215c b1bd
000000a0: 60a1 5f3d 3b83 d5bc c321 043c 3643 47bd
000000b0: b637 f0bd 2ad4 16be b86b b1bd ae4f 1ebe
000000c0: 6c19 e73c da44 b6bd b81c 92bc 55bf 11be
000000d0: 6db3 8f3c ce2d bc3d bf61 83bd 2aff c83d
000000e0: 4484 bb3d b288 c33d 4f19 26be 8751 cebd
000000f0: be3e 2ebe 8d66 163e f584 943d 17ab 3abc
00000100: 3d30 b93d 0fcc 633d 4bce 4b3e 90a5 d7bd
00000110: a9f9 c53b 9863 8f3e 5266 483e 60ce 103e
00000120: e90c 353e 9ec0 39be 2ef2 6b3e bd47 e33d
00000130: 1551 3f3e fa35 163e 46ac 94be b08b 9e3e
00000140: b6d0 24be 27c1 253e c3a9 563e b98d 96bd
00000150: 4c6a 9bbd fae4 d43d 7729 f13d 43e4 1fbd
00000160: 2141 5f3e 156a e43b dda3 ae3d 1a28 143e
00000170: e2e3 a73d 822c cdbb d949 a83d bb0d 25bd
00000180: ffb1 23be d174 4a3d f5ad e0bd 7eca 21be
00000190: f6dd d2be fb9d 87be ac6a d73b 82e0 583e
000001a0: cadb 1ebe 16f8 86be 57ed aebd 4bfc 063e
000001b0: 56c7 d53c b42e 4b3e 6cfa fbbe 8735 d43d
000001c0: 6b90 e8bb 460d 36bc 2c30 3e3e 081e 76bb
000001d0: 6810 243d 372d 173e 4e01 223e f8ce 59bd
000001e0: 6d8c 073e b9a5 853e b09c c33d 7d84 7bbe
000001f0: a2e3 80bd c97e a43e 24fe 13b9 3a6c 4bbe
00000200: c353 85bd 3575 88be c5cf 1e3d 4a43 1a3e
00000210: 2e91 0abd d85e 173d 32bf 653e 1464 173e
00000220: a756 b9bd 2148 80be 3784 bd3e 219d 1c3b
00000230: 2510 2c3e a9f5 513e d844 0b3e 74fb 963d
00000240: 7904 b93d 3a3e 6dbe d721 40be 13e4 1b3e
00000250: a1b0 3cbe 5e0b 833d f999 73bd 5968 803d
00000260: 0d33 4ebc 5ca6 233e cb3d a23d 701a 3d3d
00000270: 4146 a13d 58ab 283d a85f 92bd 1813 683e
00000280: 12e5 df3d 927a 3dbe 62de 793e 2695 cabd
00000290: e99f a2bc 2277 08be 04b8 52bb 2a19 c03d
000002a0: fc95 923e 59fd 403e efdf 713b f27b 88bd
000002b0: 641b 4b3e 8f61 23bc 7b1c ac3e c56b 42be
000002c0: 1572 91bd 77ba a6bd 82ae 91bc 785a d23d
000002d0: e25a 183b 2783 32be 0c9a a43d 14fa 193e
000002e0: ca9a 993e 3805 75be 6d2b 18be 5dc2 95be
000002f0: 43a8 9c3d 86fd 933d 149d 823d ffbe 083d
00000300: 74e0 0bbe ceed edbd 7b06 a5be 4a99 aebd
00000310: e80d 22be 5259 173e 2263 9bbe 7227 53bd
00000320: f364 2e3d 03f7 bcbd dacc 3c3e a543 0d3e
00000330: f235 6a3e 52fc 18bc c721 a93e 93fc ad3d
00000340: f1c6 853e 3e67 773e 8deb eb3c 84d0 783e
00000350: 2341 e23d 29f1 43be f72b 953d 194b f23c
00000360: 92a8 e53d 6158 25be 98cc 12bd 0fa3 043e
00000370: 8dde f93d 500a 9a3e a583 6abd 98d7 b8bc
00000380: 5901 6b3d 48f6 663e f707 7c3d ec7d b9bc
00000390: 9d0d 483c 3632 123d 8902 58bd 001a 3c3e
000003a0: dc8c b73d e85c d73c 6c04 6d3d 7596 87ba
000003b0: cec8 39be f1fa 753e d0b1 c2bd 9387 1e3e
000003c0: a7cb 863e 0a55 aebe e9cc 8d3e 171c 89be
000003d0: a55e 0bbc 2257 503e 8749 623d d274 b03e
000003e0: 4cc3 1abe 1df3 bbbe 13cb 35be f3b8 d93d
000003f0: 7ee3 9dba 97e0 8c3c 9a96 19be 0e9e 913e

fc2.bias f4 [16]
-0.09827791 -0.0009845886 0.15159051 -0.0867518 0.097222514 -0.16150503 0.3016295 0.14791986
0.042229448 -0.08167527 -0.005112606 -0.04998175 -0.05542668 0.009232035 0.108939424 -0.06436355
00000000: ee45 c9bd 500d 81ba 8b3a 1b3e edaa b1bd
00000010: 991c c73d 9361 25be 2f6f 9a3e 4e78 173e
00000020: c9f8 2c3d 5d45 a7bd a687 a7bb aab9 4cbd
00000030: 1607 63bd f641 173c a21b df3d 09d1 83bd

fc3.weight f4 [10, 16]
0.15175158 -0.28478733 0.20981681 0.08923335 -0.32575756 -0.028165586 -0.18863834 0.16024533
-0.16344102 -0.023523677 0.012519125 -0.302256 0.2677895 0.20969245 -0.07319804 -0.20455845
0.027048128 -0.21568611 0.26584393 -0.3293013 -0.24567908 -0.032579273 0.28012565 -0.26016954
0.27997196 0.14809006 0.10820716 0.1449339 -0.23948206 0.009024483 -0.38917145 0.289556
0.10115922 0.20703746 0.16489772 -0.100721516 0.05251075 0.19492215 -0.12164054 -0.010962075
0.1525063 -0.18795942 0.12601613 0.12585053 0.23967978 -0.36862785 -0.1028966 -0.2236943
-0.1852195 -0.06004691 0.12912403 0.057787783 0.11324792 0.013542801 -0.2810961 -0.30153415
0.19356212 -0.23086856 0.0788395 0.48035213 -0.24353082 0.10832722 0.009151258 -0.12110439
0.19006635 0.021649 -0.23566361 0.03633102 -0.21998887 -0.13989265 0.3239182 -0.1159807
-0.0099703865 0.099493355 -0.15235028 0.013426497 0.0632035 -0.3233909 0.44369775 -0.5296227
0.17638801 0.3967367 -0.11003393 0.19308668 -0.060168885 0.048122145 -0.17744192 -0.051928554
-0.22946459 0.013344236 -0.2894932 0.0025777589 -0.23757513 0.2432765 -0.20279983 -0.25064376
0.09064925 -0.086575426 -0.34851974 0.11630688 -0.2859101 -0.069275275 0.09810797 0.39548683
0.027110267 -0.24268782 0.07655258 -0.22885722 -0.2248937 0.18940312 -0.1916657 0.10436042
0.0928924 -0.23735917 -0.19672391 0.03446008 0.33632895 -0.034801062 -0.050293032 -0.44919
-0.0170439 0.143064 0.18743017 -0.08624219 0.14465255 -0.12929894 -0.30458397 0.22314388
-0.22444947 0.06296953 0.17939956 -0.09444378 0.20976287 -0.17896561 0.04683364 -0.06105955
-0.2152664 -0.58169335 0.2440037 -0.2733012 -0.21839114 0.21194257 0.015916042 -0.11829008
0.052297834 -0.26796362 0.28412065 0.21282026 0.20664488 -0.17130804 0.16831675 -0.14849843
-0.20912628 -0.073313735 -0.57279027 -0.008855875 -0.016172979 0.039343182 0.16614513 -0.119837955
00000000: c464 1b3e a5cf 91be 38da 563e f9bf b63d
00000010: b2c9 a6be 84bb e6bc 692a 41be 5a17 243e
00000020: 155d 27be bab4 c0bc 041d 4d3c 4cc1 9abe
00000030: b51b 893e 9eb9 563e dbe8 95bd c577 51be
00000040: 0994 dd3c d2dc 5cbe b21c 883e 2e9a a8be
00000050: 4c93 7bbe d871 05bd a16c 8f3e f134 85be
00000060: 7c58 8f3e eca4 173e b79b dd3d 8d69 143e
00000070: c93a 75be 6ddb 133c 7b41 c7be af40 943e
00000080: 912c cf3d a101 543e f3da 283e 1547 cebd
00000090: 8315 573d ac99 473e ad1e f9bd 469a 33bc
000000a0: 9d2a 1c3e 6f78 40be 5f0a 013e f6de 003e
000000b0: 9e6e 753e cabc bcbe 74bb d2bd 1e10 65be
000000c0: 2eaa 3dbe c0f3 75bd 1739 043e e2b2 6c3d
000000d0: 87ee e73d a0e2 5d3c d4eb 8fbe af62 9abe
000000e0: 2635 463e cf68 6cbe 9b76 a13d b7f0 f53e
000000f0: 2560 79be a9da dd3d 28ef 153c 9405 f8bd
00000100: c1a0 423e 3e59 b13c cd51 71be d6cf 143d
00000110: c344 61be 0540 0fbe 9bd8 a53e 4a87 edbd
00000120: d55a 23bc 2cc3 cb3d b601 1cbe cffa 5b3c
00000130: d670 813d 7e93 a5be 5a2c e33e 5a95 07bf
00000140: 0f9f 343e 1321 cb3e 7859 e1bd 84b8 453e
00000150: a673 76bd ba1b 453d 56b3 35be 09b3 54bd
00000160: c4f8 6abe c8a1 5a3c 7438 94be 9eef 283b
00000170: e546 73be 7a1d 793e c2aa 4fbe 6154 80be
00000180: 50a6 b93d 754e b1bd 2e71 b2be 4d32 ee3d
00000190: cf62 92be 32e0 8dbd d5ec c83d 407d ca3e
000001a0: 5a16 de3c 2883 78be 99c7 9c3d 8c59 6abe
000001b0: 894a 66be e4f2 413e 0344 44be eaba d53d
000001c0: 5f3e be3d 480e 73be fe71 49be 0326 0d3d
000001d0: 4f33 ac3e 8f8b 0ebd 1100 4ebd 3bfc e5be
000001e0: a69f 8bbc 5f7f 123e b2ed 3f3e bf9f b0bd
000001f0: cc1f 143e f166 04be 6ef2 9bbe d47f 643e
00000200: 15d6 65be 2bf6 803d 85b4 373e be6b c1bd
00000210: 14cc 563e c342 37be a2d4 3f3d 9419 7abd
00000220: cc6e 5cbe dbe9 14bf 1bdc 793e 23ee 8bbe
00000230: eda1 5fbe 7907 593e 5c62 823c 1242 f2bd
00000240: 4136 563d 8732 89be 4378 913e 8eed 593e
00000250: b79a 533e 606b 2fbe 3a5b 2c3e f90f 18be
00000260: 3325 56be 8325 96bd 62a2 12bf 3b18 11bc
00000270: 327d 84bc 5126 213d f321 2a3e 9a6d f5bd

fc3.bias f4 [10]
0.081904784 0.03151188 -0.23657015 -0.23173328 0.24890308 0.16641296 0.018710226 0.12085667
-0.16899431 -0.09256991
00000000: b2bd a73d 9a12 013d 723f 72be 7d4b 6dbe
00000010: 73e0 7e3e 2968 2a3e 3046 993c b483 f73d
00000020: d80c 2dbe 4b95 bdbd
