project3--CNN-COMPRESS/checkpoints/LeNet5/epoch-6.pth (torch, 243143 bytes, 10 tensors)

conv1.weight f4 [6, 1, 3, 3]
00000000: 3955 c53e f5b5 ad3e 5298 673e 5edd 053e
00000010: f220 4b3e 4789 92bd cd75 f03e 3690 073f
00000020: 39e9 703e bb09 97bc 1201 9f3e 2c10 36be
00000030: 4b7c cd3e a4c3 bd3e bc2e 8a3d 9f8d 1abe
00000040: 3bcd 19be 4b24 51bd f573 3b3f a4ca 513f
00000050: 425a 3a3f 2efb 573f cfc0 663f 6234 173f
00000060: 9b21 0d3f 0277 a13e 8cc0 0fbc 642e 533e
00000070: abf6 be3e 2fd8 d73d 4b17 73bd f74c 68be
00000080: c57e 603d 903a bbbd ecf4 93be 01f4 46bd
00000090: ae64 4b3e 2637 54be 486d 6e3e 99d4 c13e
000000a0: d760 243e 7524 aebe 5c59 76bc e5b8 803d
000000b0: bdf4 9f3e 5cc6 3b3d 810b acbe b815 8bbe
000000c0: 4939 ba3e 4f8f 36be 821b 0f3e 3c04 6a3e
000000d0: 94a1 e93d ed76 c3bd
0.38541582 0.33927885 0.226167 0.13072726 0.19836786 -0.0715509 0.46964875 0.52954423
0.23526467 -0.018437257 0.31055504 -0.17779607 0.4013389 0.37063324 0.06747195 -0.15093087
-0.15019695 -0.051060002 0.7322381 0.8194983 0.7279397 0.84367645 0.9013795 0.59064305
0.551294 0.31536108 -0.008773934 0.20623165 0.37297568 0.105392806 -0.059348386 -0.2268561
0.054808397 -0.09142029 -0.28897798 -0.048572544 0.19862625 -0.20724162 0.23283875 0.37857512
0.16052566 -0.3401219 -0.015035953 0.06285266 0.31241408 0.045843467 -0.33602527 -0.27165008
0.3637183 -0.17828105 0.13975337 0.22853178 0.11407772 -0.09544168

conv1.bias f4 [6]
00000000: f765 06bd 2151 c33d 8607 0f3f 060d 2d3e
00000010: 00da 213e 6a27 5cb9
-0.032812085 0.095369585 0.55870855 0.168995 0.15805817 -0.00020995518

conv2.weight f4 [16, 6, 3, 3]
00000000: c635 24be 345f 463e d3f5 75bd a593 a3bd
00000010: 4584 323e 6b44 ec3b bd6b 0c3e eb1f b73d
00000020: 8bda 263d a46e 4f3d c045 e33d 6ce9 243e
00000030: aa3b 3f3d be4a 023e c73e 843c a2c7 d2bd
00000040: 53aa 923d c41b d23d 881f 89be a5e4 953e
00000050: a926 953d e4dc 5f3d d920 9b3e 9cc6 57be
00000060: 064e 7a3e 7e5d e53d 50e7 8fbe b3f0 09be
00000070: 00dd 1e3d 1841 173e 62a5 ecbd d2bb dbbd
00000080: 3fdb b4bd dbd2 8fbd e487 4dbd a5df 9ebd
00000090: 4cf1 9b3d 9582 a13b 3473 043e 1867 1cbe
000000a0: 5f17 183e 7bc5 50bd 4a2d 15bd e3ba a13d
000000b0: aa5d 913d d701 2abd 5533 b03c 7fce f03d
000000c0: d7e0 8dbd 3fdd dabd 6189 923d 00b8 88bd
000000d0: 810c e0bc 389b 843d c92b bbbb 757c b63d
000000e0: 5784 b6bc 43ea bdbd fd9c f43c 1a6b 4a3e
000000f0: 0d5d e1bd 6e6b 48bd c89e 44bb 1c51 ca3d
00000100: f90d ea3c d044 ac3d d613 09bd 4479 82bd
00000110: 8da3 e0bd 4bc5 a4bd 8366 f8bd b155 d63d
00000120: a47f c1bd 6328 273e 2355 3e3b e5db 343d
00000130: 162b 373e dcad f9bb 8367 82be 36e9 ae3c
00000140: b241 9b3d 6c88 d83c 2a3f 963d f5f4 583c
00000150: 06ff a03b 8cc8 6bbd ac12 fb3d e543 65bc
00000160: 4a34 fcbc 6b36 8cbd 8222 bdbd b2e5 d43b
00000170: 2105 973d 698c ac3d d20c a5bd 3962 a63d
00000180: f483 223d 38ef 2dbd 1d9b b43d 768c 663c
00000190: 4762 ccbd a728 a03d d04a e2bb 88fd f4bd
000001a0: bd0c a93d aa9d 4b3c 67f3 4bbd e43d e4bd
000001b0: 6916 a0bc 3f57 4d3e 4f26 c83d e2ac 05bd
000001c0: 062a d6bb 0485 e6bd b3be 4fbe 622b 103c
000001d0: 9be8 a7bd 768d a1bc 38ed c53d e1c1 32bd
000001e0: 9c09 e03d 9233 7cbd c77a 0a3e 4e9a 473d
000001f0: 7a60 c4bd 6a4c 3cbd 3edb 783e a782 ae3e
00000200: d85f 8f3e 51d3 d6bd bad7 d2bd da65 f63d
00000210: fa99 1fbe 0f0f adbe 4a73 7bbe 0670 903d
00000220: 8d48 ad3d 2636 cabc 6cf9 f939 3df3 033d
00000230: 5c54 9abd d1d9 acbb d864 033e 96c2 8bbd
00000240: 8bc7 b43d f5fa 1b3e 91c8 c23c 4ad7 153d
00000250: eb5a 82bd 8038 97bd 22cf a5bd 78cd 733d
00000260: 542d 9d3d 4eab c4bd e54a 77bd 4317 1dbd
00000270: 9e8b d73d 6884 d7bc 1c7d 01be bcd3 193d
00000280: eede abbc 0be6 d4bd 1fd0 a83a dd10 1d3e
00000290: 54fa a13d f063 ac3d 437a 0bbe 05d2 083d
000002a0: ae6f bbbd 60db 843d 3ba4 acbc a561 cd3d
000002b0: 2ac9 843c 1b6d b3bd 8810 a3bc 7bdb 0bbe
000002c0: 7e90 6abd c35f f3bb 4993 0a3d 94a2 24bd
000002d0: 0254 463e 7e99 d63d 1c1a 5e3d c289 9a3d
000002e0: 1c2c 0cbd 6863 10be 9a99 23be 3688 9abd
000002f0: ff0e 21be 02ad b3bd bfcf 19bd 693e 62bd
00000300: ee02 833d 6413 ddbd 477e a1bd f2a0 d0bd
00000310: 6443 1b3d 1c96 053e 0322 d33d db5d 2e3d
00000320: 3faa 943c 9538 a73c 5b4f c5bd dbce b1bd
00000330: 6713 c53d 1946 393d 5b63 83bd 7e3c e0bd
00000340: 4bad 47bc 3dd6 06be 27ec 89bd 5c2c 6fbd
00000350: dfee d93b a098 6c3d f198 e93c f071 d8bd
00000360: c3b3 e4bd 47b2 333b 726c c73d 15cf bfbd
00000370: eb22 e33c 5243 07be 0b04 d33a 4c4c 8abc
00000380: 0e5d 8bbd e4a0 9b3d a5e6 273e 80f7 bcbc
00000390: b414 233c 3b34 0cbe 5aef 04be 7022 b6bd
000003a0: 190d 30bd 9454 063d 63e3 9c3e 6dc5 b23e
000003b0: 8d50 4e3e a907 71be 58d1 90be 2f0a bfbc
000003c0: 844e 96bd 4dd2 4f3c 9e7e 7aba 999b c2bb
000003d0: f2f9 013e 2f02 78bc 8dbc 843d 67db 0e3e
000003e0: 0495 6d3d 9c22 293d cbf1 39bd 3ca0 54bd
000003f0: 8e54 2c3c bf18 c83d da8e e93c 2916 02be
-0.16036138 0.19372255 -0.06004889 -0.07987145 0.1743327 0.0072103045 0.13712974 0.08941635
0.040735763 0.050642624 0.11097288 0.16104668 0.04668776 0.12723824 0.016143216 -0.10291983
0.07161393 0.10259202 -0.2678187 0.29276004 0.072827645 0.054654017 0.30298498 -0.21071857
0.24443826 0.11199473 -0.28106165 -0.13470726 0.03878498 0.14770925 -0.11554982 -0.10729183
-0.088308804 -0.07022639 -0.050178424 -0.077575006 0.07614383 0.0049288967 0.12934572 -0.15273702
0.14852665 -0.050969582 -0.036420144 0.07896974 0.07097943 -0.04150566 0.021508852 0.11758136
-0.069276504 -0.106867306 0.07155109 -0.0667572 -0.027349712 0.06474918 -0.0057120067 0.08910457
-0.022279901 -0.092731975 0.029860014 0.19767419 -0.11004076 -0.048930578 -0.0030001868 0.09878752
0.028571116 0.084115624 -0.033466183 -0.06370786 -0.10968695 -0.08045443 -0.121289276 0.10465563
-0.09448174 0.16324 0.0029042445 0.04415502 0.1788753 -0.0076196026 -0.25469598 0.021351438
0.0758089 0.026432239 0.07336266 0.013241996 0.0049132137 -0.057564303 0.12259421 -0.013993238
-0.030786652 -0.06846317 -0.092350975 0.0064971084 0.07374025 0.084252186 -0.08059086 0.08124203
0.03967662 -0.042464465 0.08818648 0.014071574 -0.099796824 0.07820254 -0.006905891 -0.1196242
0.08254383 0.012427727 -0.049792673 -0.11144617 -0.019541936 0.20052813 0.09772932 -0.032635577
-0.0065357713 -0.112558395 -0.2028759 0.008799406 -0.08198663 -0.019720774 0.096643865 -0.04364193
0.10939333 -0.06157262 0.13523398 0.04873114 -0.09588714 -0.04597131 0.24302384 0.34084055
0.2800281 -0.10489524 -0.10295053 0.120311454 -0.15586081 -0.3380055 -0.24555698 0.07052617
0.084611036 -0.024684023 0.00047678815 0.032214392 -0.075356215 -0.005274989 0.12831438 -0.06824224
0.08827122 0.15232451 0.023777278 0.03658227 -0.063649975 -0.073838234 -0.08096148 0.059522122
0.07674661 -0.09602986 -0.06037416 -0.038352262 0.10524677 -0.026308253 -0.12645382 0.03755544
-0.020980325 -0.1039544 0.0012879408 0.15338464 0.079090744 0.08417499 -0.13620858 0.033403415
-0.091521606 0.06487155 -0.021074405 0.1002839 0.016209204 -0.087610446 -0.019905344 -0.13657944
-0.057266705 -0.007427187 0.03383187 -0.04019411 0.19367984 0.10478495 0.05422412 0.075458065
-0.034221753 -0.1410042 -0.15976563 -0.075455114 -0.15728377 -0.08773233 -0.037551638 -0.0552353
0.06397043 -0.10794714 -0.078854136 -0.10186948 0.037906066 0.13045543 0.103092216 0.042569976
0.018147586 0.020412723 -0.096342765 -0.08682033 0.09622841 0.045232866 -0.06415435 -0.10949038
-0.012187312 -0.13167663 -0.067344956 -0.058391914 0.00665079 0.057762742 0.028515311 -0.10568607
-0.11167099 0.0027419494 0.09737481 -0.0936567 0.027726611 -0.13209274 0.0016099227 -0.016882084
-0.06804858 0.07599047 0.16396578 -0.023067236 0.0099536665 -0.136918 -0.1298193 -0.08893287
-0.04298124 0.032795504 0.30642232 0.3491625 0.20147915 -0.23538078 -0.28284717 -0.023320286
-0.073391944 0.012684417 -0.00095556106 -0.005938959 0.12693003 -0.015137239 0.06481276 0.13950883
0.05800344 0.04129277 -0.045396607 -0.051910624 0.010518206 0.09770345 0.0285105 -0.12703766

conv2.bias f4 [16]
00000000: 40d2 e7bb aafd b83d e02e b6bd ef5e b8bd
00000010: 950b bcbd fd23 6fbd a19d d63d 7043 54bd
00000020: 0ce2 913d 46ad 9f3d 12c0 7b3d 0829 9e3c
00000030: 5a51 f43d 7ee1 1bbd 449a 7f3d caff ffbc
-0.0070746243 0.090327576 -0.088956594 -0.09002482 -0.091818966 -0.05838393 0.10479284 -0.051822126
0.07123193 0.07796721 0.06146247 0.019306675 0.11929579 -0.038056843 0.06240298 -0.0312499

fc1.weight f4 [120, 400]
00000000: eab5 4a3c f854 813c 3832 35bc b821 313d
00000010: b357 fcbc 1f0f c0bc 643d 093c 3049 9fbc
00000020: 7124 ab3c bbc9 1dbd be3f 60bc f6b5 debc
00000030: 47e7 96bc 7329 963c 76b3 b9bc 37d9 923c
00000040: c8e0 d03d b7b1 ba3d 20d1 753c dfd7 093d
00000050: a4e5 e03c cb29 673c abfb 273d 283c 31bd
00000060: 8cf0 80bd 2394 a23a 56e7 533d c31e 5f3c
00000070: 5649 3b3d 1d56 abbc 6c4b bc3c afbc 1a3c
00000080: 288f 1ebc 43ea 123d 3875 d43c db48 fc3c
00000090: aa4b c6bc d36d aabc 3bfd 753c 5ca2 1fbd
000000a0: 2579 f83c 4bc7 983c 8106 06bd 3681 f43b
000000b0: be6b 03bd 25f4 5b3b d9ff 873c b341 dbbc
000000c0: 9ae7 c5bc 4178 c23c df9b 953c 942e 233d
000000d0: 9564 743b d41c 06bd 1aee 96bb 3af2 0cbd
000000e0: 0036 39bd b0ce 613d 6722 5f3d 949c 4e3d
000000f0: 28f7 00bd 9a67 ff3b ca30 cc3c bbc2 baba
00000100: e78c 4c3d 3f8f ec3c 1df0 94bd e25b 273c
00000110: d7f4 bdbc 392d c53c 29b4 58bd c39f 1a3c
00000120: 40b1 23bc dee0 bb3b 04f9 4f3d 35ca 893c
00000130: f2b0 11bd c783 e83c 3ef9 08bc 5043 a53c
00000140: b473 dbbc 5c28 d3bc 103b 373c 11a1 353d
00000150: af26 2cbd 7eaa a73b 08fc c1ba 9650 2e3d
00000160: 8298 743c eb9a db3c 827f 0fbd 18df 293d
00000170: 0915 da3c 2d31 bcbc 305c 1a3d 5294 a6bc
00000180: 5368 85bc 08e3 023b 199b 45bc a1ce d33c
00000190: ad0b 3cbd 36e4 a0bb 7c29 163c b16f 443d
000001a0: f364 283d 42a8 1f3c 132d 42bd dc97 e6bc
000001b0: 63ec 1b3d 8fd2 bcbc a3e7 50bd e5ae 21bb
000001c0: f6b7 b5bc b982 153d d37d 703c a27c 2a3d
000001d0: 4703 923b 9a3b ea3a 59f1 d8bc c13f 2c3c
000001e0: 7573 033d 7936 9cbd fa72 3a3c e5a3 853c
000001f0: 8d3f 363d 4f21 283d 7b8f 583d a270 46bc
00000200: 50aa 603c 1d59 23bd a41c 50bd d097 65ba
00000210: f478 413d 04e6 453d 2821 91bb f6a9 0fbc
00000220: 5679 443c 5507 363c 20c4 59bd 249c dcbc
00000230: 7f0c b13c 320f 623c 071d 7d3c da0d 0b3d
00000240: 1063 4a3d c343 243d 6116 113b 5dbd 00bd
00000250: d582 08bd 2549 be3c 1b91 523a 1e21 f13c
00000260: e263 33bd d0b6 31bc e610 a6bb 7a15 5fbc
00000270: cb3f 60bc c8ad c9bc 5959 983c 646e 0bbd
00000280: ef6a ccbc 2c5f a43c 8aca 44bc 1ba9 40bd
00000290: 360c e13c afb6 26bd d79d 3c3d fae0 68bc
000002a0: 9748 b7bc 5ca1 1d3d 6d92 853c 78bd cf3c
000002b0: 0a0b 46bb b0de 06bd cfb6 0b3d b5b9 fc3c
000002c0: 6e3f d9ba fa6c 433c 71ed 6cba da83 54bd
000002d0: 010b cabc 7366 743c 27a8 2b3d ccb6 053d
000002e0: c8ca 2d3c c5e5 1c3c 4968 83bc 4270 91bd
000002f0: aa54 8ebc 78de c93b 95ae c9bc c5fc 89bd
00000300: 8904 803b b24f dbbb ea51 ea3c 7602 bdbc
00000310: 5dbb 91bc f606 933d 1984 a13c eb2d 1cbc
00000320: 818d 98bc 9b0f 1f3d 46f0 c5ba 840b 2b3d
00000330: 9811 473c 14e7 d63a bdfb 913c d67c 563d
00000340: 3e73 4abd 8eb4 fc3c ea1b ffbc 2fd1 df3b
00000350: 0ab8 b7bc df4e f2bc d3a7 5f3d a473 d63c
00000360: b21a dbbc bfff 5f3c 4aa8 95bb 5a6a 39bd
00000370: a5b6 6a3d f2b0 1c3d e2b8 33bb 26c2 e3bc
00000380: 22a5 44b8 be72 0fbc 09e1 2a3d 932c da3c
00000390: 9a4f 0a3d 79cc 41bd 579f 283d 1e58 533c
000003a0: 1be1 c03c 788d bbbc 8fc6 27bb dd17 f5bc
000003b0: ebcd a93c 0628 05bd 064e e7bc 9ea5 46bd
000003c0: cd2b 2c3d c1dc f93c ab0f 1bbd 4e8e 32bd
000003d0: d0a3 1b3c 52ab 643c f8c8 49bd 142a 43bd
000003e0: 029b 243d b993 67bb 6251 ae3c a5f1 953c
000003f0: 26df 9dbc addd 293d c6ce 9ebc c569 c73c
0.012372473 0.015787587 -0.011059336 0.043245047 -0.030803537 -0.02344471 0.008376453 -0.019444078
0.0208914 -0.038522463 -0.013687072 -0.027186375 -0.018420829 0.018330311 -0.022668581 0.017925842
0.101991236 0.09115928 0.015003473 0.033653136 0.027453251 0.014109085 0.041011494 -0.04327026
-0.06295881 0.0012403767 0.05173429 0.013618174 0.045724235 -0.020915085 0.022985183 0.0094444
-0.009677686 0.03586794 0.0259348 0.030796459 -0.024206001 -0.020804321 0.015013988 -0.038973197
0.030331204 0.018649718 -0.032721046 0.007461692 -0.032085173 0.003356227 0.01660149 -0.026764726
-0.024158288 0.023738982 0.018262802 0.039839342 0.0037291397 -0.032742336 -0.0046060206 -0.034410693
-0.045217514 0.055128753 0.054476168 0.050442293 -0.031485707 0.0077943327 0.024925608 -0.0014248708
0.049939062 0.028876899 -0.072723605 0.010214778 -0.023188038 0.024069415 -0.05290619 0.009437504
-0.00999099 0.0057335934 0.05077459 0.016820053 -0.03556914 0.028383149 -0.008360205 0.020173699
-0.02678857 -0.02577608 0.011183515 0.044343058 -0.04202908 0.00511676 -0.0014799843 0.04255732
0.014928939 0.02680727 -0.03503371 0.041472524 0.026621358 -0.022972668 0.037685573 -0.020334397
-0.016285097 0.0019971747 -0.012060904 0.025855364 -0.045909572 -0.0049100174 0.009165164 0.04795808
0.041111898 0.009744706 -0.047406267 -0.028148584 0.038067233 -0.02304962 -0.051002156 -0.0024670896
-0.022182446 0.03650162 0.014678436 0.041622765 0.004455957 0.0017870546 -0.026482271 0.010513247
0.03209253 -0.07627577 0.011379952 0.016313503 0.0444942 0.04104739 0.05287121 -0.012111815
0.013712481 -0.039879907 -0.050808564 -0.00087582786 0.04723449 0.048315063 -0.0044290014 -0.008768549
0.011991819 0.0111101465 -0.053165555 -0.026929922 0.021612404 0.013797568 0.015448815 0.033948757
0.04941088 0.040103685 0.0022138583 -0.03143059 -0.033327896 0.023228237 0.00080324867 0.029434737
-0.043796428 -0.010846809 -0.0050679324 -0.01361596 -0.013687084 -0.024618998 0.018597292 -0.034040824
-0.024953334 0.020064913 -0.01201118 -0.04703627 0.027471643 -0.040701564 0.046048965 -0.014213795
-0.02237348 0.038483962 0.016305173 0.0253589 -0.0030218982 -0.032927215 0.034109887 0.03085027
-0.001657469 0.0119278375 -0.0009038067 -0.051883556 -0.02466345 0.014917004 0.04190841 0.03264503
0.010607429 0.009576266 -0.016040938 -0.071014896 -0.017374355 0.0061605535 -0.02461938 -0.06737665
0.0039067906 -0.00669285 0.028603513 -0.023072463 -0.017789537 0.07179062 0.01971631 -0.009532432
-0.018622162 0.038833242 -0.0015101514 0.04175903 0.012150191 0.0016395771 0.017820233 0.052365147
-0.04942631 0.030847814 -0.03114124 0.0068303565 -0.022426624 -0.029578624 0.05460341 0.026178189
-0.026746128 0.013671814 -0.0045671808 -0.04526744 0.05730309 0.038254686 -0.0027423431 -0.027802538
-4.6883833e-05 -0.008755384 0.041718516 0.026632583 0.03376732 -0.04731414 0.041167583 0.012899427
0.023544839 -0.022894606 -0.0025600528 -0.029918605 0.020728072 -0.032508872 -0.028235447 -0.04849779
0.04203396 0.030500771 -0.03785674 -0.043592744 0.009499505 0.013956862 -0.049263924 -0.04764755
0.04018689 -0.0035335852 0.02127904 0.018303702 -0.019271445 0.041471172 -0.019385707 0.024342427

fc1.bias f4 [120]
00000000: 1b64 453d 6390 c53a 0d32 f6bc 2dff 393d
00000010: 2c5d 863b 2666 423d 5ae6 d63c 24cf 8f3c
00000020: c83c df3c 4426 1bbd 8bad afbc 163d d83c
00000030: 4a41 84bc a772 2abb ff3b ed3c 061a e53c
00000040: d41a 20bd a723 633d 438d edbb b569 f4bc
00000050: f1f4 0e3d d2ab 06bc af0e 23bd ab08 313c
00000060: 8500 163c 8e08 fcbc e258 e2bc 0582 fbbc
00000070: cebc ea3c 0947 0d3c aa50 adbc cc28 2a3d
00000080: ba65 203d f2a7 2abd 6be3 003d aedf 503d
00000090: 714e 593d decc ce3c c93a c53c ef86 d73c
000000a0: f3c2 963c 4047 fb3b 996f 0c3d 7445 89bc
000000b0: 218a fdbb 20df 6c3c 32dc e93c a05f b73c
000000c0: 4ff0 26bd 9bc5 20bd 2e39 71bb 2e38 5c3d
000000d0: ff48 43bd d343 173c 5229 613c fe70 c73c
000000e0: 038f 223d 68c9 ffbc ed7c 103d 58cd d7bc
000000f0: 8acd 7b3c 7e1b 2ebd 9b34 fc3b bfab 10bd
00000100: b763 b2bc 650d ec3c 95c2 453d edb9 db3c
00000110: b9f0 d2bc 1345 653b a9c0 e63c 555c 173d
00000120: 8aa1 19bb c444 b23c 8044 e0bc 133c 3a3c
00000130: 1cfc 0ebd 5075 a3bc cd54 453d 6738 00bc
00000140: d500 96bc b630 80bc 4530 28bd 1331 29bd
00000150: 66ce 0dbc 5b7f 2c3d 68f6 3a3d 4319 26bd
00000160: e807 223c 9b6d df3c b26f 09bd 0ef0 31bd
00000170: d4ff 8fbb 779e 313d 4177 d839 aba6 2d3d
00000180: d609 0cbd 88c8 833b 5e89 bc3c 08c4 0fbc
00000190: f5c3 373d c313 3dbc 11a7 ce3c f3a3 66ba
000001a0: 5960 48bc 9003 bb3c 0b21 083d 25d5 953a
000001b0: 8c28 6abc 240c cabc 5aa1 813c c023 efbc
000001c0: f6d6 3c3d faad e63c 2fb9 05bc 0872 03bc
000001d0: aefd 8d3c 610b 9fbc be4d 74bb 18c5 aebc
0.04819117 0.0015072938 -0.030053163 0.04540937 0.0041004624 0.047460698 0.026232887 0.017554827
0.027250662 -0.03787829 -0.021445056 0.026396316 -0.016144414 -0.002600828 0.028959272 0.02796651
-0.039088085 0.055453923 -0.0072495057 -0.029835561 0.034901563 -0.008219676 -0.039808925 0.010805289
0.009155397 -0.030765798 -0.027630273 -0.030701647 0.028654482 0.008622893 -0.021156628 0.041542813
0.039159514 -0.04166407 0.031466883 0.050994568 0.053053323 0.025244173 0.024075883 0.026309459
0.018403506 0.007668406 0.034286115 -0.01675675 -0.0077374135 0.014457494 0.02854738 0.022384465
-0.04075652 -0.03925095 -0.0036807763 0.053764515 -0.047677036 0.009232479 0.013742762 0.024345871
0.039687168 -0.031223968 0.03527539 -0.026343033 0.015368829 -0.042506687 0.0076967007 -0.03532004
-0.021776063 0.02881498 0.04828127 0.026822055 -0.025749551 0.0034983798 0.02816804 0.03695329
-0.0023442232 0.021761306 -0.027376413 0.011366862 -0.0349084 -0.0199534 0.048176575 -0.007825947
-0.018310944 -0.015648227 -0.04106166 -0.041306566 -0.008655166 0.042113643 0.045645148 -0.040551435
0.00988958 0.027273944 -0.033553787 -0.043441825 -0.0043945108 0.043364014 0.00041287582 0.042395275
-0.034189068 0.004021708 0.02301472 -0.008774765 0.044864614 -0.011540356 0.025226148 -0.0008798234
-0.012230002 0.022828847 0.033234637 0.001143132 -0.014291894 -0.024663992 0.015824009 -0.029191852
0.04610344 0.02815913 -0.008161827 -0.008022793 0.017332878 -0.019414606 -0.0037277783 -0.021334216

fc2.weight f4 [84, 120]
00000000: 0ed9 793c 4028 653d 7d81 033e 2842 40bc
00000010: e569 a23d 3d05 8fbd 2aaa 9e3c b353 c3bd
00000020: 5854 a23c 7113 c1bd a8aa 81bd f3b7 b23d
00000030: 4d1f 293d fc5c 903d f72b 633d 19c9 e33d
00000040: 3caa 4e3d e427 8ebd 9827 aebd e84d e83c
00000050: dee8 b2bc cc47 24bc 978d 613b 5874 a4bc
00000060: 68f3 403d 0ff9 91bd 0c3d 2d3b fac2 263d
00000070: 2b4c 343d 49e6 933d 587f 50bc 6bc2 f2bd
00000080: f1a6 b73d ed52 e33d 15a3 a53c 2e8f a0bd
00000090: 47ee 0e3d af96 c33c 4c7d 853d 16f4 33bd
000000a0: d398 9abd df58 1d3d 174e 87bd 83bb 403d
000000b0: f782 e53c 9b3b 873d a8a2 3dbd 53f7 a4bd
000000c0: e026 ccbc c58a 15bd b3f5 76bc c28a 1d3d
000000d0: 48db a4bd 598b 633d 4ecf cf3d 0615 cdbd
000000e0: 54eb 98bc 36c3 803c 22b0 ba3c 7dcb 633c
000000f0: bc92 d7bc 9934 be3d 70ae 7b3d 6199 84bd
00000100: e125 033e fca0 8d3d dc4d bbbd 1d12 09bd
00000110: 3206 07bb bd0d 823d f7bb 1fbd e54a b33d
00000120: 8593 f13d fb3e 9cbb 382e eebd 26e2 783a
00000130: 4ff1 b6bd 4ca6 7dbd 4d50 713c 4db4 68bd
00000140: 02e1 693a f21d 23bd c188 c9bd a68c e83c
00000150: e906 a0bc 9f5a 1bbd a416 023d 6cdf bfbc
00000160: ada1 8bbb 8484 883d b54a c73d 83fb 01bd
00000170: 3b86 a63d 0fbb a73d ca35 893d 4559 ed3c
00000180: 91e8 b73d f7ce 18bd 38f3 1abd d428 133d
00000190: 4967 973d 8311 a43d cec9 1cbd 0d76 d93d
000001a0: 728c 21bd 0035 08bd 10fb 93bd 975a 94bd
000001b0: 34e2 7fbd 734a 06bd a926 6fbd c23d 22bd
000001c0: 59e6 7abd 1333 b93d 92e8 f13c a866 86bc
000001d0: d7d5 0abd 051a 1a3d b3c5 413d 2cb4 153c
000001e0: 0a98 073d 11bf 02bd 9484 46bd fdb7 903d
000001f0: 16ac 5fbd 1822 8cbc 3b0f b5bd 2115 e43c
00000200: 461e 813c 6238 123b c146 d5bc 9b43 4ebb
00000210: 9d4e 7d3d 9ab3 c4bb a8bf deba 7fc1 30bc
00000220: f4d6 083b c027 1abd 2e15 3b3d 741a 10bc
00000230: 8208 973d abd6 80bd f8c0 86bc e4e9 9abd
00000240: 2051 fe3c afe7 b3bd f642 783d 46b4 69bd
00000250: d827 953d 6b85 1ebc a86f b3bd 7cd0 b8bd
00000260: 6dc2 d6bc f3bd c13d de99 463c 261d c13c
00000270: b242 39bd a5c9 0fbc 7381 803d c174 623d
00000280: afcc 72bc c694 78bd aab8 a73b fd30 1fbd
00000290: 30fd b03c 1045 ecbc 5fdc 483d dc81 363d
000002a0: 6bad febc dedb 1c3d 3fcf 813d c18d af3d
000002b0: 6feb 8f3d 61d5 cc3d 48a4 833c 83e1 66bc
000002c0: c69f a4bd f7dd 85bd 22ee 743d 87ae 0fbd
000002d0: 613d 8ebd f3b0 9ebd 208d 183d 47bc 6d3d
000002e0: dbcf c4bc 0f02 d3ba 8dab b03d ecc2 0ebb
000002f0: c880 5cbd d54c 11bd 8c9c 983d c094 babc
00000300: ce09 2cbd 690c 883c dc1f c13d 96c0 8bbd
00000310: 2d77 2fbd 5504 e13c a2b6 ef3a 7df8 adbd
00000320: 845f 37bd ac45 3d3c 0872 6c3b e035 993d
00000330: a41b 18bd 2fc8 2b3c 7b9e abbd c5a6 c53c
00000340: 4840 c73d 8186 983d 63b4 95bd 2551 3c3d
00000350: 6b4b 0fbd 1d36 52bd aafc aebd 506a 84bd
00000360: 265d ad3d 7a0b b2bd ae4d 67bb 2e72 2abd
00000370: e457 a8bd fa7a 5fbd 3d6d 92bd 888b 97bd
00000380: 5545 9bbc 0a50 ec3c a9e2 73bc 7aae d23c
00000390: d4d6 3e3d dddf 3eb9 00d4 e23c 99e1 92bb
000003a0: 5e6d d8bc d6ac 753d 5b7b bab8 8a1e 7ebd
000003b0: 68c2 7bbd ffa5 5fbd 9dda b43d 7583 efbc
000003c0: 93ab 6ebd e443 923b 9040 903d 3407 aa3d
000003d0: a6d6 d13b 9fc0 dd3d 26eb 173d e203 1c3e
000003e0: 616b a63d f796 553d bae0 33bd 53d4 073e
000003f0: da22 7b3d 1af1 773d 86a6 da3c 8189 95bc
0.015249504 0.05594659 0.12842365 -0.011734523 0.07930354 -0.06983421 0.01936825 -0.09537449
0.019815609 -0.09427536 -0.06331378 0.08726492 0.041289616 0.07048985 0.05546185 0.11122341
0.050455317 -0.06941202 -0.08503646 0.028357461 -0.021839555 -0.010026883 0.003441667 -0.020075008
0.04710713 -0.07127582 0.0026434092 0.040713288 0.044017952 0.07221658 -0.012725674 -0.118534885
0.089673884 0.11099801 0.020219365 -0.07839809 0.034895208 0.023875562 0.06518039 -0.04393395
-0.0754868 0.038414832 -0.06606691 0.047053825 0.02801655 0.06603166 -0.0462977 -0.08054986
-0.02492088 -0.036509294 -0.015073228 0.038462408 -0.08049637 0.055552814 0.10146962 -0.100137755
-0.0186669 0.015718084 0.022789065 0.013903496 -0.026315086 0.09287376 0.061445653 -0.06474567
0.12807418 0.06915471 -0.0914571 -0.03346454 -0.0020603058 0.063502766 -0.038997617 0.087545194
0.11795715 -0.00476825 -0.11629909 0.0009494148 -0.08932745 -0.06192617 0.014728618 -0.056812573
0.00089217734 -0.03982348 -0.09840537 0.028387379 -0.019534545 -0.03792822 0.031759873 -0.023421966
-0.0042612166 0.066659 0.09731046 -0.031734 0.08131071 0.081899755 0.066997126 0.028973231
0.089799054 -0.037306752 -0.037829608 0.03592761 0.07392747 0.080111526 -0.038278393 0.106182195
-0.03944058 -0.03325367 -0.07225621 -0.07243841 -0.062471583 -0.032785844 -0.05838648 -0.039609678
-0.061254833 0.09042945 0.029529843 -0.016406372 -0.03389534 0.03762247 0.04730768 0.009137195
0.03310398 -0.031920496 -0.04846628 0.07066343 -0.054607473 -0.0171061 -0.088407956 0.027842106
0.015761506 0.0022311439 -0.026034715 -0.0031473401 0.06184255 -0.0060028555 -0.0016994374 -0.010788321
0.0020880075 -0.037635565 0.045674495 -0.008795369 0.073746696 -0.06290945 -0.016449437 -0.07564142
0.031044543 -0.087844245 0.060610734 -0.057056688 0.0728299 -0.009675364 -0.08761531 -0.0902414
-0.026215756 0.09460058 0.012121646 0.02357347 -0.04522962 -0.008776103 0.062746905 0.055287126
-0.014819308 -0.060688756 0.005118449 -0.03886508 0.021605104 -0.028841525 0.049038287 0.044557437
-0.031088552 0.03829562 0.06338357 0.08571959 0.07027327 0.10001636 0.016069546 -0.014091852
-0.08038287 -0.06536477 0.059797414 -0.03507855 -0.06945301 -0.07748594 0.037243962 0.058040883
-0.024024894 -0.0016098636 0.08626471 -0.0021783663 -0.053833753 -0.035473663 0.07451734 -0.022776008
-0.042001538 0.01660748 0.09429905 -0.06823842 -0.042838264 0.027467886 0.0018288682 -0.08494661
-0.044768825 0.011552256 0.003607871 0.07480979 -0.037135735 0.010484739 -0.08379837 0.024127373
0.097290576 0.074475296 -0.07309797 0.045975823 -0.034984034 -0.051321138 -0.085442856 -0.0646559
0.08465032 -0.08693595 -0.0035294103 -0.041612796 -0.08219889 -0.05456064 -0.07149742 -0.0739966
-0.018953959 0.02884676 -0.014885583 0.025717963 0.046591595 -0.00018203208 0.02768898 -0.0044824597
-0.026419338 0.059979282 -8.892148e-05 -0.062040843 -0.061464697 -0.054601666 0.0883076 -0.029237488
-0.058269095 0.0044636596 0.07043564 0.08302155 0.006403762 0.10827755 0.03708949 0.15235856
0.0812595 0.052145924 -0.043915488 0.13264589 0.061312534 0.060532667 0.026690733 -0.018254044

fc2.bias f4 [84]
00000000: 2a9b 48bc bc76 8e3d 6575 9c3b 976f 1d3d
00000010: f853 903c 8c59 813d c701 6f3c 8db9 763d
00000020: 87eb b2bd b3a2 19bd d066 573d 4376 1a3d
00000030: 3aee 293d 69d6 633b 03cb dc3c 224e b5bd
00000040: c4d0 17bd 0cf7 573c 11d3 533d 7dac 5d3d
00000050: 15b4 10bc f8d0 153d 20bc 5dbd 2ff9 11bc
00000060: c997 49bc 206a 1abd 9f75 e0ba d1a3 d13d
00000070: a7b5 ce3d 46e2 ed3c 4c3b 433c ff79 4dbc
00000080: 5d5c e8bc 64c4 2c3d 21ea 5dbd ca01 8a3b
00000090: 479f c3bc 7683 bebc 5489 10bd e762 9c3d
000000a0: 1f49 893c 9305 d7bc a047 0d3d 070b 9abd
000000b0: cc1e 473d ff9f b2bc f584 74bd aa36 3ebc
000000c0: eef8 a13c d29a 71bc 41ba d6bc d79b 3d3d
000000d0: 5719 52bc 9e77 323d 9ad3 84bd 79bf a7bd
000000e0: 521e 18bd 227b 9e3d 28ab 473d 882b 503d
000000f0: 1133 91bd e6c7 473d ed9d 023d edcb 4ebd
00000100: 222b bd3d c25c 1c3b a564 b73b 928d bc3d
00000110: 39f2 743d c786 8f3d 4808 9dbd f547 8dbd
00000120: 1a71 a9bd ce95 aebd d89f a73c 6953 0c3d
00000130: ef9b 9b3b 4dfa 303d 66b1 c33c 3355 dfbb
00000140: f64b c33b e07e 193d 3096 88bd 4f7e 213c
-0.012244025 0.069562405 0.0047747367 0.0384365 0.017618164 0.06315908 0.014587826 0.06023555
-0.087363295 -0.037508678 0.052588284 0.03771044 0.041486956 0.003476525 0.026952272 -0.08852793
-0.03706433 0.013181459 0.05171496 0.054119576 -0.008831997 0.03657624 -0.054134488 -0.008909508
-0.012304255 -0.037698865 -0.0017124898 0.102363236 0.10093241 0.02903856 0.011915993 -0.012541293
-0.028364355 0.04217948 -0.05417836 0.004211639 -0.02387966 -0.023256045 -0.035287216 0.076360516
0.0167585 -0.026247775 0.034492135 -0.075216345 0.048613355 -0.021804808 -0.05969711 -0.011609713
0.01977202 -0.014746385 -0.02621186 0.0462912 -0.012823424 0.043571107 -0.06485672 -0.081908174
-0.03713829 0.077383295 0.04874721 0.050822765 -0.07089818 0.048774622 0.03188889 -0.050487448
0.092367426 0.0023859 0.0055967146 0.0920669 0.059801314 0.070081286 -0.07667595 -0.0689849
-0.082735255 -0.08524667 0.020461962 0.034259234 0.0047488133 0.043207455 0.023888301 -0.0068155765
0.005959983 0.037474513 -0.06669271 0.0098567745

fc3.weight f4 [10, 84]
00000000: 2651 20bd edae d43d fd77 95be 595a ee3d
00000010: a9e2 d5bb 6345 debd f7b2 2c3e 27a1 05be
00000020: 0e0e cc3c 0dcf 07be e4e4 56bc c124 223d
00000030: 5fcf 4a3c fa17 923d 68d3 12be eb72 db38
00000040: 3156 6fba f091 2ebe 8ef7 483d 450b 8cbc
00000050: 9e59 a53b 7619 eebd 9994 dabd 442e 4a3c
00000060: aa36 f33c 42cc 943d a70c 113d 1ec1 f5bd
00000070: 50b3 10be 0e75 70be a34a 363d fbf1 28be
00000080: fbac c1bd a599 d83d fe78 8abb 517c afbd
00000090: ef0f 67bc d244 8bbd 7fa8 d6bd 6b6b 62bd
000000a0: 2914 73bd d332 9dbd 9773 80bc 3040 d6bd
000000b0: 990d fbbd c1e3 debd aed9 073e 4a98 223e
000000c0: c5b3 a73d 4eb7 1e3d fb7d 993a ddd1 1abd
000000d0: 9bcc d5bd a64e a53d 329f 98bd c42a 9d3d
000000e0: 83d8 26bd b0e0 3d3d 8ca0 b73d a6c3 4f3d
000000f0: c71b 933d 7cb6 8bbd 73ff 303e ec32 113e
00000100: 9d91 0c3c 1c73 6a3d b69c 6f3d a58c de3d
00000110: e90d f5bd 2e12 06bb ed3b e9bd 5775 babd
00000120: 013e 333e 3af0 363e ee05 d43d 77b7 193e
00000130: f553 d73d 7af1 913d 3682 503e dbe0 43bc
00000140: 9dcd 223e 273b 843d ea20 573d 3998 1b3e
00000150: 8dda c23d ace2 34bd 071c 023e 9fec 853c
00000160: 337d cebd 3e56 87bd 4769 a83d 8738 ae3d
00000170: 27ed 0e3e 933f 103e 639d 163c 29bd 09be
00000180: cf32 34be d19a f0bc 22b3 143e 2b29 843d
00000190: be24 533e 24cd 373c b9e6 b13d 55f7 bf3d
000001a0: d418 d63d 3768 eb3d bc1a e33d 6259 1b3c
000001b0: 89ce b2bd b3e9 8abd b5b2 18be dc90 363d
000001c0: f295 8abd f37d 08be 96f8 10be 115d 8dbc
000001d0: 40f8 47be 1691 97bd 76d6 9abd 05f1 00be
000001e0: c33a 703c 01bf 583d 11f8 cd3d f5c1 d53d
000001f0: 0ba3 6ebd 1604 953d f773 6fbd a637 16be
00000200: 06d1 ccbd 873e 753e fcc2 ae3c b97e fe3c
00000210: 1bfd 4d3e ea09 a5bd 41e0 84be 84d1 123d
00000220: 8d73 b53c ceb9 c2bd 2a32 55bd 6b02 cf3d
00000230: b70a 92bd 22a7 013e 17d5 a03c 7325 4bbd
00000240: 02fc 1dbd a516 19be bba3 013d 4df3 d0bc
00000250: 0b23 f93d d658 153e a0a2 80bd 8c92 523d
00000260: 6935 d83c 80a2 12be 85e5 9ebd a1c0 a4bd
00000270: febe cdbd 0945 83bd 7f71 31bc 04a4 9f3d
00000280: a502 8cbe a6d1 8f3d 24da e4bd 57b5 cfba
00000290: 89ee 263d 7a50 ce3c 062b 7c3e f13b a23d
000002a0: 2b25 483e efe4 b13d 3dd4 d43d 631c 483e
000002b0: 2f19 ac3d 28bf 1f3d d7df e53c 5d25 c8bd
000002c0: 6855 fc3a bff7 923d 3298 1ebc 85d5 f13c
000002d0: 618a 6e3d 4153 f3bd e400 023e 0ed8 843d
000002e0: 8f9c 0e3d ff65 123c 2627 bb3d f147 573d
000002f0: 7b61 8fbd 863f 86be 256a e2bd e25f d2bd
00000300: e976 9a3d 25a8 e73d 0dce 823e e30a e5bd
00000310: e83b fb3d 2558 e9bd 0f18 ebbd adb9 50be
00000320: b97f 9fbd f9e6 adbd 9c94 6b3d e1d2 0fbe
00000330: 629f 8bbd 7458 4f3d 90ba b03c 2fb5 d5bc
00000340: f8e4 383e 5d4c 1bbe c453 41bc c118 56bd
00000350: a7b2 3c3e daad 9b3d 4de4 a63d 4275 de3c
00000360: 4080 653e 1152 a3bd c1c3 e83d 5706 9bbd
00000370: bcce cebd 6916 df3d 7e0d 28be 03bc 083e
00000380: 37b0 a6bd 8475 b2bc c103 863d 4b54 e6bc
00000390: ae0b d2bd ac94 8c3d 1027 73be 3402 6dbd
000003a0: bb88 0e3d 8a69 6c3d 279b 113d 846d 94bd
000003b0: d7b9 66ba 955f e83c de3d 1dbd b3ce 1d3c
000003c0: aa96 1a3d f8d2 ec3d 0190 403d 991c d33d
000003d0: 7639 21be 8361 a5bd 1e40 1f3e 821d 15be
000003e0: a742 4fbd aa75 25be bb18 843d 6832 893c
000003f0: f23d 8ebd a4c6 c53d 954b 0c3e 241f 1e3e
-0.03913989 0.10384927 -0.29193106 0.11638326 -0.006527264 -0.10853078 0.16865145 -0.13049756
0.024909046 -0.13262577 -0.013116095 0.039585833 0.012378543 0.071334794 -0.14338458 0.00010464139
-0.000912997 -0.17047858 0.04906421 -0.017095217 0.0050460836 -0.1162595 -0.10672874 0.012340132
0.029689152 0.072655216 0.035412457 -0.11999725 -0.14130902 -0.23482153 0.044504773 -0.16498558
-0.094568215 0.1057618 -0.004225849 -0.08568633 -0.01410292 -0.06800236 -0.10481357 -0.055278223
-0.059345398 -0.076757096 -0.015680118 -0.104614615 -0.12258453 -0.10883284 0.13266632 0.15878406
0.08188585 0.03874903 0.0011710519 -0.037797797 -0.10439416 0.080716416 -0.07452239 0.076741725
-0.040733825 0.046356857 0.08966169 0.050723694 0.071830325 -0.068219155 0.17284946 0.14179581
0.008579639 0.057238683 0.05849906 0.108666696 -0.11965544 -0.0020457613 -0.11388383 -0.09104412
0.17504121 0.17865077 0.103526935 0.15011393 0.105140604 0.07126136 0.20362172 -0.011955465
0.15898748 0.06456595 0.052521624 0.15194787 0.095143415 -0.044161484 0.12706004 0.016348181
-0.100824736 -0.06608246 0.08223205 0.085068755 0.13957654 0.14086752 0.009192797 -0.13451065
-0.17597507 -0.029370697 0.14521459 0.06453165 0.20619485 0.011218343 0.08686585 0.09373347
0.10453954 0.11494487 0.110890836 0.00948176 -0.087308 -0.06782856 -0.14911921 0.044571742
-0.06766881 -0.13329296 -0.14157328 -0.017256292 -0.19528294 -0.0740072 -0.075604364 -0.12591942
0.014662447 0.05291653 0.100570805 0.10437385 -0.05826096 0.0727617 -0.058460202 -0.14669666
-0.100008056 0.23949634 0.02133321 0.031066285 0.20116083 -0.080585316 -0.25952342 0.03584434
0.022149825 -0.09508096 -0.052049793 0.10107883 -0.0713095 0.12661412 0.01963286 -0.04959626
-0.03857041 -0.14950044 0.031650286 -0.02550664 0.12164887 0.1458467 -0.06281018 0.05140929
0.026392655 -0.14319801 -0.07758621 -0.080445535 -0.100461945 -0.06409652 -0.010830282 0.077949554
-0.27345768 0.07022409 -0.111744195 -0.001584689 0.04075483 0.025184859 0.24625787 0.07921589
0.19545428 0.08686244 0.10392044 0.19542079 0.08403241 0.03900066 0.028060837 -0.097727515
0.0019251527 0.0717616 -0.009679841 0.02952076 0.058237437 -0.11881114 0.12695652 0.06486522
0.034817275 0.008935451 0.09138326 0.052558843 -0.07001015 -0.2622034 -0.11055402 -0.102721944
0.075422116 0.11311368 0.2554783 -0.11183717 0.122672856 -0.11393765 -0.11479198 -0.2038333
-0.07788033 -0.0849132 0.05751477 -0.14045288 -0.06817509 0.050621465 0.021573335 -0.026087372
0.18056095 -0.15165849 -0.011799756 -0.0522697 0.18427525 0.07601519 0.08149014 0.027155522
0.22412205 -0.07974637 0.11365462 -0.075695686 -0.10098025 0.10892946 -0.16411397 0.13352971
-0.08139079 -0.021784551 0.06543685 -0.028116366 -0.10256134 0.068642944 -0.2374537 -0.05786343
0.034798365 0.057717837 0.035548355 -0.07247451 -0.0008801496 0.02836589 -0.03838908 0.0096318
0.03774134 0.115636766 0.047012333 0.10308189 -0.15744576 -0.080752395 0.15551803 -0.14562038
-0.050600674 -0.16158167 0.064500295 0.016747668 -0.06945409 0.09657028 0.13700707 0.15441567

fc3.bias f4 [10]
00000000: 7ac8 e4bd 2a68 74bd 8845 f03c 9730 8b3c
00000010: e1bf 60bd dfc9 35bd d553 3f3d 5da8 533b
00000020: bbd5 86bd 0bca bebc
-0.1117105 -0.05966965 0.02933003 0.016990943 -0.05487049 -0.044381972 0.046710808 0.0032296397
-0.065837346 -0.023289701
