project3--CNN-COMPRESS/checkpoints/LeNet5/epoch-8.pth (torch, 56583 bytes, 10 tensors)

conv1.weight f4 [3, 1, 3, 3]
00000000: 9b99 9ebe cfaa 0cbf aeff 0e3e b123 c53e
00000010: 66fe 4e3e 5cb9 c03e 0c38 1c3f 624a 773f
00000020: 3e1d a23e a6fe 43bf 0bab f9be c8a3 0ebf
00000030: 3fef 8abe d436 adbe e615 f2be 0f2d 79bd
00000040: 9438 1e3f 49d3 e43e 87da 013f 71e6 eb3e
00000050: 5c04 a43e 143d 823d 9aea 1c3f 7e3f 3d3f
00000060: a496 27be 0998 9b3e d587 533e
-0.30976567 -0.54948133 0.13964722 0.38503793 0.20214233 0.37641418 0.6102302 0.96597874
0.31662935 -0.7656044 -0.48763308 -0.5571866 -0.27135655 -0.33830893 -0.47282332 -0.060833987
0.6180508 0.44692448 0.5072407 0.4607425 0.32034576 0.06359306 0.61295474 0.73925006
-0.16366059 0.3038943 0.20657285

conv1.bias f4 [3]
00000000: f14e 693f e6de 2a3f 66f8 303f
0.9113608 0.66746366 0.69129026

conv2.weight f4 [8, 3, 3, 3]
00000000: 4f36 08be 979a adbc dabc 083d 3cab 163c
00000010: 77b4 0f3e 78e8 cebe 047c 923e f264 6cbe
00000020: 4a0a 0cbf 06a2 383e a06d 03be b036 b1be
00000030: f9bb 273d f7c3 97be e9f5 1fbe 883f 98be
00000040: 5a73 c1bd 2a2f 18bd dd3a 903d de3d 4d3d
00000050: 6dd7 9b3e 875c 2f3e 8b3f b33e 7ea2 66bd
00000060: d076 1a3e c4dc 1e3e dd70 a2be 063a 5d3d
00000070: 575d cf3d 8a85 5fbe 5fd5 58bd 56e2 f83d
00000080: e409 e03d be9b 2f3e 68eb 66be 887a 623e
00000090: bb5e 34bc f494 f5bd bf76 86bd 1b46 c6bd
000000a0: e115 17bf 0aaa c2bd d29c 023e b8d2 0cbf
000000b0: b0b3 92be a16c bbbd 7839 023d 881a 95be
000000c0: 1994 933d 534d ac3e 66e0 d7be d180 b1be
000000d0: b18a bf3e a3b4 b13e 0ed6 c5be f536 d3be
000000e0: b702 a13e bc12 e63e 6640 8ebe 16d3 a0be
000000f0: f3b6 b13e bfec 483c ae89 d9bc 25ac 983b
00000100: 58ff 12be 6182 c1bd 4161 473e d963 7a3d
00000110: 94ca 623e e7fc 87be c5ac b33c ab24 25bb
00000120: d72b 90be b88a e1bd 5209 3c3e 5556 0ebe
00000130: 5ca5 12bf 672d 93bc 9ace 893e 4771 3cbe
00000140: d728 4cbd b596 e8bc 4a19 f43d 88ef 223e
00000150: 23a5 c2be 770d b0be ecc5 bf3d 66c6 683c
00000160: 3dcb 24be 14f3 90be caec 80be c260 d3be
00000170: cf58 e43c cc7f 3f3d 18e7 9ebe 7eaa 66be
00000180: 27e1 ad3e a448 10bc a281 e33d bc51 563e
00000190: 5da8 573e c326 11bd 8650 b3bd f504 c33e
000001a0: da8f a93e caa3 cdbe 4c5b 7cbe c712 543e
000001b0: 3221 4f3e a848 2f3e 9783 c03e aa6a 83bd
000001c0: 607f 2d3e 5ec5 bd3d 671f d6be b5f2 06bf
000001d0: 5982 3fbe bfa0 33bc 32c9 a7bd e91a 963e
000001e0: 4e71 c4be 10b0 3dbe 5865 6bbe dfd3 d13d
000001f0: 83f8 233e 1e86 a93e e3e0 56be 2188 67be
00000200: ef60 59be 2264 9c3e 81da 743e f357 9f3e
00000210: 9043 2abe 61f5 583d 4061 aebe 37e8 403d
00000220: 8828 b0be 7c62 2d3e a235 37be 2afa 0e3e
00000230: e3e3 283e 908d 18be 9195 ad3e ecc6 873e
00000240: 4d3d 463e c206 3d3e b38f b8be 7ea3 c03d
00000250: 8ec4 e7bc 6767 2ebf 9bb4 953d dc37 0c3d
00000260: 4481 49bf 3c4c 7a3d 93df 30bd 4596 8f3e
00000270: 147a 90be 5ce4 58be c72b 9e3e cc7a b4be
00000280: 8052 58bd 77e5 ea3d dbf4 08bf adf2 b1be
00000290: 46aa a1be dbe0 e2bd 355b c6bd 5d73 bd3d
000002a0: c1fd a03e 4259 a93e 0d88 723e 162a db3c
000002b0: 4e51 1dbe 1789 8cbe 629e d6bd a1d0 2a3e
000002c0: 7db6 ab3e 0c6d 023d 07f5 23be 7c56 22bd
000002d0: 491d b8be 51aa 5b3e 4823 59bd b27f babe
000002e0: 602a 97be 4718 87be dce6 f33d 2eeb 863e
000002f0: b048 433e 32de 07be a53f a9bd 93c8 a53d
00000300: 5268 a33e 8489 b03e 32da cf3d ee1e 353e
00000310: 8777 cbbd feea 993d 8026 21bd 4dca d13b
00000320: 1214 163e 8cb3 cf3d cf2a 533c f741 69be
00000330: 66c3 32be c21b 81be 646f 6fbe 8d35 29be
00000340: 25ce 85be bc60 b7bc d45f 3ebd 7d8b 22be
00000350: 3330 6a3d f628 163e 7bd2 d23d bef8 97bd
-0.13301967 -0.021191878 0.033383228 0.009196099 0.14033686 -0.40411735 0.2861024 -0.23085383
-0.547032 0.18030557 -0.12834787 -0.34612036 0.04095075 -0.29641697 -0.15621151 -0.2973597
-0.0944583 -0.037154354 0.07042477 0.05010783 0.30437794 0.1712514 0.35009417 -0.05630731
0.15084386 0.15513903 -0.31726733 0.054010414 0.10125225 -0.21828285 -0.05293786 0.12152545
0.109393865 0.17149255 -0.22550738 0.22117054 -0.011008914 -0.11991301 -0.06565618 -0.0968134
-0.5901776 -0.095050886 0.12755135 -0.5500903 -0.28652716 -0.09151579 0.031793088 -0.29121804
0.07205982 0.33652744 -0.4216339 -0.34668592 0.374105 0.34708127 -0.38639873 -0.41252866
0.31447384 0.44936168 -0.27783507 -0.31411046 0.34709892 0.012263476 -0.026554909 0.004659193
-0.14355218 -0.09448696 0.19470693 0.06113038 0.2214759 -0.26560137 0.021932969 -0.0025198858
-0.28158447 -0.110127866 0.1836293 -0.1390012 -0.5728357 -0.017965985 0.26915437 -0.18402587
-0.049843635 -0.028392175 0.11918886 0.15911686 -0.38016614 -0.34385273 0.093639225 0.014207458
-0.16093154 -0.28310454 -0.25180656 -0.41284758 0.027874378 0.046752736 -0.31035686 -0.22525975
0.3396084 -0.008806381 0.1110871 0.20929617 0.21060319 -0.035437357 -0.08755593 0.3808972
0.33117563 -0.40164024 -0.24644202 0.20710288 0.20227507 0.1711756 0.37600395 -0.06416829
0.16943121 0.092661604 -0.41820833 -0.5271409 -0.18702067 -0.010963618 -0.08192672 0.29317406
-0.38367695 -0.18524194 -0.22987878 0.10245489 0.16012768 0.33110136 -0.20984225 -0.22610523
-0.21228383 0.30545145 0.23911478 0.31121787 -0.16627336 0.052968387 -0.3405857 0.047096457
-0.34405923 0.169321 -0.17891553 0.13962618 0.16493182 -0.14897752 0.33903173 0.26518953
0.19359322 0.18459609 -0.36047134 0.09406184 -0.028291967 -0.6812653 0.073098384 0.03423296
-0.7871287 0.06110786 -0.043181967 0.28044334 -0.28218138 -0.21180862 0.30892774 -0.35249937
-0.052813053 0.11469548 -0.5349862 -0.3475546 -0.3157522 -0.11078044 -0.09685365 0.092505194
0.314436 0.3307591 0.23684712 0.026753467 -0.15363047 -0.2744834 -0.10479428 0.16681148
0.33537665 0.031842276 -0.1601144 -0.03963326 -0.35959843 0.2145169 -0.053012162 -0.3642555
-0.29524517 -0.2638571 0.11909267 0.26351303 0.19070697 -0.13268355 -0.08264092 0.08094897
0.31915528 0.34479916 0.10149039 0.1768758 -0.099349074 0.07515524 -0.039343357 0.00640229
0.14656094 0.10141668 0.012888624 -0.2277907 -0.17457351 -0.2521649 -0.23382336 -0.16524334
-0.26133838 -0.022384994 -0.046478108 -0.15873523 0.057174873 0.14664063 0.10294052 -0.07420491

conv2.bias f4 [8]
00000000: 48dc 283e 975a 153e 58eb cd3c daa3 14be
00000010: 9f3f a4bc 1a44 f13d 5036 1d3d 842d 3d3d
0.1649028 0.14585339 0.025136635 -0.1451563 -0.020049868 0.117805675 0.038381875 0.046185985

fc1.weight f4 [60, 200]
00000000: 2cbf 97bd 1961 7dbe 7696 cebd c0db 2cbd
00000010: fb7a a13d 31e7 0d3d ae05 90bc 8b45 2ebe
00000020: 49e2 823d 18ec 263d 5ded 40bd 3ea0 b43c
00000030: d50a 7abc 062d 393e fcbf ee3d 2fa8 f8bd
00000040: 3b94 1abe 048e 73bd 9497 82bd ac76 94bc
00000050: b334 f4bd a163 a4bd 8e9e 633d 553a a33d
00000060: 1b00 e7bd c18f 193e f1d4 6a3d adfe 05bd
00000070: b468 223e 53f7 d2bd 03d7 e63c e64f a4bd
00000080: a086 a8bd fdb1 e93c 64bb 3c3e 0311 77be
00000090: 3875 0e3d 595b dc3c 9fa5 06bd 119b 80be
000000a0: 6f04 1bbd 5eb8 4d3d 0ee0 193d b39f cd3d
000000b0: f227 6b3c 7e92 be3b 718b 53bd 6ea0 be3d
000000c0: bbd5 0abd bb0c 02bd 4062 953d 27a7 21be
000000d0: 7157 c0be 4fde 81be af28 393e c4e7 413e
000000e0: 90ef 57bd b058 a9be bd3e 08be 15f8 30bd
000000f0: 33d3 e63d 0424 5a3e 036e 73be 4936 1fbe
00000100: 8028 633d b096 db3e 0165 043e 86c6 0dbd
00000110: ddf7 06be d481 853e 2a22 3dbd 54a4 7e3e
00000120: 1c12 0a3d e201 163c 3e86 d6bd 80ee 903d
00000130: e13e b6bd 43ea d03d 516b 163e 4118 0f3e
00000140: 6275 c83d 19b6 f1bd 08e7 043e 91a0 223e
00000150: 281c 68bd 25fc 39be ed53 fabc 4cee d5bd
00000160: 3bcc 16be b108 c0bd 0c09 2abe 2075 ebbd
00000170: a7be f839 68b7 4ebd 1d73 0bbe d572 25be
00000180: 8e5a 9dbc 4dfe 9c3c 449a 40bd fb4b 43be
00000190: a952 7fbd e0ce e63d 9910 253e 6663 ee3d
000001a0: 6712 a53d 8993 203e b15e 083e a33e 5c3e
000001b0: e5bf 1e3e 8f59 79bd 3102 90bd 2c07 1ebd
000001c0: 0205 c7bc fb4d d9bd 9844 d6b8 dd84 31be
000001d0: abef e13c ed47 b3bc 4665 0fbb eacc 0dbe
000001e0: 289b b23c d475 7fbb 49af ec3c 3c70 bdbd
000001f0: cb3b 3fbd d0b1 0ebe 6421 a8bd 2926 3bbd
00000200: 4f7c 38be 1f86 cbbe fe1c 11be 2d24 c1bd
00000210: fe06 dbbd 56fc 663d 4f00 583c 20c7 86bd
00000220: 9f69 96bd 8a21 2c3e 47a3 42bd d1ff b2bd
00000230: 4ce3 88bd 98d2 ad3d 81b6 17bd d2de 913c
00000240: cc61 72be dec2 c6bd 866a b1bb 2275 033d
00000250: 2ba7 f93b 0541 cdbc 1aea 073d 9196 d2bb
00000260: 4b3c d13d 8724 0b3e 272e a4bc 4dd3 debd
00000270: bb75 213e ef55 883d 1dcb 34be d558 21be
00000280: 2e02 fbbd e807 6a3c 3cfd b73c dd91 25be
00000290: 5c1a aabe 5165 083c 874c d13d b746 f3bc
000002a0: 07b8 65bd f5da 3ebd d942 193e 6134 e5bd
000002b0: eda8 03bd 322d 2abd 8672 ccbe 45b4 953c
000002c0: 3df1 1c3d 57c5 b53d f9ec ea3d ca4e 493d
000002d0: 1778 b0bd edbd 963c 98b3 143b ddcc 933d
000002e0: 46db cc3d 1bf6 53be 7f84 16ba ffc3 f33c
000002f0: d349 023e c747 c5b9 286d 61bd de55 373d
00000300: 7317 453d dd5d 73bb b53d a4bd c110 d53d
00000310: 7b78 b73c 10e4 eabb 898e 0f3d e8fa babd
00000320: 8c4b 453e 9d25 113e 0ef2 9f3e a120 383e
00000330: 39f7 1ebd 019a 123e cc7a c73d 8e25 7a3e
00000340: f213 413d 1a91 b7bd 7688 ec3c f823 80bc
00000350: 5513 f73d c8e2 c2bd 650d e43d 72d5 a7bd
00000360: fdbf 613d da38 573d 6b1e 703d 6705 93bd
00000370: ecfb f0be bb3d 04be 7432 873d 1a55 e53c
00000380: 9278 813d 08fa 8a3c 1309 94bd 747c 453e
00000390: dab4 f83d 62f7 943d 7ca6 6fbd f86d 103d
000003a0: 5b96 c9bd ee91 203d a1a3 753b 01f2 b33d
000003b0: 35e0 ae3b a3fb abbd c395 a43d 7cc3 fdbd
000003c0: 4740 77be 94e1 07be 2583 f93c a6a5 03bd
000003d0: 1ff1 78bc ba8d 9cbd 0ee0 ed3d 759e 3a3e
000003e0: 7bcb 913d 8be6 983e 39e9 4a3e 5d23 323e
000003f0: 0785 863a 8cdb 803e 10f3 41be 5bf2 ecbd
-0.0740951 -0.24744071 -0.10087292 -0.042201757 0.07884785 0.03464431 -0.017580833 -0.17018716
0.06390817 0.0407525 -0.047101367 0.022049066 -0.015261372 0.18083581 0.11657712 -0.121414535
-0.15095608 -0.05946161 -0.063765675 -0.018122993 -0.11924114 -0.08026815 0.05557113 0.0797011
-0.11279317 0.14996244 0.057331983 -0.03271358 0.15860254 -0.103010796 0.028178697 -0.08023052
-0.08228803 0.028527254 0.18430859 -0.24127583 0.034779757 0.026899027 -0.032872792 -0.25118306
-0.037846025 0.050224654 0.03756719 0.10040226 0.014352785 0.005815803 -0.051646654 0.09307943
-0.033895236 -0.031750422 0.0729413 -0.1578642 -0.37566712 -0.2536492 0.18081926 0.18936068
-0.0527187 -0.33075476 -0.13305183 -0.04320534 0.11270752 0.21302801 -0.23772435 -0.15548052
0.055458546 0.42888403 0.12929155 -0.034613155 -0.1318049 0.26075613 -0.04617516 0.24867374
0.033708677 0.009155722 -0.104748234 0.0707674 -0.08898712 0.10200932 0.14689375 0.13974096
0.09788014 -0.118023105 0.12978756 0.15881564 -0.056667477 -0.18162592 -0.030557597 -0.10445842
-0.14726345 -0.09376658 -0.16605014 -0.11496949 0.00047444293 -0.05046788 -0.13618131 -0.16157086
-0.019208219 0.019164229 -0.04702212 -0.19071953 -0.06233469 0.11269927 0.16119613 0.116400525
0.080601506 0.1568128 0.13317372 0.21508269 0.1550289 -0.060876425 -0.07031668 -0.03858106
-0.02429438 -0.10610577 -0.00010217092 -0.1733584 0.027580103 -0.021884883 -0.0021880432 -0.138477
0.0218025 -0.0038980143 0.028892176 -0.09249923 -0.046687882 -0.13935018 -0.08209494 -0.04569069
-0.1801617 -0.39750764 -0.14171216 -0.09430728 -0.10694693 0.05639299 0.013183667 -0.06580949
-0.073443644 0.16809669 -0.047518995 -0.08740199 -0.066839784 0.08487433 -0.037039284 0.017806444
-0.23670119 -0.09705137 -0.00541431 0.03209413 0.007618805 -0.025055418 0.03318224 -0.0064266403
0.10216578 0.13588153 -0.020041538 -0.10880146 0.15767567 0.066570155 -0.17655607 -0.15756543
-0.12256275 0.014284112 0.022459619 -0.16168924 -0.33223236 0.008324937 0.102196746 -0.029696805
-0.056083705 -0.046595532 0.14966907 -0.11191631 -0.032143522 -0.041547008 -0.39931124 0.018274436
0.038316 0.0887553 0.1147098 0.049147405 -0.08616655 0.01840111 0.0022690054 0.07216809
0.100027606 -0.2069935 -0.00057417894 0.029756544 0.12723474 -0.00037628246 -0.05503574 0.044759624
0.048118066 -0.0037134804 -0.08019582 0.10403586 0.022396317 -0.0071683004 0.03504804 -0.09129888
0.192671 0.14174505 0.3123936 0.17981197 -0.03880999 0.1431656 0.097402185 0.24428388
0.047138162 -0.08963223 0.028873663 -0.015642151 0.12064234 -0.09515911 0.11135367 -0.08195008
0.055114735 0.052544452 0.05862276 -0.07178765 -0.470672 -0.12914173 0.0660142 0.027994681
0.06321825 0.016964927 -0.07228293 0.19285756 0.1214387 0.07273747 -0.05850838 0.035261124
-0.09843131 0.03920167 0.0037481564 0.08786393 0.005336786 -0.08397605 0.08036377 -0.12390801
-0.24145614 -0.13269645 0.030458042 -0.032140397 -0.0151942065 -0.0764422 0.11615001 0.18224509
0.07118889 0.2986339 0.1981553 0.17396303 0.0010263034 0.251675 -0.18940377 -0.11569663

fc1.bias f4 [60]
00000000: 57e5 cbbd c503 bc3d a07a f03d 4e4c c5bc
00000010: eddf 8abd 5cf6 573c 057d af3d c2de 2d3b
00000020: 06ff 663d b240 603d 671b 963c 8de4 fc3d
00000030: 1537 5ebd 6b28 013e 2d02 fb3b 206a d13d
00000040: 2e0b 4b3c 4348 cbbc d7d7 aebc 7753 f83c
00000050: be47 abbd 0634 073e 50bc 273c 4cc9 313d
00000060: 4a86 aabd 75cf 393c 78f5 a2bc ef8d cfbc
00000070: db9c 263d 14d0 873c acbf 023d 181d 2abe
00000080: 4f62 ca3d ba40 0c3e 4157 173d 00a0 39bd
00000090: 5cd2 de3c c0c0 d33d 951b cfbc a402 7a3c
000000a0: 5f90 0a3c beac 243e b4ae 7e3d d2bf 12bc
000000b0: b6ae 4c3e ef9b 8b3d 6c47 91bd 83bf 1ebd
000000c0: a120 bcbc 62fc babd b3df 4f3d afef 353d
000000d0: 7887 c03d 1e61 86bd f13d 4f3d 7a1f 573c
000000e0: c3ff adbd 5a08 85bd 8d13 34bd e812 22bd
-0.099558525 0.091804065 0.11742139 -0.024084236 -0.06780992 0.013181295 0.085687675 0.002653048
0.056395553 0.0547492 0.018323613 0.1234828 -0.05425175 0.12613074 0.0076601715 0.1022532
0.012392802 -0.02481473 -0.021343155 0.030313237 -0.08363293 0.13203439 0.010237768 0.043404862
-0.08326395 0.0113409655 -0.01989244 -0.025336234 0.040676933 0.016578712 0.031921074 -0.16612661
0.09882032 0.13696566 0.036948446 -0.045318604 0.027199917 0.103394985 -0.025281707 0.015259419
0.008457272 0.16081521 0.06217833 -0.008956866 0.19988522 0.06816851 -0.07093701 -0.03875686
-0.022964777 -0.091301695 0.050750446 0.044418033 0.094008386 -0.065614924 0.05059618 0.013130063
-0.08496048 -0.064957336 -0.043963958 -0.03956881

fc2.weight f4 [16, 60]
00000000: b0ff 84bd 7090 663d e9c5 27bd 73af aabd
00000010: 4ab1 9c3d 2f1e a43b 6708 cabd 11c2 593d
00000020: 9937 573d d2c6 e2bd a0e8 f0bb bfb6 cdbd
00000030: 0fd0 083d e87d 87bd 7c42 39bd 7afe e5bd
00000040: 3624 0cbe dcbe afbd 9b08 dcbd 549f 373d
00000050: e82c 52bd 1e2f 23be 26f2 e5bd 86b9 0cbe
00000060: 59da 553d cdd2 02be 64e4 9b3d 8079 97bc
00000070: 08dc ce3d 7c34 0ebe 3cf1 7b3d c7b6 ecbd
00000080: f3cb 8f3d 6909 b8bd b20c 5b3c fadf dd3d
00000090: 889d e4bd 2745 7fbb 9e3c e0bd 215c b1bd
000000a0: 60a1 5f3d 3b83 d5bc c321 043c 3643 47bd
000000b0: b637 f0bd 2ad4 16be b86b b1bd ae4f 1ebe
000000c0: 6c19 e73c da44 b6bd b81c 92bc 55bf 11be
000000d0: 6db3 8f3c ce2d bc3d bf61 83bd 2aff c83d
000000e0: 4484 bb3d b288 c33d 4f19 26be 8751 cebd
000000f0: 2f8c 1cbe 4f5b 1d3e eac1 953d 4015 51bc
00000100: 5cb7 c23d b476 943d 9e55 433e aefc b2bd
00000110: 8080 433c 23df 913e e74b 483e f8b3 023e
00000120: 5df8 3f3e 0663 2dbe 9c55 4b3e c71e f63d
00000130: 50da 3c3e 62e2 0b3e 1472 8abe 432b 9c3e
00000140: b45d 21be ec3e 243e 8cbc 573e f4c3 9bbd
00000150: 7e38 96bd 0143 e43d 5470 fe3d 43e4 1fbd
00000160: 5094 5c3e 2a98 a03b dda3 ae3d 32ab 133e
00000170: 6efa 9b3d d59f 973b 7b28 b93d bb0d 25bd
00000180: a160 19be f01c 693d f5ad e0bd cb4f f6bd
00000190: 3620 c5be d782 80be d52f d93b ccc0 5a3e
000001a0: eb51 0ebe ab10 81be 3964 7ebd fef2 103e
000001b0: 45fb a03c c0bf 543e 2d59 e8be 9e9b c63d
000001c0: 3f16 853a 460d 36bc f5fa 463e bad2 8fbb
000001d0: 783f ff3c c955 183e 21ea 2c3e bcca 31bd
000001e0: dd93 0f3e 6799 8a3e f3e1 ca3d 70e7 63be
000001f0: 185d 94bd 0808 943e f59c b7bb 40b2 49be
00000200: 8acf 5abd 3a77 90be 15fd 6c3d 50ec 153e
00000210: 6fca 27bd 5272 263d 462b 493e e73b 133e
00000220: 48e8 c2bd 4589 7cbe 087f bc3e dbd2 f23a
00000230: 6af8 283e 4986 3e3e a761 0f3e 33ab 8b3d
00000240: c270 b53d d71b 70be aa1e 46be 13e4 1b3e
00000250: d0c5 40be 7db2 7a3d f999 73bd 9132 6e3d
00000260: 72f5 82bc 5f13 2b3e ffdd aa3d 701a 3d3d
00000270: 6cd1 983d af19 533d a85f 92bd d232 453e
00000280: 9199 ec3d 4116 28be 14c1 683e 19b5 c8bd
00000290: 20bf cabc e579 f1bd 11e3 3abc e4d3 c33d
000002a0: 8939 873e 4b81 403e d4ac 483c c270 7cbd
000002b0: 5b7c 5c3e 1f91 23bc 7910 b03e cd0d 35be
000002c0: 857e adbd 5b6a a2bd 1c23 a0bc 6920 d03d
000002d0: d8ae 923c 11d1 25be 05c4 ad3d 5507 1b3e
000002e0: b528 983e 2aa7 64be 420e 1abe 124f 97be
000002f0: 2bfe 7b3d 198a 843d b736 883d 928b 153d
00000300: 565d 03be 474f 01be 91b5 97be ccb9 9fbd
00000310: eff9 1abe 444a 1a3e 2314 96be 3810 28bd
00000320: e537 4e3d 49ca 8fbd 5a06 403e 426c 0c3e
00000330: e9fa 613e ba01 1e3b 7ff0 aa3e 93fc ad3d
00000340: bd95 7e3e 659f 753e 8deb eb3c 6c69 753e
00000350: 1699 e53d 544d 49be 67d0 943d 194b f23c
00000360: 33d6 e73d c544 27be 98cc 12bd b173 a03d
00000370: 8cc0 f03d 6b55 933e d248 e1bc f6ff 6bbc
00000380: dc50 653d a0df 6a3e b816 a03d fd2e c9bc
00000390: e121 143d b9bc 1f3d aec2 86bd 601a 2c3e
000003a0: 46dc ad3d e85c d73c eea8 323d beb9 8bbc
000003b0: 9bff 2bbe 6fbe 6d3e e5c6 b2bd 465a 1c3e
000003c0: 06d6 863e a3cb a7be 396f 863e 1cfc 79be
000003d0: 1bd7 f3bc 4d0a 4b3e 5db3 6c3d b3ce a53e
000003e0: 0c07 0ebe 1ea3 b8be 4581 34be dc50 ce3d
000003f0: 0377 28bc 05d0 3c3c ba6c f5bd bc93 8c3e
-0.06494081 0.05629009 -0.040960226 -0.083342455 0.07651003 0.005008481 -0.09864884 0.05316359
0.052543256 -0.11073078 -0.00735195 -0.10044622 0.033401545 -0.066158116 -0.04522942 -0.11230178
-0.13685688 -0.085813254 -0.10743829 0.04482968 -0.051312357 -0.15935943 -0.11227827 -0.13742647
0.052210186 -0.12775727 0.076119214 -0.018490553 0.101005614 -0.13887209 0.061509356 -0.115582995
0.07021322 -0.0898617 0.013369726 0.10833736 -0.11162859 -0.003895113 -0.10949062 -0.0866015
0.05459726 -0.026063552 0.00806469 -0.04864808 -0.11729376 -0.14729372 -0.08663124 -0.15460083
0.028210364 -0.08899851 -0.01783596 -0.14233144 0.017541612 0.09188424 -0.06415128 0.09814294
0.09156087 0.09547557 -0.16220592 -0.10074144 -0.15287851 0.15366863 0.07312377 -0.012761414
0.09507629 0.07249203 0.19075629 -0.08739601 0.011932492 0.28490552 0.19560204 0.12763965
0.18747087 -0.16932306 0.19856876 0.12017589 0.18442655 0.13660577 -0.2704016 0.30501756
-0.15758401 0.16039628 0.21068019 -0.076057345 -0.07334994 0.111455925 0.12423769 -0.039036047
0.21540952 0.004900952 0.08527348 0.14420775 0.07616125 0.0046272078 0.09040924 -0.040296298
-0.14978267 0.056912363 -0.1097068 -0.12026938 -0.38501137 -0.25099823 0.0066280165 0.21362609
-0.13898437 -0.2520803 -0.0621073 0.14155194 0.019651065 0.20776272 -0.45380536 0.096976504
0.0010153725 -0.011111563 0.1943167 -0.0043891342 0.031158194 0.14876474 0.16886188 -0.043406233
0.14021249 0.27070162 0.09906378 -0.22256255 -0.07244319 0.28912377 -0.0056034275 -0.19696903
-0.05342058 -0.28215963 0.057858545 0.14640927 -0.04096454 0.040636368 0.19645414 0.1437832
-0.095169604 -0.24661739 0.36815667 0.0018525975 0.16501012 0.18605913 0.14002095 0.06819763
0.088593975 -0.2344812 -0.19347635 0.15223722 -0.1882546 0.061205376 -0.05947301 0.058153693
-0.015986178 0.16706608 0.08343124 0.04616779 0.07461819 0.051538166 -0.07147151 0.19257668
0.11552728 -0.16414739 0.22729903 -0.09800167 -0.024749339 -0.11790828 -0.011406676 0.09561899
0.26411083 0.18799321 0.012248237 -0.06163097 0.21531813 -0.00998333 0.34387568 -0.17681046
-0.08471397 -0.07930442 -0.019547991 0.10162432 0.017905638 -0.16193034 0.084846534 0.15139516
0.29718557 -0.22329393 -0.15044501 -0.29552513 0.06152169 0.064716525 0.06651061 0.036510058
-0.12828574 -0.12627898 -0.29630712 -0.0779911 -0.15134405 0.15067393 -0.29312238 -0.041031092
0.050346274 -0.07021005 0.18752423 0.13713172 0.22068371 0.0024109916 0.3338661 0.0849544
0.24861808 0.23986585 0.028798843 0.23965997 0.112108395 -0.19658405 0.07266312 0.029576825
0.11320152 -0.16334827 -0.035839647 0.078345664 0.117554754 0.28776106 -0.027500544 -0.014404288
0.055985317 0.22936869 0.07816833 -0.024558539 0.036165122 0.03899834 -0.06580101 0.16806936
0.084892794 0.026289418 0.043618135 -0.017056342 -0.16796724 0.23217176 -0.08729342 0.15268812
0.26335162 -0.3277255 0.2625673 -0.24412578 -0.029765656 0.19828148 0.05778824 0.3238426
-0.13869876 -0.3606195 -0.17627437 0.100740165 -0.010282281 0.011524205 -0.119836286 0.27456462

fc2.bias f4 [16]
00000000: ee45 c9bd 1a78 2b3c 653a 193e 90c0 a8bd
00000010: 4ad8 b13d 9361 25be 09da 923e 40e0 193e
00000020: fd75 433d bf47 9dbd e42b 67bc d3db 68bd
00000030: cf3f 69bd f57f 233c ad9c df3d 1799 84bd
-0.09827791 0.010465646 0.14963682 -0.082398534 0.08683832 -0.16150503 0.28681973 0.15026951
0.047719944 -0.076797 -0.014109585 -0.056850266 -0.05694562 0.009979238 0.109185554 -0.06474512

fc3.weight f4 [10, 16]
00000000: c464 1b3e 68fb 89be fa89 523e 1a53 c63d
00000010: 6366 a5be 84bb e6bc ad17 3abe 5a08 2f3e
00000020: 7354 21be 3d1f bdbc d3fe 953c 5052 91be
00000030: bdcb 893e 497d 5b3e 87cf a5bd db4b 5ebe
00000040: 0994 dd3c e3bf 63be 4620 893e 926a 9abe
00000050: 991f 72be d871 05bd 920a 8f3e c5a3 8abe
00000060: ab0f 913e 0935 0f3e 9b8d e33d 128e 163e
00000070: 468a 7cbe 235d 1c3c 3426 c1be 7261 863e
00000080: 912c cf3d 3383 4d3e 4495 2c3e ddb8 c3bd
00000090: 5ac6 3f3d ac99 473e 4a1a 00be 6ad1 3bbc
000000a0: 78c0 193e 32f0 29be 9782 f93d 3098 f93d
000000b0: 8d84 733e 21a8 b2be b840 e1bd 511e 3abe
000000c0: 2eaa 3dbe 181d 5dbd 99e9 0a3e 93fe 583d
000000d0: a03a e83d a0e2 5d3c 9c8d 83be 35db 93be
000000e0: ac0b 453e 3004 73be 2055 a63d 0ed4 f13e
000000f0: 52a8 72be df0c ce3d cd5d 9f3c 6779 f6bd
00000100: c1a0 423e f769 fa3c 8b61 6ebe 5b7f 1a3d
00000110: 2b37 53be 0540 0fbe b3bc a33e ef06 d9bd
00000120: a8c0 81bc 75c3 cd3d aa05 1dbe adb7 a23c
00000130: e7f4 953d 6ce1 a1be 4095 e43e caef 06bf
00000140: 0f9f 343e 5c2a c93e e2d2 d8bd 5d53 413e
00000150: 27f3 67bd ba1b 453d 1a7f 31be 407c 6ebd
00000160: 537e 5bbe 7b38 f53c 51e9 90be 1910 203c
00000170: 2280 81be a39a 7b3e f11b 44be 4992 62be
00000180: 50a6 b93d 3463 a8bd d503 b8be 560a ec3d
00000190: 5440 95be 32e0 8dbd b82a bf3d 0b2d c63e
000001a0: ae3a b93c 2249 7dbe b07e 913d 7273 68be
000001b0: d29d 6fbe 7eda 3d3e f743 40be c200 d13d
000001c0: 5f3e be3d 2bde 6ebe 73b7 4abe a5ab 343d
000001d0: 9724 ad3e 8f8b 0ebd f618 70bd d119 e1be
000001e0: bb80 b5bc 6b0d 043e 177f 413e e82f 93bd
000001f0: bcbe 163e 3b9c 10be 5123 98be fd2e 463e
00000200: 15d6 65be ca3d 653d 4a7d 323e be88 c9bd
00000210: 1089 543e c342 37be 0b10 4f3d d9a7 6bbd
00000220: f30c 59be 1bb5 11bf 70c3 773e b16d 8fbe
00000230: 6289 56be 7684 533e 8191 153c 725f d7bd
00000240: 4136 563d 2f1c 88be bced 8e3e 24b4 543e
00000250: 13a1 4b3e 606b 2fbe be7d 2a3e 63b5 23be
00000260: 83c8 57be 92f8 9ebd f923 12bf 7d17 83bc
00000270: 8dcc 8dbc 9646 3b3d 0afa 203e 2ddb 12be
0.15175158 -0.2694962 0.20560446 0.09683819 -0.32304677 -0.028165586 -0.18173094 0.1709303
-0.15754871 -0.023086185 0.018309986 -0.28383112 0.26913252 0.21434511 -0.08096223 -0.21708624
0.027048128 -0.22241168 0.26782435 -0.30159432 -0.23644866 -0.032579273 0.27937752 -0.2707807
0.28332266 0.13985075 0.111109935 0.14702633 -0.24662122 0.00954369 -0.3772446 0.2624622
0.10115922 0.2006958 0.16853815 -0.09556744 0.046820022 0.19492215 -0.12510028 -0.011463502
0.15014827 -0.16595533 0.12183111 0.121872306 0.23781033 -0.34893897 -0.10998672 -0.18175627
-0.1852195 -0.053982824 0.13565673 0.052977156 0.11339307 0.013542801 -0.25693977 -0.2887818
0.19242734 -0.23732066 0.08121705 0.47232097 -0.23697022 0.10061049 0.019453907 -0.120348744
0.19006635 0.030568106 -0.23279397 0.037719112 -0.20626514 -0.13989265 0.31979904 -0.105970256
-0.015838936 0.10047046 -0.15334192 0.019862974 0.07322102 -0.31617296 0.4464512 -0.5270964
0.17638801 0.3929013 -0.10587098 0.18879457 -0.056628373 0.048122145 -0.17333642 -0.058223963
-0.21434908 0.029934159 -0.28303006 0.009769463 -0.2529307 0.24570708 -0.19151284 -0.22126116
0.09064925 -0.082220465 -0.35940424 0.11525409 -0.2915064 -0.069275275 0.0933432 0.3870624
0.022610988 -0.24734929 0.07104242 -0.22700289 -0.23400047 0.1854038 -0.18775927 0.10205223
0.0928924 -0.23326938 -0.19796543 0.044109005 0.33816978 -0.034801062 -0.058617555 -0.4396501
-0.02215611 0.12895744 0.18896137 -0.07186872 0.14721197 -0.14122097 -0.29714444 0.19353862
-0.22444947 0.05596713 0.17430606 -0.098405346 0.2075541 -0.17896561 0.05055241 -0.05753312
-0.21196346 -0.5691697 0.24195647 -0.28013375 -0.20950845 0.20655999 0.009128929 -0.105162516
0.052297834 -0.26584002 0.27915752 0.20771843 0.19885664 -0.17130804 0.1664953 -0.15987162
-0.21072583 -0.07762255 -0.5708614 -0.016002411 -0.017309451 0.045721613 0.15720382 -0.14341421

fc3.bias f4 [10]
00000000: 40fe ac3d e608 ef3c ff5c 69be 8019 6bbe
00000010: 56f0 803e 97cb 303e 9a6f b63c 59db ea3d
00000020: d310 37be 146c c4bd
0.08446932 0.029179048 -0.22789381 -0.22958946 0.25183362 0.17265163 0.022270013 0.114676185
-0.17877512 -0.09590927
