project3--CNN-COMPRESS/checkpoints/LeNet5/epoch-5.pth (torch, 243143 bytes, 10 tensors)

conv1.weight f4 [6, 1, 3, 3]
000000 d8 09 c3 3e 86 29 aa 3e 6d d8 65 3e 79 7c ff 3d
       0.38093448 0.33234805 0.22445841 0.12474913
000010 05 03 44 3e e8 95 8e bd df 7c ec 3e fa 65 05 3f
       0.19141777 -0.06962186 0.4618902 0.5210873
000020 67 51 6f 3e 92 34 9f bc 28 f7 9c 3e 01 fb 36 be
       0.23370896 -0.019434247 0.30657315 -0.17869188
000030 42 e8 cb 3e 71 36 bb 3e 7b d9 82 3d f7 6e 14 be
       0.39825636 0.36564973 0.06389137 -0.14495455
000040 40 d3 14 be e5 36 49 bd df e1 38 3f b0 d6 4d 3f
       -0.1453371 -0.049124617 0.7221965 0.8040571
000050 64 71 36 3f 9e 15 54 3f 97 f0 60 3f d9 4f 13 3f
       0.7126677 0.82845485 0.8786711 0.5754371
000060 e1 92 0b 3f 07 06 9c 3e 9b 49 6c bc 27 6e 4d 3e
       0.54520994 0.30473348 -0.014421846 0.20061551
000070 a4 ba b5 3e c9 a0 b3 3d be bf 49 bd 56 2a 6b be
       0.35493958 0.08770902 -0.049255125 -0.22965369
000080 21 f0 51 3d 67 bb 95 bd 09 34 90 be 5e ff 1c bd
       0.051254395 -0.07311135 -0.281647 -0.038329475
000090 71 12 47 3e 2e 1c 4f be 72 c5 77 3e bd 29 bd 3e
       0.19440629 -0.20225593 0.24196413 0.36945906
0000a0 28 f2 22 3e e2 49 ac be 9a c5 76 bc b1 55 74 3d
       0.15912688 -0.33650118 -0.01506176 0.059652034
0000b0 8b 1d 9e 3e e3 26 2e 3d 5f dc a8 be 5d 7b 87 be
       0.30881914 0.042517554 -0.3298063 -0.26461306
0000c0 f4 46 b7 3e 52 59 32 be 79 3b 13 3e a0 04 62 3e
       0.3579632 -0.17416885 0.14378156 0.22072077
0000d0 8f e0 e1 3d a3 13 cc bd
       0.11029159 -0.09964683

conv1.bias f4 [6]
000000 b1 18 11 bd 4e 18 bd 3d d8 7a 0b 3f 7c 17 2e 3e
       -0.03542394 0.092331514 0.5448432 0.17001146
000010 8e d0 1f 3e 51 48 be b8
       0.15606901 -9.073376e-05

conv2.weight f4 [16, 6, 3, 3]
000000 57 7c 1c be ac 51 45 3e 5b 95 6c bd d4 23 9e bd
       -0.15281807 0.19269437 -0.057759624 -0.077216774
000010 d8 4c 2d 3e d8 13 10 3c a5 26 0d 3e 7a 3b b7 3d
       0.16923845 0.008793794 0.13784273 0.08946891
000020 8c 0e 32 3d 32 e8 5d 3d fe 93 e6 3d 0e f1 24 3e
       0.043470904 0.054176517 0.11258696 0.1610758
000030 9c 3e 51 3d e8 98 fe 3d af 91 83 3c bd 06 cf bd
       0.0510851 0.12431508 0.016060678 -0.10108707
000040 23 71 92 3d fa 0d d4 3d 79 e8 7e be 02 1c 96 3e
       0.07150485 0.10354228 -0.24893369 0.29318243
000050 e2 fb 9a 3d 3e 0c 7d 3d b1 2e 95 3e 47 78 51 be
       0.07567574 0.061779253 0.29137185 -0.20456038
000060 e5 4c 80 3e 55 76 ea 3d e9 39 8c be 0b 22 06 be
       0.25058666 0.11448351 -0.27387932 -0.13098924
000070 38 c0 33 3d 0c a9 16 3e ae 76 e4 bd e5 e4 d8 bd
       0.043884486 0.14712924 -0.11155449 -0.10590533
000080 4f 25 b1 bd b7 67 87 bd bf 93 48 bd 37 1f 9d bd
       -0.08649694 -0.06611579 -0.048969027 -0.076719694
000090 1c 6a a1 3d d6 8b be 3b 2e 41 04 3e f7 29 18 be
       0.07881567 0.0058150096 0.12915489 -0.14859758
0000a0 21 4e 17 3e 32 6e 58 bd 45 95 0f bd 1b c9 a1 3d
       0.14775898 -0.052839465 -0.035054464 0.07899686
0000b0 a5 5b 94 3d 92 89 21 bd 0e 57 b7 3c 55 26 f1 3d
       0.07244042 -0.039437838 0.022380378 0.117748894
0000c0 73 5c 83 bd a5 c4 d7 bd 9a 1e 8d 3d 33 70 84 bd
       -0.06414118 -0.10535554 0.068906024 -0.06466713
0000d0 00 b6 dd bc 77 ac 84 3d 01 da 96 bb 2a 19 b4 3d
       -0.027064323 0.064782076 -0.004603625 0.08793862
0000e0 29 9d b9 bc 4d a1 b8 bd d5 6a ec 3c a3 27 48 3e
       -0.022657948 -0.09015141 0.028859535 0.1954637
0000f0 6c 2c d5 bd 61 8b 35 bd d0 ce 38 bb 36 70 ca 3d
       -0.104088634 -0.044322375 -0.0028199442 0.09884684
000100 87 53 e3 3c 29 6c ad 3d a5 52 06 bd 58 3b 84 bd
       0.02774979 0.084678955 -0.03279366 -0.064566314
000110 e4 14 e2 bd 89 83 a1 bd 33 f4 f6 bd 36 93 d5 3d
       -0.11039141 -0.078864165 -0.12058296 0.10428469
000120 06 09 c0 bd 58 0a 27 3e 4e 48 be 3b bc 91 44 3d
       -0.09376721 0.1631254 0.0058069592 0.047990546
000130 f8 f6 35 3e 8f 71 13 bc f5 50 79 be 5d e4 e9 3c
       0.17769992 -0.008999242 -0.24347289 0.028551275
000140 3b d4 98 3d 46 7c d6 3c a2 b1 96 3d b8 b3 60 3c
       0.07462355 0.026182305 0.073580995 0.013714723
000150 89 c2 93 3b d6 66 6d bd 82 89 fd 3d 99 31 69 bc
       0.0045092744 -0.0579594 0.12379743 -0.014233016
000160 2d 07 02 bd e9 8a 8b bd 66 f2 bc bd 64 0a ad 3b
       -0.031745125 -0.068136044 -0.09225921 0.0052807797
000170 63 ca 95 3d 43 f5 ae 3d 8d 61 a5 bd ee c9 a3 3d
       0.07313993 0.08542874 -0.08075247 0.079974994
000180 1f b9 2c 3d ee e8 25 bd 33 e3 b5 3d fd bf 70 3c
       0.042168733 -0.040505342 0.088812254 0.014694211
000190 8c d8 ce bd a8 08 9c 3d 3b a4 c3 bb a0 ee f5 bd
       -0.10099897 0.076188385 -0.0059705055 -0.12008405
0001a0 3a dd a3 3d 0c 57 5e 3c a4 13 47 bd 97 a2 e2 bd
       0.0800118 0.013570558 -0.048602715 -0.11066168
0001b0 d0 df b8 bc 8a d4 46 3e 82 15 bc 3d 0c 9f fe bc
       -0.02256766 0.19417015 0.0918379 -0.031081699
0001c0 a5 ce ed bb d3 f5 e5 bd 0b 31 4e be 9d 69 32 3c
       -0.0072573 -0.11228528 -0.20135896 0.010889438
0001d0 1e b7 a4 bd 75 6e b7 bc 6f 2f bf 3d 42 db 3c bd
       -0.08042739 -0.022391537 0.09335219 -0.046107538
0001e0 bb 5f e2 3d bb f1 7f bd 6c 95 09 3e d2 69 4c 3d
       0.110534154 -0.06248639 0.13435906 0.049905606
0001f0 30 c9 c1 bd 1e 5d 33 bd 5c 03 6d 3e ae 8e a6 3e
       -0.094622016 -0.043789975 0.23145813 0.3253073
000200 88 c6 86 3e 6d e1 d3 bd 2c cc e0 bd e5 e3 e8 3d
       0.26323342 -0.10345731 -0.10976443 0.113715924
000210 9f a7 19 be 1a eb a9 be e0 78 75 be dc a4 8c 3d
       -0.15005349 -0.3318718 -0.23971891 0.06867382
000220 c5 ce ab 3d 6f f8 cc bc cf 78 e7 ba f7 94 e4 3c
       0.083890475 -0.025020806 -0.0017659905 0.027903063
000230 d5 e6 a3 bd e3 2e 8e bb c1 4a 03 3e c0 30 8b bd
       -0.08003012 -0.0043390854 0.12821485 -0.06796408
000240 94 40 b1 3d 36 24 19 3e b4 0b b2 3c 2c 1f 1a 3d
       0.086548954 0.1495522 0.021734096 0.037627384
000250 00 dc 81 bd be b4 96 bd a3 06 a5 bd 67 fb 76 3d
       -0.0634079 -0.073586926 -0.080579065 0.06029835
000260 bd ca 9f 3d ea e2 c4 bd 2d d7 7a bd cc 4c 1e bd
       0.07802341 -0.09613593 -0.061240364 -0.038647458
000270 19 a6 d9 3d 08 4d c5 bc d1 0c fd bd 45 6e 17 3d
       0.10627384 -0.024084583 -0.1235596 0.036970396
000280 61 46 a5 bc ca 92 d2 bd 0a 72 1a bb 38 6f 19 3e
       -0.02017516 -0.10281904 -0.0023566508 0.14983833
000290 84 ef a3 3d ee 61 a9 3d 5b 5e 0a be 6b 4e 17 3d
       0.08004668 0.08270632 -0.13512556 0.03694002
0002a0 98 c3 b7 bd b4 01 8b 3d 9f 50 ab bc 8b 50 cb 3d
       -0.089728534 0.06787434 -0.020912467 0.09927472
0002b0 02 fb 69 3c b7 17 b4 bd 1d 62 ab bc 5e 20 0c be
       0.014281036 -0.08793586 -0.020920807 -0.13684222
0002c0 ef 50 62 bd 04 90 f6 bb ea c5 0f 3d e8 33 21 bd
       -0.055252966 -0.007524492 0.035100855 -0.039356142
0002d0 0e b0 3c 3e 1a 8c be 3d b3 d2 58 3d a1 74 8c 3d
       0.18426535 0.09304066 0.052935313 0.06858183
0002e0 6d f0 07 bd 40 3a 05 be 1a 7a 20 be 82 b5 8a bd
       -0.033188272 -0.13010502 -0.15671578 -0.06772901
0002f0 66 69 1f be e3 95 b2 bd 74 82 1d bd e8 38 67 bd
       -0.1556755 -0.08719995 -0.038454488 -0.056450754
000300 59 5d 7e 3d 9c 00 e0 bd 0b 51 9f bd 8d dc d1 bd
       0.062100742 -0.10937616 -0.077791296 -0.10247145
000310 6b 76 1c 3d d1 63 06 3e cf 4f d1 3d ef fa 2b 3d
       0.03819887 0.13124014 0.102203004 0.041987356
000320 50 fa 96 3c 1c fc a0 3c d7 ce c4 bd 57 fe ae bd
       0.018429905 0.019651465 -0.09609764 -0.08544605
000330 a1 44 c5 3d 1f 86 3c 3d c0 b8 82 bd cc 2d e0 bd
       0.096322306 0.046026345 -0.063828945 -0.10946235
000340 29 40 36 bc 8a 73 05 be 84 00 89 bd cc c3 69 bd
       -0.011123695 -0.13032356 -0.066895515 -0.057071492
000350 dc 27 01 3c ef 1a 6d 3d 82 a5 ed 3c 31 9c d7 bd
       0.007883038 0.057887014 0.029009584 -0.10527838
000360 0c ca ea bd ef 95 3b 3a 74 dc c8 3d 22 c2 b8 bd
       -0.11464319 0.0007155826 0.09807673 -0.09021403
000370 88 17 04 3d 3e 31 02 be be e1 c5 bb b2 89 be bc
       0.032249004 -0.12714097 -0.0060388735 -0.023259018
000380 2f d5 98 bd 36 2f 91 3d 3e fb 21 3e 3e cd d8 bc
       -0.074625365 0.07089083 0.15818498 -0.026465055
000390 ae 11 42 3c b4 ce 09 be 9c cc 00 be 5f e1 b8 bd
       0.0118450355 -0.13457757 -0.12578052 -0.09027361
0003a0 c2 4a 35 bd ed b3 fe 3c d3 a9 93 3e a1 fb a9 3e
       -0.044260748 0.031091655 0.28840503 0.3319979
0003b0 aa fb 41 3e de 03 67 be ba 20 8a be fe e0 27 bc
       0.18943658 -0.22560069 -0.26978093 -0.010246513
0003c0 7e 79 b2 bd 58 0f 35 bb 68 88 91 bc f4 0a 37 bc
       -0.08714579 -0.0027627554 -0.017765239 -0.011172045
0003d0 7c 1d f7 3d c1 04 ab bc 9e 46 7e 3d 1a a5 0b 3e
       0.120661706 -0.02087629 0.062079065 0.136372
0003e0 a9 10 6b 3d 08 87 2e 3d 89 6d 36 bd c9 6c 51 bd
       0.057388935 0.042609245 -0.044538055 -0.051129136
0003f0 43 b1 16 3c 1c b4 c3 3d 70 87 e8 3c 00 e2 00 be
       0.009197536 0.095558375 0.028384894 -0.12586212

conv2.bias f4 [16]
000000 4b 6b bf bb bf 1a bb 3d ff 47 b7 bd 1a 68 b9 bd
       -0.0058416477 0.09135961 -0.08949279 -0.09053059
000010 05 3b bd bd cb b8 6b bd 37 d6 d6 3d c2 11 4a bd
       -0.09239773 -0.05754928 0.10490077 -0.04933334
000020 cd 50 96 3d ca f7 a0 3d bf 74 7a 3d fa dd b0 3c
       0.0733963 0.07859762 0.061146494 0.021590222
000030 df 92 f6 3d a4 70 1c bd 2a 10 82 3d c8 e2 e3 bc
       0.12039732 -0.03819336 0.06350739 -0.027818099

fc1.weight f4 [120, 400]
000000 2f 78 43 3c ab 8c 82 3c fe 8c 37 bc 5c 50 33 3d
       0.0119305095 0.015936216 -0.011203049 0.04377781
000010 c2 d2 ff bc d0 f1 c1 bc d1 9b ce 3b 07 bd 92 bc
       -0.031228427 -0.023674875 0.006305196 -0.0179124
000020 80 af bd 3c 30 f1 19 bd 41 00 68 bc 73 2e df bc
       0.023154974 -0.03758353 -0.014160217 -0.027243828
000030 b1 7f 99 bc 36 20 85 3c a6 e2 c3 bc 7e 2f 74 3c
       -0.018737646 0.016250711 -0.023911785 0.014903901
000040 e2 bd cb 3d cd 2b b7 3d 41 85 80 3c 6f f5 08 3d
       0.09948327 0.08943901 0.01568854 0.03343719
000050 ac 7b d3 3c d6 b4 4e 3c 75 90 25 3d d2 22 2e bd
       0.025815807 0.012616357 0.040420968 -0.042513676
000060 90 1c 7b bd 09 4a a8 3a 4c 4e 53 3d a0 ba 70 3c
       -0.061306536 0.0012839447 0.05158834 0.014692932
000070 b6 01 3c 3d 13 bc ac bc ce 96 bc 3c e3 4a 1a 3c
       0.04590007 -0.021085775 0.023021128 0.009417268
000080 e2 04 1f bc 0e b3 11 3d ef 2a cd 3c 23 72 fc 3c
       -0.009705754 0.03557115 0.025044886 0.030816143
000090 af e2 bb bc 98 6c a6 bc cd 06 79 3c c3 b7 1e bd
       -0.02293524 -0.020315453 0.015199375 -0.038749468
0000a0 7f 57 f6 3c b9 c1 9d 3c 4d 1f 04 bd 47 48 09 3c
       0.030071018 0.019257413 -0.032256413 0.008379049
0000b0 42 50 03 bd 52 ae 5a 3b 59 30 8e 3c 0d 72 e2 bc
       -0.03205896 0.0033368063 0.017357038 -0.027642274
0000c0 d5 34 ca bc eb 48 c2 3c fd ba 95 3c 50 f1 23 3d
       -0.024683395 0.02371641 0.01827764 0.040025055
0000d0 ef 63 80 3b 7d 0c 06 bd d0 ff 98 bb f7 4d 0a bd
       0.003918163 -0.032726754 -0.004669167 -0.03376576
0000e0 76 10 3c bd 56 07 57 3d 8f 2e 54 3d e7 07 4a 3d
       -0.045914136 0.05249723 0.051802214 0.049323943
0000f0 f8 7c f2 bc dc c9 16 3c 24 e6 ce 3c 47 5a 20 39
       -0.029600605 0.0092034 0.025256224 0.0001529242
000100 98 49 50 3d 11 fd ed 3c 24 fb 95 bd 6f 54 54 3c
       0.050851434 0.029051336 -0.07323292 0.012959584
000110 4e f5 b2 bc 03 d3 bb 3c 7f 46 53 bd 26 4a 51 3c
       -0.021845486 0.022927767 -0.051580902 0.012774026
000120 fd e9 16 bc 3b 16 ca 3b dd 24 49 3d a2 cd 89 3c
       -0.009211061 0.006167201 0.04910742 0.016821686
000130 f6 b7 11 bd 0e 7d e6 3c d4 26 0b bc 57 06 a6 3c
       -0.03557583 0.028135803 -0.008493144 0.020266695
000140 4b cc db bc 20 04 d2 bc 7f bc 23 3c 33 98 35 3d
       -0.026830813 -0.025636733 0.009993671 0.0443346
000150 99 b6 2c bd 88 e4 af 3b 2b 83 8e ba b9 93 2d 3d
       -0.042166326 0.005367819 -0.0010872831 0.042377207
000160 f7 db 80 3c b5 06 e1 3c 22 b2 0f bd 4f 6d 25 3d
       0.015729887 0.027469018 -0.03508199 0.040387448
000170 14 5b dc 3c ef c2 b4 bc d7 9b 19 3d 2f ff a6 bc
       0.026898898 -0.022065608 0.037502136 -0.020385353
000180 82 bb 81 bc ca 31 17 3b 05 5a 45 bc fe a6 cf 3c
       -0.015836481 0.0023070448 -0.012045388 0.025348183
000190 62 03 3c bd 60 36 9b bb f8 3c 1d 3c 04 21 45 3d
       -0.045901664 -0.0047367066 0.009597056 0.04812719
0001a0 b9 a9 28 3d 6e 9d 23 3c 8c 4b 42 bd 63 52 f7 bc
       0.041177485 0.009986265 -0.04743533 -0.030190652
0001b0 c4 06 13 3d 71 6d c2 bc 75 28 4c bd 8a 20 76 ba
       0.035895124 -0.023733826 -0.04984327 -0.0009389004
0001c0 4a cb aa bc 76 f9 1a 3d 6d f9 74 3c e8 98 2b 3d
       -0.020848889 0.03783556 0.014952046 0.04189387
0001d0 d8 c6 ab 3b fa 6d 8a 3b 2f dc be bc aa bd 1f 3c
       0.00524221 0.004224536 -0.023298351 0.009749809
0001e0 09 9d 06 3d 38 98 97 bd 39 4f 3e 3c 38 4d 6f 3c
       0.032864604 -0.0740208 0.011615568 0.014605813
0001f0 de 3a 2d 3d 6c 81 27 3d a6 4e 59 3d 5c 1f 4e bc
       0.04229247 0.04089491 0.05305352 -0.012580719
000200 a8 81 51 3c 35 86 25 bd a4 cb 4c bd 20 92 9b 3a
       0.01278726 -0.040411193 -0.049998894 0.001186911
000210 9c ec 46 3d 03 8d 49 3d 39 05 94 bb 36 5c 0d bc
       0.048565492 0.049206745 -0.004517224 -0.008627942
000220 25 34 53 3c f2 d8 3d 3c 25 7c 57 bd e1 34 e4 bc
       0.01289085 0.011587368 -0.052608628 -0.027857246
000230 9d 0f a0 3c a3 36 41 3c 19 3e 72 3c b2 b4 03 3d
       0.019538695 0.011792812 0.014785313 0.032154746
000240 04 2e 47 3d df 0d 23 3d 42 ee d8 3a 21 a5 00 bd
       0.04862787 0.03980815 0.0016550499 -0.03140748
000250 85 94 fc bc a1 f0 c5 3c 32 e1 25 3a 16 ab ed 3c
       -0.030832538 0.024162592 0.0006327807 0.029012244
000260 0c eb 32 bd 29 82 2a bc fa be b5 bb 02 5f 61 bc
       -0.04368119 -0.010407009 -0.005546448 -0.013755562
000270 05 84 66 bc a4 f7 ca bc 96 2c 9d 3c 3a 9a 0a bd
       -0.014069562 -0.024776287 0.0191863 -0.03383849
000280 e2 ee cf bc a1 7c a0 3c a1 81 50 bc 9b 57 40 bd
       -0.025382463 0.019590678 -0.012726218 -0.046958547
000290 92 a2 de 3c c1 44 2b bd 22 b7 39 3d fa c2 70 bc
       0.027177129 -0.041813616 0.045340665 -0.014694924
0002a0 50 8f b4 bc 7c 9d 1e 3d 59 11 80 3c a1 7b ca 3c
       -0.022040993 0.038724408 0.015633272 0.024717154
0002b0 c4 5a 4f bb f6 5e 04 bd 7e 07 0e 3d f4 a3 ff 3c
       -0.0031639794 -0.032317124 0.034675114 0.031206109
0002c0 86 85 ce ba 55 f0 44 3c 15 b1 c9 ba 66 ec 54 bd
       -0.0015756346 0.01202019 -0.0015387858 -0.05198326
0002d0 cd 3f c7 bc 21 4b 88 3c 52 1d 2e 3d 48 3e 07 3d
       -0.024322415 0.016637387 0.04250843 0.03301838
0002e0 77 74 02 3c 7c 32 17 3c f0 97 71 bc c2 b0 8b bd
       0.007962338 0.009228345 -0.014745697 -0.06820823
0002f0 8f c8 6f bc 4c 92 cc 3b 37 4d cc bc d0 6c 83 bd
       -0.014635219 0.006243026 -0.024939163 -0.06417239
000300 29 36 f5 3b 59 ed fc bb 80 b3 dc 3c 1f 02 be bc
       0.007483263 -0.0077187237 0.026941061 -0.02319437
000310 1c 4c 85 bc 7b dc 94 3d ab 98 a4 3c 81 2f 04 bc
       -0.016271643 0.07268616 0.020092329 -0.008067966
000320 cb 69 95 bc a1 e3 1b 3d 9f 13 8f b9 c8 66 2c 3d
       -0.018238923 0.03805888 -0.00027289704 0.042090207
000330 54 fa 3d 3c 0c 6c e9 3a 0b 0a 9d 3c dc 32 5b 3d
       0.011595327 0.001780869 0.019169828 0.0535153
000340 31 de 49 bd 85 65 f8 3c ac 76 03 bd 48 ce 11 3c
       -0.049284164 0.030321846 -0.032095596 0.008899279
000350 59 67 c7 bc 97 43 f4 bc 26 0a 5c 3d 3d 26 ca 3c
       -0.024341272 -0.029817386 0.053720616 0.024676437
000360 d2 8f d1 bc fc b5 38 3c a9 f5 86 bb 69 c9 37 bd
       -0.025581274 0.011273857 -0.0041186404 -0.044869814
000370 83 45 69 3d ff 0e 1e 3d cd 1d 4d bb 8b f0 c0 bc
       0.056951057 0.03858852 -0.003129828 -0.0235522
000380 75 9f 0c 3b ce dc 0a bc 6e 7c 29 3d 6f ad dc 3c
       0.0021457348 -0.0084754955 0.04137843 0.026938168
000390 c1 8b 0a 3d ad 25 44 bd 35 8f 2a 3d ee 43 69 3c
       0.033824686 -0.047887493 0.04164048 0.014237387
0003a0 58 7a c7 3c 18 29 bd bc 82 52 5a bb 22 ad f6 bc
       0.02435033 -0.023090884 -0.0033313339 -0.030111853
0003b0 14 e4 a5 3c df f2 09 bd b3 4c ec bc e0 0f 48 bd
       0.020250358 -0.033678886 -0.028845167 -0.048843265
0003c0 9d e6 2d 3d f2 84 f3 3c f6 19 1c bd 6a 41 32 bd
       0.042456258 0.02972648 -0.038110696 -0.043519415
0003d0 32 cb 14 3c a5 15 6b 3c d3 47 45 bd 52 7b 3b bd
       0.009081649 0.014348422 -0.0481642 -0.045771904
0003e0 e0 49 24 3d a4 96 3f bb 7a 84 ae 3c dd 90 95 3c
       0.040109515 -0.0029234076 0.021303404 0.018257553
0003f0 01 f2 98 bc dd ba 2a 3d 13 06 9f bc b4 4f c7 3c
       -0.018670084 0.041682113 -0.019412076 0.024329998

fc1.bias f4 [120]
000000 fb 1c 45 3d bb 0c c6 3a 34 71 f7 bc d4 a3 39 3d
       0.04812334 0.0015109995 -0.030205347 0.045322254
000010 9b e1 85 3b 25 42 42 3d fb db d6 3c e5 23 8f 3c
       0.004085732 0.04742636 0.026227942 0.01747317
000020 dc 49 df 3c 2e 2c 1b bd 1e e8 b0 bc 41 dc da 3c
       0.027256899 -0.03788393 -0.021595057 0.026716353
000030 92 77 84 bc 88 53 32 bb a5 23 ec 3c 00 1d e6 3c
       -0.016170297 -0.0027210433 0.02882559 0.02809
000040 bf e1 20 bd 4a 0d 61 3d db e8 ee bb 4f 8a f6 bc
       -0.03927779 0.054944314 -0.007290942 -0.030095248
000050 4a 69 0e 3d 20 56 06 bc b5 fb 24 bd 77 ea 2c 3c
       0.03476838 -0.008199245 -0.04027911 0.010553948
000060 49 5c 14 3c a1 86 fb bc e8 89 df bc 45 70 fb bc
       0.009055206 -0.030703845 -0.027287439 -0.030693183
000070 71 d5 ea 3c 02 31 0e 3c 98 de ae bc 99 27 2a 3d
       0.02866623 0.008678677 -0.021346375 0.04154167
000080 89 a5 20 3d 61 33 2b bd 21 c7 01 3d 88 0e 50 3d
       0.039220367 -0.041797046 0.031684045 0.050795108
000090 86 6f 57 3d 43 f2 ce 3c 12 fc c5 3c 08 0d d6 3c
       0.05259659 0.025262004 0.024168048 0.02612926
0000a0 a1 a2 97 3c d0 aa fb 3b f5 7c 0c 3d f7 a9 89 bc
       0.018510165 0.0076802745 0.034298856 -0.016804678
0000b0 e7 6b fd bb a6 cf 6c 3c 4b 24 ea 3c 13 c0 b7 3c
       -0.00773381 0.014453804 0.028581759 0.022430455
0000c0 76 96 26 bd f9 c5 20 bd c8 ce 70 bb 76 ad 5b 3d
       -0.040670834 -0.0392513 -0.0036744345 0.053632222
0000d0 13 46 43 bd 58 1a 14 3c 07 a3 5e 3c ed 2a c6 3c
       -0.04767425 0.009039484 0.013588673 0.02419039
0000e0 85 c8 21 3d cb a6 ff bc d3 2c 11 3d eb cb d6 bc
       0.03949787 -0.031207463 0.03544314 -0.026220283
0000f0 26 2a 7b 3c 9a fe 2d bd b4 4f f6 3b 20 8a 10 bd
       0.015329873 -0.042479135 0.0075168256 -0.035287976
000100 23 de b2 bc 50 a0 ea 3c 46 9c 44 3d f0 df db 3c
       -0.021834439 0.028640896 0.048000596 0.02684018
000110 5f b6 d3 bc f0 84 5f 3b 19 9e e7 3c d0 c6 18 3d
       -0.025843797 0.0034106337 0.028273629 0.037298977
000120 74 df 09 bb 9a 1f b3 3c 08 54 e1 bc 9f 46 3a 3c
       -0.002103773 0.021865655 -0.02750589 0.011369376
000130 97 95 0f bd 94 f2 a2 bc 83 64 45 3d c5 74 00 bc
       -0.03505477 -0.01989106 0.04819156 -0.00784034
000140 1d a4 96 bc 61 a2 81 bc 3c 99 28 bd 3c 4e 28 bd
       -0.018388802 -0.015824499 -0.04116176 -0.041090235
000150 7d ed 0e bc 6f 35 2c 3d 08 0c 3b 3d cc 7c 26 bd
       -0.008723614 0.042043146 0.04566577 -0.04064636
000160 06 77 21 3c 43 b5 de 3c 39 6e 0a bd 8c 16 32 bd
       0.009855038 0.027186042 -0.033796523 -0.043478534
000170 c8 d1 8f bb b0 14 31 3d 2e 03 14 3a dc 67 2d 3d
       -0.0043890215 0.04323262 0.0005646226 0.042335376
000180 67 71 0c bd 5c 87 85 3b e0 0e bd 3c 6d b7 0f bc
       -0.034287836 0.004074974 0.023078382 -0.008771759
000190 64 6e 37 3d f3 3d 3d bc 3b 96 d0 3c 5c 7f 63 ba
       0.04478301 -0.011550414 0.02546226 -0.0008678341
0001a0 95 d5 4d bc 3f 9f bb 3c 50 45 08 3d 0d b5 8e 3a
       -0.012563129 0.022903083 0.033269227 0.0010887698
0001b0 00 94 6d bc e4 02 ca bc 4d b5 81 3c ba a5 ee bc
       -0.014500618 -0.024659581 0.015833521 -0.029131759
0001c0 48 03 3d 3d 11 fc e6 3c de ee 01 bc 6a aa 01 bc
       0.046145707 0.028196367 -0.0079304855 -0.007914165
0001d0 b7 1c 8e 3c c7 59 9f bc 32 ba 72 bb 85 26 af bc
       0.017347677 -0.019451989 -0.003703725 -0.021380672

fc2.weight f4 [84, 120]
000000 59 31 5f 3c 5e dc 5d 3d c7 13 fe 3d 07 dc 3d bc
       0.013622605 0.054165237 0.12406116 -0.011588103
000010 24 6f a2 3d ec 4c 95 bd 45 32 9a 3c 47 66 c5 bd
       0.07931355 -0.07290062 0.018822799 -0.096386485
000020 4e 90 a5 3c 28 61 c5 bd 0f fc 84 bd 57 2d ae 3d
       0.020210411 -0.09637672 -0.06493389 0.08504742
000030 ca d2 20 3d 15 60 92 3d 3c 62 5e 3d c9 ab e1 3d
       0.039263524 0.071472324 0.054292902 0.110190935
000040 fe b7 42 3d 2e 62 86 bd 32 0d ad bd 7d 2f d3 3c
       0.04753875 -0.06561695 -0.084497824 0.02577948
000050 54 f2 bf bc 6d 93 24 bc 0a a5 bd 3b 23 62 9e bc
       -0.02343098 -0.010044915 0.0057874965 -0.019333905
000060 ea 52 32 3d 0b 51 8e bd 0b e0 55 3b aa b4 27 3d
       0.043536104 -0.069490515 0.003263476 0.04094378
000070 fa af 34 3d d6 32 94 3d e6 1f 5d bc cd a2 f1 bd
       0.044113137 0.07236259 -0.013496375 -0.1179863
000080 d1 65 b5 3d 16 a3 d6 3d 97 f6 92 3c cf 2f a2 bd
       0.088573106 0.10480325 0.017939849 -0.07919275
000090 a8 f0 02 3d 21 88 c3 3c 0c 1a 87 3d b8 58 3b bd
       0.03196779 0.023868622 0.06596765 -0.045738906
0000a0 71 d2 9a bd 21 c6 15 3d c3 45 87 bd 90 42 3b 3d
       -0.0755967 0.036565904 -0.06605103 0.045717776
0000b0 b9 ea e4 3c 55 57 8b 3d 66 c0 43 bd 59 16 a3 bd
       0.027943956 0.06803767 -0.047790907 -0.07963247
0000c0 97 f6 cd bc 5d e6 15 bd 4e 5d 80 bc d5 af 19 3d
       -0.025141997 -0.036596645 -0.015669491 0.037521202
0000d0 2f d1 a2 bd 34 1e 51 3d 45 69 cd 3d 43 4f c8 bd
       -0.07950055 0.051054195 0.10029844 -0.09780743
0000e0 5a 6a 90 bc a6 38 80 3c 53 cf ae 3c 14 7a 82 3c
       -0.017628837 0.015652012 0.021339094 0.015927352
0000f0 c2 31 de bc 73 91 ba 3d 3e ff 7c 3d 8d 83 85 bd
       -0.027123336 0.091097735 0.061766855 -0.06519232
000100 01 04 03 3e 17 0c 8a 3d f9 5f b7 bd cd 70 0d bd
       0.12794496 0.06740587 -0.08953852 -0.034531403
000110 34 f4 5b bb 0b fe 81 3d d3 fe 18 bd c8 30 b4 3d
       -0.0033562304 0.06347283 -0.037352394 0.08798367
000120 b7 ea ee 3d cb ea 64 bb 2a 17 ea bd 74 f9 77 3a
       0.11665862 -0.0034929987 -0.114301994 0.00094594737
000130 fe 11 bc bd af bb 80 bd d2 6f 77 3c 16 7b 72 bd
       -0.09183119 -0.06285798 0.015102344 -0.059199415
000140 c6 ba 06 3a d5 c0 24 bd 53 24 c8 bd 92 cd e5 3c
       0.0005139526 -0.04022296 -0.09772553 0.028052125
000150 3e ee 9b bc 4a b2 20 bd 86 51 02 3d 2d 16 d4 bc
       -0.019034501 -0.03923253 0.031816028 -0.02588948
000160 85 54 1d bc 63 a0 88 3d 1f f7 c3 3d 01 76 03 bd
       -0.009602671 0.06671216 0.09568619 -0.03209496
000170 a3 63 a6 3d 89 5f a2 3d 03 f4 87 3d 48 ba ed 3c
       0.08124473 0.07928378 0.066383384 0.02901949
000180 3a 01 b3 3d 3d 0e 19 bd d9 72 1c bd 0f 28 13 3d
       0.08740468 -0.037367094 -0.038195465 0.035926875
000190 ef 35 91 3d e2 9a a3 3d d7 2b 1c bd d6 82 d7 3d
       0.07090365 0.07988526 -0.038127746 0.10523002
0001a0 da 89 1e bd 81 13 0a bd 5e 02 8f bd 74 a5 96 bd
       -0.038705684 -0.033710007 -0.069828734 -0.073557764
0001b0 5e 9c 84 bd 4e 4a 06 bd 5f 25 6f bd a8 84 31 bd
       -0.06475137 -0.032785706 -0.05838525 -0.0433394
0001c0 70 df 7a bd 0e 58 b6 3d 2e a2 e6 3c f8 3f 8f bc
       -0.061248243 0.08903514 0.028153505 -0.017486557
0001d0 71 6b 07 bd 31 fb 15 3d ef 07 42 3d b0 51 af 3b
       -0.03306145 0.036616508 0.047370847 0.005350314
0001e0 79 9f 07 3d 9b 9c 04 bd 75 dc 48 bd 99 c8 8e 3d
       0.03311107 -0.032375913 -0.04903837 0.06971855
0001f0 b1 a8 5f bd 84 14 97 bc 29 b6 b5 bd 83 8c e8 3c
       -0.054604236 -0.0184424 -0.08872635 0.028387314
000200 03 74 71 3c b8 06 1e 3b 2d d4 db bc ab c2 8f bb
       0.014737132 0.0024112891 -0.026834572 -0.00438722
000210 fd 66 7d 3d 73 0f d5 bb 2c e0 9e ba 33 97 31 bc
       0.061865795 -0.006502086 -0.0012121252 -0.010839271
000220 ff bc 3f 3a 91 62 17 bd af 45 3b 3d 27 5f 11 bc
       0.00073142344 -0.036959235 0.045720752 -0.008872784
000230 f8 20 93 3d 43 e9 80 bd 03 6b 87 bc a7 df 9a bd
       0.07184023 -0.06294491 -0.01653052 -0.075621895
000240 a4 ae 01 3d 21 95 b3 bd 96 0e 7a 3d a3 96 6b bd
       0.03166069 -0.087686785 0.061049066 -0.057516705
000250 3e d0 96 3d d8 50 23 bc e0 72 b4 bd f5 12 b9 bd
       0.07363938 -0.009968005 -0.08810973 -0.09036819
000260 a5 3f d1 bc bb 2e c1 3d c9 d7 38 3c e5 e3 c2 3c
       -0.025543043 0.09432741 0.011281916 0.02379031
000270 67 ed 39 bd 39 c9 0f bc 8c e7 7c 3d 7a bf 5e 3d
       -0.04539242 -0.008776003 0.061744258 0.054381825
000280 9d b8 6f bc 92 1c 79 bd ab 77 a7 3b cf 32 25 bd
       -0.014631418 -0.060818262 0.005110701 -0.040331658
000290 c8 64 b1 3c 20 49 ed bc f7 d6 47 3d 57 07 37 3d
       0.021654502 -0.028965533 0.04878899 0.044684734
0002a0 c7 fb fc bc ec d1 1c 3d c6 15 82 3d f5 66 b0 3d
       -0.030881776 0.038286135 0.06351809 0.086133875
0002b0 d1 b5 8f 3d 68 8f cb 3d 4e 3e 72 3c 7e 41 70 bc
       0.070171006 0.09939462 0.014785362 -0.014664052
0002c0 3f 37 a4 bd 28 c2 85 bd ef 51 72 3d d0 fe 0d bd
       -0.0801835 -0.06531173 0.05916017 -0.034666836
0002d0 5a 18 8e bd a9 d9 9d bd 7f 37 14 3d 9e 36 6e 3d
       -0.069382384 -0.07707531 0.036185738 0.058157556
0002e0 04 e0 ce bc 04 d0 0f bb dd 83 b1 3d ea 0f 2e bb
       -0.025253303 -0.0021944055 0.08667729 -0.0026559778
0002f0 3d 4f 5a bd 5e b8 11 bd a6 ca 96 3d 17 99 bc bc
       -0.053298224 -0.035576217 0.07362871 -0.023022218
000300 9d de 2d bd d3 2e 86 3c 64 55 c1 3d 3b c2 8b bd
       -0.04244863 0.01637975 0.09440115 -0.06824156
000310 4f e0 2e bd 09 2e e9 3c d9 6f 07 3b 82 1e b0 bd
       -0.042694386 0.028464334 0.0020666032 -0.08599569
000320 51 d7 36 bd e2 f7 30 3c 0e 39 38 3b 74 d5 98 3d
       -0.044638935 0.010801287 0.002811018 0.07462588
000330 02 99 18 bd 22 b7 36 3c a4 9e ab bd d2 11 c4 3c
       -0.037255295 0.011152061 -0.08379868 0.023934279
000340 63 8b c4 3d a6 09 96 3d 8a 8d 95 bd ee 64 3d 3d
       0.095968984 0.07326059 -0.07302387 0.046238832
000350 c8 4a 0f bd 5e 08 53 bd e4 b3 ac bd 58 61 84 bd
       -0.034983426 -0.05152165 -0.08432749 -0.06463879
000360 c9 2e ae 3d f5 0a b2 bd 60 9f ac bb f9 71 2a bd
       0.08505017 -0.08693496 -0.0052680224 -0.0416126
000370 1e 46 a6 bd 34 11 5f bd 9f 03 93 bd 04 d2 97 bd
       -0.081188425 -0.054459766 -0.07178425 -0.07413104
000380 68 2f 95 bc 9e 21 ec 3c 74 3e 63 bc 00 54 cd 3c
       -0.018211082 0.028824624 -0.01386987 0.025064468
000390 43 10 3b 3d 76 ff 3e b9 11 ce e2 3c 6c 2e ab bb
       0.045669805 -0.00018214979 0.02768615 -0.00522404
0003a0 20 e6 dc bc 94 b5 73 3d 1f cb e7 39 82 b6 7e bd
       -0.0269652 0.05949934 0.0004421109 -0.06218577
0003b0 99 8a 7b bd 19 08 5f bd 50 d7 b4 3d 6b 8f f5 bc
       -0.061411474 -0.054451082 0.0883013 -0.029975614
0003c0 93 ea 65 bd 22 36 45 3b 77 6f 8f 3d ab 6e a7 3d
       -0.05613191 0.003009208 0.07003682 0.08175405
0003d0 fc f0 d1 3b 79 e2 d6 3d 26 6e 16 3d da d3 18 3e
       0.0064069014 0.10492415 0.03672614 0.14924565
0003e0 df b9 a6 3d 75 6c 53 3d d8 4f 31 bd 7d 01 06 3e
       0.08140921 0.051617105 -0.043289036 0.13086505
0003f0 61 7d 7d 3d b7 82 73 3d 10 e9 db 3c c7 26 93 bc
       0.06188715 0.05945083 0.026844531 -0.017962826

fc2.bias f4 [84]
000000 e7 bf 4b bc c6 4f 8e 3d f3 a8 9d 3b bc 71 1d 3d
       -0.01243589 0.06948809 0.0048114 0.038438544
000010 7e cd 8c 3c f6 e9 80 3d 44 93 6f 3c a7 20 78 3d
       0.01718783 0.062946245 0.014622513 0.060578015
000020 38 f0 b2 bd f4 12 1a bd 93 55 57 3d 97 a4 19 3d
       -0.08737224 -0.03761573 0.052571844 0.03751048
000030 ba 0e 29 3d 46 7c 5d 3b b1 39 da 3c 1e 31 b5 bd
       0.04127381 0.0033795997 0.026638838 -0.08847259
000040 be 3a 18 bd d6 ba 5a 3c 05 71 54 3d b0 ac 5d 3d
       -0.037165396 0.013350209 0.051865596 0.054119766
000050 21 f5 11 bc de 82 15 3d 68 12 5e bd 4c 1e 12 bc
       -0.008908541 0.036501758 -0.054216772 -0.008918356
000060 c0 86 49 bc 8e d3 19 bd 61 70 16 bb 0e d6 d1 3d
       -0.012300193 -0.03755527 -0.0022955167 0.10245906
000070 ac af ce 3d 5f 0d ec 3c ce 13 3f 3c 01 4f 4c bc
       0.100921005 0.02881497 0.011662437 -0.012470008
000080 c1 f5 e9 bc 6c e2 2c 3d 4f 59 5e bd c7 06 85 3b
       -0.028559567 0.04220812 -0.05428439 0.004059646
000090 b0 25 c5 bc e0 95 be bc e7 cd 10 bd a7 47 9c 3d
       -0.024065822 -0.023264825 -0.035352614 0.07630854
0000a0 6d 63 8a 3c 93 ac d8 bc 02 76 0d 3d 94 09 9a bd
       0.016893113 -0.026449477 0.03453637 -0.07521358
0000b0 af 10 47 3d f9 70 b3 bc e9 a2 73 bd 27 89 3f bc
       0.048599895 -0.021904455 -0.059481535 -0.0116904145
0000c0 45 22 a5 3c 96 c4 71 bc f5 be d9 bc 4a 43 3d 3d
       0.020157943 -0.014756342 -0.026580313 0.04620675
0000d0 7c 18 4e bc d7 53 30 3d 3b 0d 85 bd 52 7a a7 bd
       -0.01257908 0.043048706 -0.06496664 -0.081776276
0000e0 30 ed 18 bd 60 23 9e 3d f3 c8 47 3d b3 15 50 3d
       -0.037335575 0.07721591 0.048775624 0.050801944
0000f0 38 ed 90 bd 89 66 46 3d 86 01 02 3d d3 c1 4e bd
       -0.07076496 0.04843763 0.031739734 -0.050477814
000100 b9 5c bd 3d 28 d8 0d 3b 57 13 bc 3b 10 8c bc 3d
       0.09246201 0.0021643732 0.00573961 0.09206402
000110 40 e4 73 3d 10 6b 8f 3d e3 1a 9d bd 0e ff 8c bd
       0.059543848 0.070028424 -0.07671144 -0.06884585
000120 93 d8 a9 bd 6d 45 af bd 89 c8 a7 3c dd 6d 0c 3d
       -0.082932614 -0.08558164 0.020481365 0.03428446
000130 68 f4 92 3b 8d 7d 30 3d cb 02 c1 3c d7 52 e6 bb
       0.004484702 0.043088485 0.023560902 -0.0070289182
000140 9b 92 ca 3b 2d 0b 19 3d 26 6d 88 bd 03 81 23 3c
       0.0061820275 0.037364174 -0.066614434 0.009979489

fc3.weight f4 [10, 84]
000000 61 61 17 bd 17 7d d1 3d f8 a7 92 be 28 07 e0 3d
       -0.036958102 0.10228937 -0.28643775 0.10938865
000010 f4 f3 80 bb e9 55 da bd 87 2d 2a 3e 5a d1 04 be
       -0.0039353315 -0.10660917 0.1661893 -0.12970486
000020 a0 b9 d6 3c b4 c6 05 be 3a 0b 55 bc df 58 2b 3d
       0.02621156 -0.1306408 -0.013003165 0.0418328
000030 7b 67 60 3c 68 af 91 3d 88 dd 0d be ae e8 9d 39
       0.013696547 0.07113534 -0.13854039 0.00030118733
000040 53 2f be ba 7a 91 2c be 34 ff 47 3d ee 09 8c bc
       -0.0014509953 -0.1685237 0.048827365 -0.017094579
000050 be 20 c7 3b 7d ff f0 bd ec 6a d0 bd bd 2e 4a 3c
       0.006076901 -0.117674805 -0.10176644 0.012340245
000060 5f 37 f3 3c 68 53 91 3d f7 b8 0b 3d 7c b3 f3 bd
       0.029689489 0.070959866 0.034111943 -0.11899468
000070 47 95 0f be fb ee 69 be d9 9d 3e 3d b9 ac 23 be
       -0.14021789 -0.2284507 0.046537254 -0.15983857
000080 9a 3c ba bd 87 82 d8 3d 29 79 64 bb f8 49 aa bd
       -0.0909359 0.10571771 -0.0034862256 -0.0831489
000090 e0 fe 84 bc c2 44 8b bd e7 6a d7 bd ff 93 5b bd
       -0.016234815 -0.06800224 -0.10518437 -0.053607937
0000a0 7c 30 68 bd d9 a6 9d bd 91 47 86 bc c9 08 d7 bd
       -0.056686863 -0.07697839 -0.016391547 -0.104997225
0000b0 47 72 fb bd 0f 79 df bd 33 64 08 3e f0 b4 25 3e
       -0.12277656 -0.10911762 0.13319473 0.16182303
0000c0 1f 18 9e 3d ca 11 1d 3d ff 1c c6 3a 23 af 11 bd
       0.077194445 0.038347043 0.0015114843 -0.035567414
0000d0 8a c5 d4 bd c4 28 a8 3d 66 10 91 bd 6f 3b 9d 3d
       -0.1038924 0.082109004 -0.07083206 0.07677352
0000e0 c5 bd 21 bd 85 62 3b 3d 83 e1 b2 3d 52 6d 46 3d
       -0.03948762 0.045748252 0.08734419 0.0484441
0000f0 26 14 91 3d 76 c9 88 bd 89 d7 2d 3e 2a 39 0f 3e
       0.07083921 -0.066790506 0.16976751 0.1398665
000100 0f 54 ae 3b b9 b5 5d 3d dd 89 71 3d 8a b0 dd 3d
       0.005320079 0.054128382 0.058969367 0.10824688
000110 cd ce ed bd 04 1e 24 bb 27 3d e9 bd c2 2d ba bd
       -0.1161171 -0.0025042305 -0.11388617 -0.09090759
000120 f6 38 31 3e 08 08 34 3e c4 09 d4 3d b1 76 16 3e
       0.17306885 0.17581189 0.10353425 0.14693715
000130 ed ae db 3d 87 31 96 3d 5a ae 4d 3e e9 24 22 bc
       0.10726724 0.07333665 0.20086041 -0.009896495
000140 f7 34 22 3e ed 84 83 3d c5 23 4e 3d 94 84 18 3e
       0.15840517 0.06421838 0.05032708 0.14894325
000150 cf fd be 3d 2f 13 2e bd c2 60 03 3e 8a 59 53 3c
       0.09325754 -0.042498764 0.12829879 0.012899766
000160 05 70 cd bd f9 19 88 bd e5 63 a1 3d 9e 40 a4 3d
       -0.10031132 -0.06645579 0.078803815 0.08020137
000170 c3 8a 0d 3e 53 6f 0f 3e 66 84 0e 3c 6b ee 08 be
       0.13822465 0.1400731 0.008698558 -0.13372199
000180 c1 f3 31 be 1b b4 f0 bc d4 9a 11 3e ce 22 84 3d
       -0.17378141 -0.029382756 0.14219218 0.06451951
000190 a6 3d 4c 3e 51 48 1e 3c d0 b6 aa 3d 91 f7 bf 3d
       0.19945392 0.009660796 0.0833565 0.093733914
0001a0 d0 81 d5 3d a4 94 ec 3d 14 8d cf 3d 26 27 1b 3c
       0.104251504 0.115517884 0.101343304 0.009469783
0001b0 05 cf b2 bd cc b1 88 bd f2 72 15 be d3 2a 29 3d
       -0.08730892 -0.06674537 -0.1459463 0.041300606
0001c0 0a e4 88 bd c7 d6 03 be 63 40 0e be be 23 77 bc
       -0.0668412 -0.128749 -0.13891749 -0.015084205
0001d0 73 c7 42 be b2 90 97 bd ec 60 99 bd 83 41 fc bd
       -0.19021396 -0.07400645 -0.074891895 -0.12317183
0001e0 6d 11 78 3c 60 c4 58 3d 61 86 c7 3d f1 cd ce 3d
       0.015140873 0.052921653 0.097424276 0.10097874
0001f0 4e 9d 79 bd 66 07 98 3d dd 0d 74 bd 82 57 17 be
       -0.060941033 0.07423286 -0.059583534 -0.14779475
000200 a9 94 d0 bd d8 78 71 3e e8 c6 97 3c db f5 05 3d
       -0.10184605 0.23581254 0.018527463 0.03270517
000210 8d a2 47 3e 0e 41 a4 bd 8e 2b 82 be f5 a5 1e 3d
       0.19495602 -0.08020221 -0.25423855 0.038732488
000220 27 21 b0 3c b0 91 b9 bd 63 be 58 bd 2b 3a c6 3d
       0.021500183 -0.09060991 -0.052915942 0.096790634
000230 fc 9b 90 bd 2d e8 f2 3d 25 4c a1 3c 86 2c 51 bd
       -0.07061002 0.1186069 0.019689629 -0.05106785
000240 23 69 20 bd 34 51 18 be c4 92 09 3d 8e fb ce bc
       -0.039162766 -0.14874727 0.033587232 -0.025266435
000250 75 1f f5 3d b2 c4 17 3e b1 08 7f bd a9 8c 55 3d
       0.119688906 0.14821127 -0.06226415 0.052136097
000260 42 10 e6 3c e4 69 12 be ec 3f 96 bd 35 94 a4 bd
       0.028083924 -0.14298207 -0.07336411 -0.08036081
000270 77 05 d1 bd 2c ea 87 bd 46 ae 31 bc 83 2f 97 3d
       -0.102061205 -0.066364616 -0.010844773 0.07382109
000280 43 c3 8a be 8d b3 84 3d a0 12 e1 bd 5a 78 a1 bb
       -0.27102098 0.06479559 -0.109898806 -0.004927677
000290 46 55 15 3d b6 11 b2 3c ba 80 75 3e 28 0d a6 3d
       0.036458276 0.02173696 0.23974887 0.08107978
0002a0 c9 30 43 3e e6 93 ad 3d fa a9 ca 3d 85 dc 46 3e
       0.19061579 0.08475475 0.09895702 0.19420059
0002b0 b9 3c a1 3d 48 0e 25 3d cb be de 3c 6a 48 be bd
       0.0787291 0.040296823 0.027190587 -0.09291156
0002c0 e1 81 7e b9 fc 7f 94 3d 68 d5 1f bc f4 3f f6 3c
       -0.00024271711 0.072509736 -0.00975547 0.030059792
0002d0 ba 8a 66 3d 59 1a e7 bd 1c af fd 3d 64 4e 85 3d
       0.056284644 -0.11284322 0.12386915 0.065090925
0002e0 8c 94 f8 3c 66 99 1b 3c 78 b8 bb 3d 01 48 57 3d
       0.03034427 0.009497022 0.09166044 0.052558903
0002f0 1b 00 8e bd 9d 92 82 be 85 01 d6 bd e0 5f d2 bd
       -0.06933614 -0.25502482 -0.104495086 -0.10272193
000300 28 77 9a 3d c3 e5 e3 3d ea d1 7c 3e 6f d0 da bd
       0.075422585 0.11127808 0.24689451 -0.10684287
000310 37 95 f8 3d a6 5c ec bd a4 79 e5 bd 95 e2 49 be
       0.121378355 -0.11541109 -0.11204842 -0.1971534
000320 e4 ad a6 bd c0 14 ae bd bf 6d 64 3d 0f a4 11 be
       -0.08138636 -0.085000515 0.055768725 -0.1422274
000330 3f 2f 88 bd eb 01 4f 3d bd fb ab 3c 6d 94 b3 bc
       -0.066496365 0.05053894 0.020994062 -0.02192136
000340 3e db 32 3e cd 6c 17 be 06 e9 2a bc 3c 22 56 bd
       0.17466447 -0.14787598 -0.010431534 -0.052278742
000350 ce bb 3a 3e 95 b5 9a 3d d2 40 ac 3d 6f 31 bc 3c
       0.18235704 0.07554165 0.08410801 0.02297279
000360 f0 39 61 3e c1 71 a4 bd bd 0e eb 3d c0 3f 8f bd
       0.21994758 -0.08029509 0.114774205 -0.06994581
000370 2d 3f ca bd 5a 2c d0 3d d7 b1 20 be 6d 6c 07 3e
       -0.09875331 0.101647094 -0.1569284 0.13224955
000380 ac b0 9f bd cf 54 9b bc 54 06 82 3d 50 f6 d8 bc
       -0.07797369 -0.018961338 0.06348863 -0.026484638
000390 f0 40 d0 bd d8 76 83 3d aa fa 6e be f8 f0 68 bd
       -0.10168636 0.06419152 -0.23337808 -0.05687043
0003a0 51 1b 05 3d b4 0c 5a 3d d3 93 17 3d 1d 9c 8e bd
       0.032496754 0.05323477 0.03700621 -0.0696337
0003b0 93 a2 5c bb 2b 44 da 3c a1 27 18 bd aa 7a 23 3c
       -0.0033666238 0.026643833 -0.037147168 0.009977976
0003c0 44 80 1d 3d d3 ba e4 3d 15 31 40 3d c3 70 d3 3d
       0.0384524 0.111684464 0.04692181 0.10324242
0003d0 3f 2f 1e be 0e 34 9e bd a9 e0 18 3e 9c fd 10 be
       -0.1544771 -0.077247724 0.14929451 -0.14159244
0003e0 7c 97 5e bd 80 98 20 be 49 4f 73 3d a6 6f 7b 3c
       -0.054343686 -0.15683174 0.059401784 0.015346443
0003f0 30 ba 8b bd 0c ca c7 3d 9a 60 0b 3e e9 e9 17 3e
       -0.06822622 0.09755334 0.1361107 0.14835323

fc3.bias f4 [10]
000000 83 81 e4 bd 0a 69 73 bd 6c 1d f0 3c 0b 7a 90 3c
       -0.11157515 -0.059426345 0.029310904 0.01763632
000010 fc 8d 5f bd 88 ed 36 bd 25 5f 3f 3d 03 18 74 3b
       -0.054578766 -0.04466012 0.046721596 0.0037245757
000020 b8 ab 89 bd 25 ee bf bc
       -0.06722206 -0.023428986
